module_nn/module_0.pth (torch, 341767 bytes, 10 tensors)

weight f4 [32, 3, 5, 5]
0.24271432 0.05149433 0.13551925 0.019459516 -0.003837874 -0.088152304 0.041239515 0.10295468
-0.080727845 0.0059256237 -0.06843343 0.029891927 -0.0052567865 0.0693102 0.0737791 -0.12747128
-0.19828118 -0.22651137 -0.027313296 -0.0581128 -0.1156232 -0.13309582 -0.14181776 -0.079266615
-0.12877615 -0.08554352 -0.09094018 0.008946871 -0.09112383 -0.04272892 -0.16400899 -0.016646873
-0.054143164 0.037403107 0.07791743 0.0008948087 0.13250117 -0.0035028926 0.08627936 0.0746305
0.10488769 0.14807491 0.10016884 -0.06123822 0.041576136 -0.10404541 0.08750542 -0.061676033
0.07543295 -0.057764467 -0.16399574 -0.21518715 -0.19707781 -0.055287726 -0.041000262 -0.04616398
-0.054112196 0.017642712 0.14641958 0.16938423 -0.074210934 0.23308119 0.1037754 0.076044016
0.0993679 0.18068926 0.16590385 -0.024612747 -0.063967824 0.07618746 0.07892978 0.031849556
0.13235468 0.0053617912 -0.06171494 0.22822523 0.12856282 0.12223088 0.26768762 0.080853075
0.06533626 0.089927554 0.15632187 0.15769312 0.034689546 0.094101205 -0.085275605 0.11997723
0.030689154 -0.039730724 0.031976074 -0.030151963 0.009040375 -0.14975357 -0.2364976 -0.13862218
-0.07065039 -0.035464875 -0.039102923 -0.05408851 0.036742184 -0.11821969 -0.13669841 -0.075325936
-0.09204856 -0.07056675 -0.19097686 -0.16729249 -0.10311123 -0.14818358 -0.07151675 -0.048446592
0.062034175 -0.03491696 -0.042118143 -0.09470439 -0.055883482 -0.10111367 -0.08304343 -0.20766824
-0.13375093 -0.14180467 0.029506685 -0.20994546 -0.12733947 0.04314649 -0.07643819 -0.077625506
-0.11096735 -0.020858085 -0.09112263 -0.08694433 -0.046163388 -0.06772991 0.16079685 -0.0021653557
0.08583782 0.12217516 0.025237568 0.22130395 -0.033383142 0.152506 0.04179211 0.18153061
0.23105161 0.09851143 0.16432947 0.08316416 0.2182099 0.19566531 -0.031122962 -0.010409826
0.087146305 -0.11569326 -0.062001597 0.107760705 -0.005832454 -0.02320261 -0.14168736 0.064379014
0.30504686 0.042648483 -0.26198447 -0.27254653 0.31273475 0.17613705 -0.37595597 -0.19259806
0.16522032 0.3189364 -0.14401574 -0.1720576 -0.06892421 0.15010221 0.08650501 0.16801494
0.074103445 0.17821486 -0.00403437 0.13476786 0.020837974 0.1537324 0.086886704 -0.23007216
0.026962588 0.29459935 -0.011934778 -0.071441196 -0.17381464 0.34476906 0.12241503 -0.2825011
-0.19566287 0.023354646 0.2902549 -0.07348968 -0.024751322 0.2040201 0.11039302 0.029697925
0.039271176 0.043066908 0.18600816 -0.16838771 -0.17556654 -0.07464793 0.07346178 0.113085695
-0.31959423 0.021663956 0.04736362 -0.03611102 -0.037520435 -0.3686127 -0.0028016265 0.03604262
-0.22614308 -0.09630797 -0.093162715 0.024715673 -0.17342226 -0.12935393 0.16209757 0.09802371
-0.155859 -0.14859483 0.06153729 0.18369038 0.39761296 0.24248528 -0.20339935 -0.23600511
-0.019732937 0.19592623 0.15784732 -0.13482895 -0.15129977 -0.1483806 0.24961977 0.22530964
-0.28120282 0.024037546 -0.17827575 -0.008074197 0.15064722 -0.40522334 0.08625452 -0.02544913
-0.18276285 0.0516409 -0.16638461 -0.11244933 -0.009628748 -0.009929889 -0.007578789 -0.12627909
00000000: 1a8a 783e b8eb 523d 8fc5 0a3e 9069 9f3c
00000010: d784 7bbb 3289 b4bd c4ea 283d e7d9 d23d
00000020: a454 a5bd bc2b c23b d326 8cbd eadf f43c
00000030: 1f41 acbb 82f2 8d3d 7f19 973d d587 02be
00000040: 390a 4bbe 99f2 67be 22c0 dfbc b007 6ebd
00000050: dbcb ecbd 454a 08be ad38 11be 8956 a2bd
00000060: e5dd 03be 7131 afbd d83e babd e695 123c
00000070: 219f babd 8504 2fbd f9f1 27be 065f 88bc
00000080: 39c5 5dbd 0034 193d 2c93 9f3d 9891 6a3a
00000090: 63ae 073e c990 65bb 3cb3 b03d e0d7 983d
000000a0: 5bcf d63d f3a0 173e 5225 cd3d eed4 7abd
000000b0: bd4b 2a3d c315 d5bd 0b36 b33d 02a0 7cbd
000000c0: 977c 9a3d 6f9a 6cbd 80ee 27be 055a 5cbe
000000d0: c4ce 49be 6275 62bd e4ef 27bd 7116 3dbd
000000e0: c0a4 5dbd 7387 903c 04ef 153e 0f73 2d3e
000000f0: e7fb 97bd d6ac 6e3e 3288 d43d f7bc 9b3d
00000100: 6681 cb3d 9b06 393e b3e2 293e aca0 c9bc
00000110: 9001 83bd 2c08 9c3d f0a5 a13d ae74 023d
00000120: fc87 073e f7b1 af3b cec8 7cbd e0b3 693e
00000130: f9a5 033e 2f54 fa3d 5a0e 893e 4c96 a53d
00000140: 04cf 853d f02b b83d d712 203e 4e7a 213e
00000150: a016 0e3d 22b8 c03d faa4 aebd 9fb6 f53d
00000160: d267 fb3c afbc 22bd 58f9 023d 4001 f7bc
00000170: 151e 143c 0059 19be 6d2c 72be f9f2 0dbe
00000180: 27b1 90bd 9e43 11bd 632a 20bd ea8b 5dbd
00000190: f97e 163d 2a1d f2bd abfa 0bbe 7c44 9abd
000001a0: f583 bcbd 4d85 90bd 708f 43be b94e 2bbe
000001b0: fb2b d3bd 70bd 17be 6077 92bd ef6f 46bd
000001c0: 8c17 7e3d 1605 0fbd 1384 2cbd 60f4 c1bd
000001d0: 14e6 64bd af14 cfbd ac12 aabd fca6 54be
000001e0: 01f6 08be 3e35 11be 01b8 f13c f1fb 56be
000001f0: 4765 02be 60ba 303d a08b 9cbd 1ffa 9ebd
00000200: da42 e3bd 93de aabc 809e babd de0f b2bd
00000210: d215 3dbd fbb5 8abd eea7 243e a4e8 0dbb
00000220: bdcb af3d f836 fa3d 04bf ce3c 819d 623e
00000230: c3bc 08bd 882a 1c3e 342e 2b3d 29e3 393e
00000240: cb98 6c3e 5cc0 c93d fc45 283e f951 aa3d
00000250: 6b72 5f3e 7d5c 483e 95f5 febc fa8d 2abc
00000260: c379 b23d 97f0 ecbd 63f5 7dbd a5b1 dc3d
00000270: 2c1e bfbb 6613 bebc 7e16 11be 25d9 833d
00000280: 1a2f 9c3e 2db0 2e3d d422 86be 388b 8bbe
00000290: c51e a03e 455d 343e 4d7d c0be 6d38 45be
000002a0: 842f 293e a24b a33e dd78 13be de2f 30be
000002b0: 2328 8dbd 65b4 193e 8a29 b13d 1c0c 2c3e
000002c0: 8cc3 973d f57d 363e c032 84bb 9600 0a3e
000002d0: 66b4 aa3c 076c 1d3e a8f1 b13d 0998 6bbe
000002e0: a5e0 dc3c bad5 963e 168a 43bc c34f 92bd
000002f0: 77fc 31be 9285 b03e bbb4 fa3d fca3 90be
00000300: d95b 48be 3e52 bf3c 4a9c 943e c281 96bd
00000310: 49c3 cabc a5ea 503e bc15 e23d 1049 f33c
00000320: d0da 203d ed66 303d ec78 3e3e d46d 2cbe
00000330: b7c7 33be 04e1 98bd 2173 963d 7999 e73d
00000340: dba1 a3be 9c78 b13c 5b00 423d 26e9 13bd
00000350: 07af 19bd ceba bcbe 7e9b 37bb 6da1 133d
00000360: 0d92 67be 1d3d c5bd 18cc bebd 8678 ca3c
00000370: 9b95 31be 5b75 04be e8fc 253e a8c0 c83d
00000380: 8099 1fbe 3e29 18be 870e 7c3d 5519 3c3e
00000390: ed93 cb3e 104e 783e eb47 50be 53ab 71be
000003a0: f8a6 a1bc e3a0 483e baa2 213e 9a10 0abe
000003b0: 54ee 1abe 16f1 17be 539c 7f3e 92b7 663e
000003c0: d1f9 8fbe 63ea c43c eb8d 36be a349 04bc
000003d0: 4443 1a3e 6f79 cfbe 36a6 b03d b27a d0bc
000003e0: 2f26 3bbe 6985 533d ba60 2abe d64b e6bd
000003f0: e5c1 1dbc f9b0 22bc 7d57 f8bb 4e4f 01be

bias f4 [32]
0.14462261 0.031278733 0.070901565 0.15903795 -0.15300542 0.11428824 0.058270983 -0.03323864
-0.12241541 -0.021825867 -0.17154734 -0.1708823 0.015720228 -0.16460137 -0.058096595 0.022577474
-0.18172026 -0.10139722 0.01706551 0.035341408 -0.0858364 0.043871872 -0.115138784 -0.015537041
0.11060647 -0.27345523 -0.45603222 -0.1616809 -0.1687966 0.15203622 -0.30304506 -0.1549117
00000000: f317 143e 211e 003d d734 913d d8da 223e
00000010: 74ad 1cbe f40f ea3d 8ead 6e3d 3d25 08bd
00000020: eeb4 fabd 29cc b2bc 1baa 2fbe c5fb 2ebe
00000030: b5c7 803c 438d 28be b2f6 6dbd 65f4 b83c
00000040: e014 3abe 58a9 cfbd f8cc 8b3c 27c2 103d
00000050: ffca afbd feb2 333d e2cd ebbd 138f 7ebc
00000060: a585 e23d 5302 8cbe 0e7d e9be ae8f 25be
00000070: 04d9 2cbe 62af 1b3e b928 9bbe 2ca1 1ebe

weight f4 [32, 32, 5, 5]
0.028004086 -0.020139674 -0.050350472 -0.01240279 0.051096886 -0.023745093 -0.03273578 -0.032447807
-0.021546053 -0.024154281 0.047729358 0.06853701 0.07345611 0.08352637 0.07444287 -0.06430971
-0.052862875 -0.028690752 -0.07446063 -0.07630035 0.070764095 0.049005054 0.03486739 0.04548424
-0.02305106 -0.031910274 -0.01552019 0.039811175 0.026197465 0.015134901 0.023202823 -0.029382668
0.0034978015 -0.029110199 -0.049178354 -0.00804772 -0.049088355 0.0142511325 0.01532335 -0.012398229
-0.037472177 -0.06876977 -0.074506775 -0.043878935 -0.054196376 0.091059566 0.0956476 0.08488703
0.093588814 0.07511759 0.023847109 0.13687548 -0.06864553 -0.007771083 0.016976416 0.03594592
0.08526884 -0.0370529 -0.030402916 -0.06478674 -0.06319041 0.04250842 -0.0987989 0.068764254
-0.027048882 -0.046088383 0.037494868 -0.002459684 0.084789656 -0.07946436 -0.07581312 -0.0043376363
-0.051184587 -0.0038528007 0.05084221 0.036308207 0.051698852 -0.102875195 0.11142794 -0.0070888074
0.05277789 0.097193 -0.044114646 0.07908094 0.00843516 -0.0026658748 0.04562071 -0.0627936
0.033453666 -0.0028664109 -0.0699826 -0.018607449 -0.05420688 -0.021373041 -0.06531017 0.024943955
0.013114198 -0.026277129 0.006538784 -0.029754873 -0.024129545 -0.031405684 -0.030759081 0.02849413
-0.0050666286 -0.008362997 -0.010834668 0.013851016 -0.026284311 -0.018547084 0.02731049 -0.03160221
-0.007599346 -0.04296187 -0.0034747357 0.024461346 0.039949708 0.03781438 0.02928236 0.04506688
-0.013320254 -0.051656973 -0.04958198 0.0024345256 0.022560885 0.1172741 0.060387578 0.041221574
-0.053442683 -0.014687808 0.054627366 0.0408078 0.033678684 -0.072808884 -0.026995892 0.074300095
-0.007135622 0.07597727 -0.04324855 -0.035183933 0.054303907 -0.0063379165 0.0024535216 -0.02913146
-0.06557227 0.0023795334 -0.030181715 0.035718977 -0.034942493 0.008799614 -0.021346308 -0.0036011867
0.05455544 -0.03785011 0.024436465 0.07792425 0.10215536 0.0939916 0.046130598 0.03383622
-0.044831358 -0.028508615 -0.077279575 -0.088610545 -0.09979736 0.08998565 0.11100168 0.14766534
0.1167491 0.08681454 -0.01285122 -0.113671474 -0.101503186 -0.11744445 -0.1538101 0.020070586
0.078186736 -0.039984863 0.049279463 0.049648218 -0.041225534 0.034047544 -0.0039559146 0.0021027122
-0.0137429815 0.014917697 0.037217103 -0.031766262 0.008419734 0.056569584 0.00034918048 -0.00024212891
0.0043295645 0.045179315 0.040032864 -0.03661508 -0.028930826 -0.05249069 -0.1046316 -0.06828946
-0.038787816 0.13964878 -0.1448071 0.13346799 -0.07557562 -0.0831897 0.12551953 -0.12728333
0.18045263 -0.023333995 -0.056248195 0.075618826 -0.05474558 0.14880091 -0.037718482 -0.014387007
0.040742222 -0.07914434 0.07004312 0.0133965295 0.011420777 -0.010635986 -0.08511357 0.03941152
0.051369943 -0.029025668 0.018484607 0.0212988 -0.01763645 0.047661126 0.005593467 -0.025377065
0.0056163287 -0.05400381 0.014428176 0.049551304 0.01907445 0.023679117 0.0069678403 0.06476243
-0.020002646 0.0050692135 0.013070831 -0.035759542 0.05535144 0.0004834554 0.00034109724 -0.0644034
-0.043808836 -0.051395692 0.038708203 -0.019825468 0.0042697447 -0.046576384 -0.008881585 -0.004622827
00000000: d368 e53c f5fb a4bc 4c3c 4ebd 1235 4bbc
00000010: f84a 513d 1285 c2bc f415 06bd fee7 04bd
00000020: 5981 b0bc 33df c5bc dc7f 433d 225d 8c3d
00000030: 2870 963d e00f ab3d 8175 983d cfb4 83bd
00000040: be86 58bd de08 ebbc d17e 98bd 5c43 9cbd
00000050: c4ec 903d 86b9 483d 1cd1 0e3d af4d 3a3d
00000060: 94d5 bcbc 59b4 02bd 6548 7ebc 0b11 233d
00000070: 119c d63c 60f8 773c d913 be3c ecb3 f0bc
00000080: 5f3b 653b 8378 eebc 3e6f 49bd 96da 03bc
00000090: df10 49bd 957d 693c ca0e 7b3c f121 4bbc
000000a0: 6d7c 19bd 2ad7 8cbd 0297 98bd 66ba 33bd
000000b0: 05fd 5dbd 707d ba3d e4e2 c33d 40d9 ad3d
000000c0: 7eab bf3d 40d7 993d 035b c33c 1629 0c3e
000000d0: 0796 8cbd 92a4 febb 2012 8b3c 073c 133d
000000e0: 6ea1 ae3d c8c4 17bd 890f f9bc e9ae 84bd
000000f0: f969 81bd 4f1d 2e3d 1457 cabd 46d4 8c3d
00000100: 9e95 ddbc 2cc7 3cbd 3894 193d a632 21bb
00000110: 33a6 ad3d 36be a2bd e943 9bbd bb22 8ebb
00000120: eea6 51bd 457f 7cbb ec3f 503d eab7 143d
00000130: 2dc2 533d 3bb0 d2bd 5534 e43d 3a49 e8bb
00000140: a12d 583d 200d c73d 8fb1 34bd 30f5 a13d
00000150: a033 0a3c f5b5 2ebb c8dc 3a3d ee99 80bd
00000160: b606 093d 65da 3bbb 0a53 8fbd a66e 98bc
00000170: 0908 5ebd 8416 afbc 57c1 85bd 4457 cc3c
00000180: efdc 563c 2243 d7bc 4c43 d63b 7ec0 f3bc
00000190: 53ab c5bc 3fa3 00bd 78fa fbbc 866c e93c
000001a0: f605 a6bb f404 09bc e483 31bc 5fef 623c
000001b0: 3252 d7bc 0ef0 97bc 40ba df3c 5271 01bd
000001c0: ef03 f9bb c9f8 2fbd 64b8 63bb 2963 c83c
000001d0: 4ea2 233d 40e3 1a3d 8fe1 ef3c 0c98 383d
000001e0: 323d 5abc 4396 53bd 7916 4bbd 908c 1f3b
000001f0: 9bd1 b83c 672d f03d f758 773d f4d7 283d
00000200: b7e6 5abd 22a5 70bc f2c0 5f3d 1426 273d
00000210: a9f2 093d d31c 95bd 7d26 ddbc a62a 983d
00000220: f0d1 e9bb f999 9b3d 6425 31bd 071d 10bd
00000230: c66d 5e3d 4cae cfbb 43cb 203b 19a5 eebc
00000240: c14a 86bd f2f1 1b3b a53f f7bc 104e 123d
00000250: dc1f 0fbd 422c 103c 74de aebc e301 6cbb
00000260: 8675 5f3d b808 1bbd fb2e c83c c096 9f3d
00000270: d436 d13d ab7e c03d 70f3 3c3d d997 0a3d
00000280: 16a1 37bd e68a e9bc c144 9ebd 7279 b5bd
00000290: 8f62 ccbd 654a b83d d954 e33d 9535 173e
000002a0: 271a ef3d d2cb b13d ec8d 52bc 97cc e8bd
000002b0: e7e0 cfbd b786 f0bd 6580 1dbe 126b a43c
000002c0: 5e20 a03d 2bc7 23bd 43d9 493d ee5b 4b3d
000002d0: 1bdc 28bd 7075 0b3d 9ea0 81bb a8cd 093b
000002e0: 3e2a 61bc 5b69 743c f670 183d 571d 02bd
000002f0: edf2 093c 82b5 673d 3612 b739 fce3 7db9
00000300: 05df 8d3b f20d 393d 80f9 233d b2f9 15bd
00000310: 5700 edbc 7a00 57bd 1849 d6bd 58db 8bbd
00000320: f9df 1ebd 1700 0f3e 5048 14be d5ab 083e
00000330: 64c7 9abd 5d5f aabd 3188 003e 9056 02be
00000340: 93c8 383e ef26 bfbc 8264 66bd 0bde 9a3d
00000350: e73c 60bd 445f 183e b27e 1abd 7bb7 6bbc
00000360: 51e1 263d 6d16 a2bd c472 8f3d 1e7d 5b3c
00000370: 361e 3b3c 8f42 2ebc 0650 aebd f96d 213d
00000380: 4a69 523d 3dc7 edbc 086d 973c d27a ae3c
00000390: 517a 90bc 5038 433d 6749 b73b 90e3 cfbc
000003a0: 2e09 b83b 1933 5dbd 2864 6c3c 4ff6 4a3d
000003b0: 0542 9c3c b5fa c13c 7b52 e43b 2aa2 843d
000003c0: 97dc a3bc a51b a63b 0a27 563c 9978 12bd
000003d0: 31b8 623d 4978 fd39 4cd5 b239 eee5 83bd
000003e0: e570 33bd 4a84 52bd 7e8c 1e3d 0569 a2bc
000003f0: 37e9 8b3b e1c6 3ebd 1184 11bc 157b 97bb

bias f4 [32]
-0.7890623 -0.6791334 -0.24550627 -0.47891617 -0.5404396 -0.3651828 -0.7884553 -0.18722382
-0.3251847 -0.52651787 -0.433237 -0.45015675 -0.67692083 -0.4918604 -0.6237781 -0.65727067
-0.28575885 -0.367043 -0.5755427 -0.8782149 -0.34760395 -0.47260234 -0.2931568 -0.44803405
-0.5598913 -0.15449274 -0.39037594 -0.46049273 -0.13033356 -0.4726398 -0.36500004 -0.18459214
00000000: fdff 49bf b0db 2dbf ff65 7bbe 8034 f5be
00000010: 405a 0abf 3df9 babe 35d8 49bf 9ab7 3fbe
00000020: 9c7e a6be e0c9 06bf 3dd1 ddbe f27a e6be
00000030: af4a 2dbf 20d5 fbbe ecaf 1fbf e442 28bf
00000040: fc4e 92be 0fed bbbe c456 13bf b1d2 60bf
00000050: 25f9 b1be eff8 f1be a618 96be b864 e5be
00000060: 0955 0fbf 5833 1ebe 5bdf c7be b4c5 ebbe
00000070: 2976 05be d8fd f1be 49e1 babe b905 3dbe

weight f4 [64, 32, 5, 5]
0.02211521 -0.074209 -0.028511992 0.007853856 -0.027592788 0.04120798 -0.010066521 0.07616868
0.07875075 0.037456583 -0.0018059161 0.025497118 0.035583865 0.084572904 0.03493177 -0.031914636
-0.08068077 -0.042535245 -0.020537274 -0.00044242456 0.034479093 0.029042367 0.102326564 0.026952587
0.06720222 -0.018117419 0.09640425 0.02635752 -0.021657256 -0.044574063 -0.028278826 -0.019388372
0.028099708 -0.027010638 -0.112173446 0.08090617 -0.0045258217 0.039833497 -0.00087207166 -0.124553695
0.110661335 0.08742533 0.04289311 0.023687176 0.042032566 0.027342921 -0.0065321657 0.03160424
-0.0033865932 0.1493949 -0.058854382 0.020949109 0.056620102 0.0903478 0.016093647 -0.06284347
0.05049328 0.0037940897 0.03691499 0.023263419 0.078961045 0.033693615 -0.037343573 -0.081984855
-0.022538424 0.040933076 0.0057448335 0.067752056 0.025203558 -0.060841903 0.011180853 -0.016878331
-0.070133686 0.0005017395 0.059715744 0.16697711 0.016783154 -0.059260417 -0.01733234 0.0054035955
0.12634364 0.015259693 -0.018174069 0.04131994 0.00568545 -0.00089242513 -0.0017059251 -0.08667829
0.08551287 0.045436293 0.01810386 -0.014738767 -0.1006781 -0.06207945 -0.04580862 -0.016163811
-0.013298272 0.03975595 -0.10921859 -0.04412789 0.10781687 0.12335766 -0.027788112 -0.023176925
-9.513665e-06 0.1230954 -0.023771679 -0.08663729 -0.078877375 -0.08092873 -0.018526558 -0.0033849785
0.014440742 -0.05530916 -0.09213506 0.026084408 0.112101525 0.063712426 0.057805438 -0.041229334
0.016600465 0.0044140588 0.017550044 -0.02195869 -0.10610112 0.12638722 -0.014330246 -0.13650155
0.02348114 0.05960876 -0.0881061 -0.012337901 0.038821902 0.050626673 0.08878755 -0.10001021
0.052842986 -0.0001376351 -0.033628084 -0.032312635 -0.106018156 0.015278858 -0.043434992 -0.03848388
-0.10232677 -0.014817782 0.09935565 -0.075087234 0.025460806 -0.11640512 0.043296225 0.0405082
-0.041724473 -0.004051697 -0.036226828 0.053632513 0.08691996 0.11526015 0.0058869715 0.009295141
0.025177242 -0.023539444 -0.102265514 0.01074791 -0.03513597 0.032058034 0.08210933 -0.07313345
-0.056556296 0.026878133 0.12371195 0.0803136 0.13240263 0.076508954 0.091103435 0.078375876
0.008085656 -0.03351909 -0.020275852 0.028117504 -0.05105326 0.049758844 0.0137232905 -0.015311208
-0.031758357 -0.04254217 0.05534321 -0.0039311782 -0.026332743 -0.06496877 0.0053393375 -0.022055414
-0.0013156441 -0.023345418 -0.05932821 0.089491926 -0.0100148935 0.117662504 0.03446305 -0.0032851447
0.14484996 0.023123574 -0.02841942 -0.114423625 -0.010556401 -0.020669015 -0.06224323 0.011579834
0.026932525 0.0098701045 -0.12238532 -0.007642878 0.07961415 0.0473618 0.06156152 -0.07842502
-0.08739376 -0.02830502 -0.128494 -0.0988172 0.013173911 0.008723016 -0.022668019 -0.008622415
0.016455237 0.047205888 0.08455696 0.09019023 0.03217573 -0.035504997 0.010258474 0.02394132
0.029561348 -0.07428809 -0.1553467 0.065926276 0.045216512 0.046399295 -0.00053396047 -0.0977826
0.012256492 -0.039792538 0.037021913 0.033216044 -0.08776114 0.01635582 -0.008762439 -0.0177015
-0.015371244 -0.075570315 -0.018783206 0.09045056 0.090515524 -0.035645295 0.01177283 0.11256161
00000000: f52a b53c e3fa 97bd fb91 e9bc 76ad 003c
00000010: 450a e2bc b3c9 283d 0dee 24bc 53fe 9b3d
00000020: 1348 a13d 136c 193d 7db4 ecba 55df d03c
00000030: 63c0 113d 8f34 ad3d 9e14 0f3d ecb8 02bd
00000040: f63b a5bd 7039 2ebd c93d a8bc 38f5 e7b9
00000050: f339 0d3d 42ea ed3c 9790 d13d accb dc3c
00000060: 51a1 893d fb6a 94bc 976f c53d baeb d73c
00000070: 8f6a b1bc 4b93 36bd ffa8 e7bc 5dd4 9ebc
00000080: 5c31 e63c 6a45 ddbc 31bb e5bd 22b2 a53d
00000090: 584d 94bb 7328 233d bd9b 64ba 0216 ffbd
000000a0: 69a2 e23d 0d0c b33d b0b0 2f3d 9c0b c23c
000000b0: 572a 2c3d 43fe df3c c70b d6bb 7373 013d
000000c0: 9bf1 5dbb fafa 183e 4b11 71bd 779d ab3c
000000d0: 7bea 673d 4408 b93d d3d6 833c 14b4 80bd
000000e0: 0bd2 4e3d 43a6 783b 2c34 173d ed92 be3c
000000f0: 54b6 a13d 5102 0a3d 93f5 18bd ade7 a7bd
00000100: 80a2 b8bc 71a9 273d 283f bc3b 97c1 8a3d
00000110: b177 ce3c 5c35 79bd e52f 373c 6d44 8abc
00000120: 40a2 8fbd 2b87 033a 7f98 743d 0cfc 2a3e
00000130: d37c 893c 0dbb 72bd 8dfc 8dbc a510 b13b
00000140: 3a60 013e cb03 7a3c c9e1 94bc 193f 293d
00000150: 034d ba3b a3f1 69ba 5999 dfba 6384 b1bd
00000160: 5f21 af3d 681b 3a3d 8c4e 943c df7a 71bc
00000170: 5230 cebd 0547 7ebd d2a1 3bbd f869 84bc
00000180: ffe0 59bc 23d7 223d ffad dfbd 72bf 34bd
00000190: 17cf dc3d f1a2 fc3d e5a3 e3bc 89dd bdbc
000001a0: e19c 1fb7 7119 fc3d d3bc c2bc e46e b1bd
000001b0: 768a a1bd f6bd a5bd 02c5 97bc 84d6 5dbb
000001c0: dd98 6c3c dc8b 62bd 4eb1 bcbd f8ae d53c
000001d0: 7c95 e53d a97b 823d 65c5 6c3d 17e0 28bd
000001e0: b3fd 873c cfa3 903b 1cc5 8f3c b6e2 b3bc
000001f0: 8b4b d9bd a76b 013e 68c9 6abc 10c7 0bbe
00000200: 855b c03c 5128 743d f970 b4bd e824 4abc
00000210: b703 1f3d ea5d 4f3d 3fd6 b53d 27d2 ccbd
00000220: e371 583d 2452 10b9 9abd 09bd 415a 04bd
00000230: 0c20 d9bd 2d54 7a3c e4e8 31bd 46a1 1dbd
00000240: b390 d1bd 48c6 72bc fa7a cb3d 56c7 99bd
00000250: 2e93 d03c cf65 eebd 6257 313d edeb 253d
00000260: 48e7 2abd 19c4 84bb 9562 14bd c4ad 5b3d
00000270: 1803 b23d 830d ec3d 7fe7 c03b a64a 183c
00000280: 8140 ce3c cbd5 c0bc 9570 d1bd 0018 303c
00000290: bcea 0fbd 494f 033d f028 a83d fdc6 95bd
000002a0: 93a7 67bd 882f dc3c b15c fd3d 757b a43d
000002b0: 8e94 073e bab0 9c3d 7094 ba3d 8883 a03d
000002c0: b379 043c 504b 09bd 8b19 a6bc ae56 e63c
000002d0: 391d 51bd eecf 4b3d a7d7 603c dcdb 7abc
000002e0: 0d15 02bd b340 2ebd 90af 623d 1dd1 80bb
000002f0: c4b7 d7bc 590e 85bd 9cf5 ae3b 8ead b4bc
00000300: b171 acba e43e bfbc 2302 73bd 8b47 b73d
00000310: 8215 24bc 0af9 f03d 2129 0d3d 954b 57bb
00000320: 8c53 143e a66d bd3c d8cf e8bc ef56 eabd
00000330: c1f4 2cbc 1152 a9bc c2f2 7ebd 58b9 3d3c
00000340: 99a1 dc3c 38b6 213c 28a5 fabd 1c71 fabb
00000350: be0c a33d 72fe 413d ef27 7c3d 4c9d a0bd
00000360: 80fb b2bd eedf e7bc ee93 03be ac60 cabd
00000370: 63d7 573c fbea 0e3c 48b2 b9bc 0845 0dbc
00000380: 22cd 863c f65a 413d 332c ad3d a8b5 b83d
00000390: b3ca 033d b06d 11bd 2913 283c 9620 c43c
000003a0: a42a f23c 5b24 98bd 3513 1fbe 5b04 873d
000003b0: f334 393d 300d 3e3d 7bf9 0bba 3e42 c8bd
000003c0: 74cf 483c 80fd 22bd 4aa4 173d 8c0d 083d
000003d0: 1dbc b3bd a4fc 853c 5590 0fbc bc02 91bc
000003e0: acd7 7bbc 9cc4 9abd 3ddf 99bc 253e b93d
000003f0: 3460 b93d cd00 12bd d4e2 403c b486 e63d

bias f4 [64]
-0.31903934 -0.31056923 -0.15743445 -0.209474 -0.20030446 -0.35930613 -0.2885042 -0.20408203
-0.36188903 -0.3483381 -0.55319214 -0.10178929 -0.4220628 -0.07117504 -0.19036092 -0.3510896
-0.2155338 -0.029873943 -0.295227 -0.37168345 -0.14523675 -0.18658464 -0.58467686 -0.19123004
-0.1217252 -0.41990742 -0.33171505 -0.03322214 -0.033837035 -0.25730965 -0.6378806 -0.60586977
-0.3957589 -0.16495642 -0.12166604 -0.14435165 -0.059682753 -0.040330514 -0.22776473 -0.26925033
-0.3850653 -0.27928331 -0.036996067 -0.27495977 -0.3363797 -0.39599347 -0.588562 -0.41503856
-0.30557626 -0.38627675 -0.059650097 -0.17614518 -0.23325574 -0.31490445 -0.1856125 -0.2526921
-0.07029453 -0.17137852 -0.4120521 -0.39338896 -0.2621964 -0.20043823 -0.013594744 -0.06595276
00000000: 2059 a3be ee02 9fbe 7f36 21be 5a80 56be
00000010: 9d1c 4dbe f9f6 b7be d3b6 93be e1fa 50be
00000020: 8549 b9be 5f59 b2be 009e 0dbf e776 d0bd
00000030: 9e18 d8be 38c4 91bd f9ed 42be 04c2 b3be
00000040: e4b4 5cbe 33ba f4bc fe27 97be 4b4d bebe
00000050: f1b8 14be 0b10 3fbe 62ad 15bf cfd1 43be
00000060: 104b f9bd 1bfe d6be 8ed6 a9be f013 08bd
00000070: b498 0abd 17be 83be 254c 23bf 481a 1bbf
00000080: e9a0 cabe 56ea 28be 0b2c f9bd ebd0 13be
00000090: e775 74bd 9c31 25bd 283b 69be 2edb 89be
000000a0: 4727 c5be 39fe 8ebe 3089 17bd 87c7 8cbe
000000b0: f639 acbe a8bf cabe 00ac 16bf ef7f d4be
000000c0: 7e74 9cbe 11c6 c5be a953 74bd 675f 34be
000000d0: 98da 6ebe 283b a1be 3411 3ebe dc60 81be
000000e0: 94f6 8fbd da7d 2fbe 7ef8 d2be 476a c9be
000000f0: 9b3e 86be ae3f 4dbe 7dbc 5ebc 3e12 87bd

weight f4 [64, 64]
-0.043141995 0.004566729 0.0067227944 -0.028759457 -0.023801839 0.08882906 -0.10545556 -0.0016125275
-0.05606529 0.023201648 -0.0238671 0.08947795 -0.047830988 -0.06779519 -0.018033132 -0.043790415
-0.041299768 -0.082588166 -0.012066629 -0.06770069 0.0460452 0.0028016057 0.07955283 -0.084806606
-0.0781801 -0.046188004 -0.049133338 0.12782411 -0.07223961 -0.0010170871 0.05458601 -0.030598061
-0.07079741 0.013134301 -0.023262657 -0.05097846 -0.018343208 -0.0070862407 -0.03425176 -0.06790709
0.09286637 -0.059297208 0.031996094 -0.027052695 0.019527564 -0.055860493 -0.11797824 0.02593664
-0.026264248 -0.052705485 0.02879388 -0.032180913 0.1697698 0.058640584 0.09633741 -0.043867957
0.05016314 -0.07811969 -0.117379904 0.10642236 0.04620105 -0.020380715 0.0042059226 -0.0024508282
-0.062077615 -0.062390495 -0.03825057 -0.040015902 0.042089593 0.016032537 0.02760996 -0.05607742
-0.009070254 0.08817635 -0.080369726 0.019948754 0.053536844 0.046232875 -0.027112102 -0.026129043
-0.06671118 0.080283545 -0.10274301 -0.027737616 -0.039206386 -0.05191722 -0.053578984 -0.056206457
-0.014437914 0.0869397 0.035185874 -0.092157654 0.104035825 -0.079962604 0.020187033 0.07501491
-0.011977849 -0.08402075 -0.06605974 -0.048669785 0.046052128 -0.042223074 -0.07899886 0.052597042
0.057563297 0.034301706 -0.07374131 -0.02235024 -0.11670821 -0.078984074 0.047650333 0.10243957
0.09830671 0.13394293 0.009885602 0.03554266 -0.011164407 0.10486194 -0.0524939 0.03677196
-0.02566464 -0.010505074 0.050158 0.025773758 -0.051235765 -0.018490998 0.032507867 -0.00042946043
0.09891704 0.08947412 -0.03248361 0.11614114 0.09970193 0.086008914 -0.02600689 -0.049830157
-0.021482412 0.10632385 0.025942296 -0.06738096 -0.0027368877 -0.06417773 -0.02798427 -0.024264595
0.04029151 -0.06548087 -0.005929956 -0.058298558 0.0062584155 -0.059490487 0.019469865 -0.043606073
-0.010707225 -0.08381027 -0.100316204 0.08108154 -0.0088863615 0.11079527 -0.093151815 -0.06353853
0.02626192 -0.010693676 -0.023782585 0.067431286 0.030039152 -0.014229051 -0.04533489 0.12064632
0.040307377 0.046654593 0.073891655 -0.05378034 0.0076986896 -0.03639108 -0.11670727 -0.035600897
0.026230581 -0.063514695 0.022646828 0.11016537 0.03769764 0.07606437 -0.046729606 -0.044690426
-0.04586947 -0.010319025 -0.029552458 0.048259165 0.058429442 0.03920888 0.04263714 -0.031216009
-0.016152026 -0.014461624 0.07851153 0.08109787 -0.053000502 0.09322167 -0.083707996 0.13177337
-0.027540011 -0.029377796 0.003593741 -0.0011700186 0.029253578 0.102848865 0.000547273 -0.014534081
0.02600128 0.016230585 0.059025712 -0.0061673094 -0.08105263 -0.035618108 0.06847975 0.081623435
0.056755096 -0.052212954 -0.011943209 0.052016705 -0.0051552486 -0.046818923 -0.04171444 -0.061847456
-0.032316018 0.07365123 -0.03093882 -0.056841586 -0.0063666813 0.040839337 -0.040753443 0.052025624
0.024695195 -0.047702886 0.056155328 -0.062808976 -0.06803453 0.023397328 -0.15058337 0.026076423
-0.11053118 -0.13244766 0.008143615 0.013725362 0.019909948 -0.025176244 0.02724865 -0.03495883
0.065546796 0.008424185 -0.051889386 -0.035031885 -0.065269254 -0.076400235 -0.010599183 0.019442756
00000000: a9b5 30bd 80a4 953b e34a dc3b f498 ebbc
00000010: 13fc c2bc 03ec b53d 16f9 d7bd 725b d3ba
00000020: b8a4 65bd 6211 be3c f084 c3bc 3740 b73d
00000030: 6dea 43bd 34d8 8abd 38ba 93bc 945d 33bd
00000040: f229 29bd fc23 a9bd 1cb3 45bc a9a6 8abd
00000050: e499 3c3d 259b 373b 98ec a23d 16af adbd
00000060: e31c a0bd a22f 3dbd 0a40 49bd 53e4 023e
00000070: 5cf2 93bd c84f 85ba 9495 5f3d c9a8 fabc
00000080: 3cfe 90bd 4031 573c 5491 bebc cace 50bd
00000090: 7f44 96bc b233 e8bb 934b 0cbd df12 8bbd
000000a0: b930 be3d a1e1 72bd 560e 033d 9d9d ddbc
000000b0: 45f8 9f3c f9cd 64bd 939e f1bd 1479 d43c
000000c0: 1f28 d7bc b5e1 57bd 25e1 eb3c 22d0 03bd
000000d0: 22d8 2d3e 1c31 703d 8c4c c53d e3ae 33bd
000000e0: dd77 4d3d 37fd 9fbd e064 f0bd f7f3 d93d
000000f0: 503d 3d3d 75f5 a6bc d6d1 893b 139e 20bb
00000100: 1945 7ebd 2d8d 7fbd a1ac 1cbd b7e7 23bd
00000110: 2366 2c3d ab56 833c 482e e23c 70b1 65bd
00000120: 679b 14bc cd95 b43d e298 a4bd 926b a33c
00000130: 7349 5b3d af5e 3d3d 331a debc 930c d6bc
00000140: df9f 88bd b36b a43d ed6a d2bd ff39 e3bc
00000150: e096 20bd 27a7 54bd a375 5bbd be38 66bd
00000160: 008d 6cbc 710d b23d 101f 103d 27bd bcbd
00000170: bc10 d53d 6fc3 a3bd 475f a53c 6ba1 993d
00000180: bd3e 44bc 1213 acbd 544a 87bd f859 47bd
00000190: 28a1 3c3d 1af2 2cbd 28ca a1bd ff6f 573d
000001a0: 7ec7 6b3d f27f 0c3d af05 97bd da17 b7bc
000001b0: b704 efbd 67c2 a1bd ff2c 433d d6cb d13d
000001c0: 0755 c93d 5628 093e 38f7 213c 2e95 113d
000001d0: ebea 36bc dbc1 d63d d803 57bd 329e 163d
000001e0: a73e d2bc 791d 2cbc 7a72 4d3d 7d23 d33c
000001f0: 98dc 51bd 6f7a 97bc f826 053d 3429 e1b9
00000200: 0495 ca3d 353e b73d 890d 05bd 68db ed3d
00000210: 8730 cc3d 7125 b03d 670c d5bc b51a 4cbd
00000220: e2fb afbc 52c0 d93d f084 d43c 07ff 89bd
00000230: 5b5d 33bb 9d6f 83bd 453f e5bc 8bc6 c6bc
00000240: b608 253d d61a 86bd 1450 c2bb 78ca 6ebd
00000250: 6513 cd3b 4cac 73bd 447f 9f3c 489c 32bd
00000260: 5b6d 2fbc b8a4 abbd 9572 cdbd 140e a63d
00000270: 1a98 11bc a1e8 e23d 61c6 bebd 7d20 82bd
00000280: 3d23 d73c 8734 2fbc b2d3 c2bc 6a19 8a3d
00000290: ab14 f63c f720 69bc 14b1 39bd 6b15 f73d
000002a0: 5919 253d e318 3f3d 8254 973d c648 5cbd
000002b0: 4a45 fc3b d00e 15bd 3904 efbd 3fd2 11bd
000002c0: 84e1 d63c fe13 82bd d785 b93c 629e e13d
000002d0: d768 1a3d a3c7 9b3d 8b67 3fbd 4f0d 37bd
000002e0: a0e1 3bbd 2111 29bc ff17 f2bc 67ab 453d
000002f0: b653 6f3d 7e99 203d 48a4 2e3d b7b8 ffbc
00000300: 4151 84bc 73f0 6cbc a7ca a03d a416 a63d
00000310: 0e17 59bd 01eb be3d 196f abbd 99ef 063e
00000320: 979b e1bc b4a9 f0bc f884 6b3b 4f5b 99ba
00000330: 33a5 ef3c 6da2 d23d df76 0f3a 5b20 6ebc
00000340: a300 d53c 01f6 843c f2c4 713d 2417 cabb
00000350: ecfe a5bd 4be4 11bd 1c3f 8c3d 302a a73d
00000360: 0878 683d 40dd 55bd 73ad 43bc 780f 553d
00000370: 5ced a8bb 33c5 3fbd c3dc 2abd c253 7dbd
00000380: cd5d 04bd 75d6 963d 6973 fdbc b9d2 68bd
00000390: 989f d0bb 2647 273d 15ed 26bd d218 553d
000003a0: 944d ca3c 1a64 43bd 2103 663d fea1 80bd
000003b0: b055 8bbd c1ab bf3c 8732 1abe 399e d53c
000003c0: 2c5e e2bd 5ca0 07be cc6c 053c 57e0 603c
000003d0: 301a a33c 693e cebc 9038 df3c fd30 0fbd
000003e0: 663d 863d 9805 0a3c f789 54bd 987d 0fbd
000003f0: e3ab 85bd ba77 9cbd 32a8 2dbc 6a46 9f3c

bias f4 [64]
0.20783517 -0.030800682 0.035270046 0.2989735 -0.032742396 -0.14555891 -0.0008926588 0.32373717
0.19608021 0.14311655 0.1805717 0.1348187 -0.04649166 -0.15691228 0.17092395 -0.1751994
-0.061501674 0.11509053 0.042069416 -0.1510754 -0.11446582 0.19049735 -0.23248294 0.14324953
0.103826076 -0.09399802 0.0005061124 0.039397802 -0.23413405 0.01701925 0.19018605 0.060266487
-0.09486729 0.08850448 -0.104569025 0.22835949 0.03959144 0.007997385 -0.031083882 0.16856663
-0.01621467 -0.32080224 -0.088521086 -0.19040124 -0.018250627 -0.08017321 0.33966586 -0.20660587
0.0064397 -0.24593261 0.012091179 0.040397745 0.06299899 0.057702355 -0.13877164 -0.08968469
-0.11179743 0.09034602 -0.06259156 0.12543055 -0.10487391 0.06868933 0.13092192 0.060960796
00000000: bed2 543e b651 fcbc 5377 103d 0e13 993e
00000010: e41c 06bd 650d 15be 5101 6aba e1c0 a53e
00000020: 40c9 483e 258d 123e cae7 383e ea0d 0a3e
00000030: 0a6e 3ebd 9dad 20be b006 2f3e 7967 33be
00000040: 2ee9 7bbd 95b4 eb3d fb50 2c3d 82b3 1abe
00000050: 0e6d eabd bd11 433e 0210 6ebe 01b0 123e
00000060: c4a2 d43d 0982 c0bd a1ac 043a 975f 213d
00000070: d6c0 6fbe f46b 8b3c 22c0 423e fed9 763d
00000080: c849 c2bd d641 b53d 4928 d6bd 12d7 693e
00000090: a22a 223d 7707 033c a0a3 febc bb9c 2c3e
000000a0: a1d4 84bc 3140 a4be 8b4a b5bd 8bf8 42be
000000b0: 5782 95bc da31 a4bd afe8 ad3e 7d90 53be
000000c0: 1e04 d33b c2d5 7bbe 151a 463c 1b78 253d
000000d0: 9d05 813d 4e59 6c3d 271a 0ebe 9bac b7bd
000000e0: 0df6 e4bd 5607 b93d 0130 80bd de70 003e
000000f0: 22c8 d6bd feac 8c3d 6510 063e 07b2 793d

weight f4 [10, 64]
-0.06944869 0.18671565 -0.07043793 -0.22754006 0.053122442 -0.06371718 0.035845116 -0.12152183
0.048082333 0.03138716 0.13490544 -0.00831088 -0.097548544 0.122121595 -0.059363045 -0.011915986
-0.11078789 -0.0029317625 -0.115622304 0.10444107 -0.01230107 -0.00247348 0.032107152 0.033574097
-0.09943364 -0.11082027 0.042077802 0.004868564 0.05032943 -0.029163558 -0.03927488 -0.00431804
0.07703242 -0.06229045 0.15064818 -0.09168412 -0.14299905 -0.037031695 -0.05146049 -0.041602243
-0.012576582 0.17374273 0.06536402 0.105019815 -0.04056537 0.050210383 -0.09739598 0.006631606
-0.04996014 0.122891285 0.035159618 0.01139752 0.005540418 -0.055085737 0.09371107 0.067114644
0.08738314 -0.023739886 0.078655615 0.105252184 -0.0026088436 -0.028188284 -0.06552618 -0.06396358
-0.115375325 0.04440236 -0.017943887 -0.071984515 -0.07422122 0.062392928 -0.028624956 -0.11358052
0.0006688699 -0.0390689 -0.018935597 -0.22185701 -0.170183 0.019435605 0.12162874 0.11439098
0.10925579 0.056050494 -0.025967209 0.10463477 -0.03566056 0.037147045 0.0660214 -0.049875032
-0.05120326 0.02062131 -0.07160484 0.03296134 0.013330208 -0.15421616 -0.04535063 0.17805365
0.026495839 -0.08784226 0.053326577 0.06300319 0.050992586 0.051447783 -0.09307479 -0.16067359
0.20079218 0.03859463 -0.046391588 -0.03554696 -0.033799056 0.0013395724 0.17609425 0.14431237
-0.10200539 0.25633365 -0.123312846 -0.14777906 -0.09477746 0.006930548 0.25939837 0.019118095
-0.000556153 -0.041026037 -0.11521668 0.061804898 -0.106642865 -0.031649437 -0.14258516 0.032851588
-0.040454563 -0.073184915 -0.095857814 -0.050589908 0.037720047 -0.011619523 0.15660203 0.07986165
-0.08343132 -0.050520074 0.048309363 0.023480179 0.050374586 0.04047093 -0.049594384 0.00010256788
-0.13160478 -0.048527062 0.021433374 -0.09688397 0.14334317 0.058870796 0.036944225 -0.04318058
-0.030934487 0.027227104 -0.08013968 -0.07088301 0.09158206 0.10394537 -0.047351155 -0.11293583
0.12045612 -0.07777369 0.09458634 -0.011431478 -0.08034306 0.011522646 0.061221037 0.026843553
0.044886187 0.04916039 0.09682851 -0.032919146 0.077058606 0.07315703 -0.1466885 -0.06747065
-0.14471672 -0.06335219 -0.009837829 0.005545692 0.011677496 -0.07679209 0.015547771 0.005612191
0.064623676 -0.06191952 0.035226904 0.059883803 0.1474632 0.07081063 0.014603829 -0.070094146
0.017344764 -0.13444917 0.019193789 0.0631995 0.041913122 0.0006301433 -0.035859495 -0.051253915
-0.04277644 -0.061239418 0.0038737778 -0.0014504518 0.083395705 -0.05360777 0.0996417 0.014860474
-0.08870742 -0.07427128 0.086601704 -0.093025334 0.0023689002 -0.10699049 -0.024267785 0.010968646
-0.09952498 -0.028820092 -0.07624176 -0.094794266 0.027995417 0.05730334 0.09448337 0.0038384006
0.004337885 0.004103176 0.045245472 0.028832916 -0.04283604 -0.07451189 0.12473489 0.023628993
-0.09146266 -0.106383756 -0.11986658 0.05508165 -0.0015832301 -0.06437926 0.0631641 -0.1071523
0.03952643 -0.052517917 -0.15675406 0.031914063 -0.024589382 -0.00021870898 -0.08932624 -0.056697257
0.07281544 0.08056341 -0.020789558 0.018200511 -0.08966018 0.027194045 0.074792504 0.09684837
00000000: 1d3b 8ebd 6332 3f3e c341 90bd 4300 69be
00000010: eb96 593d 277e 82bd 54d2 123d 70e0 f8bd
00000020: fbf1 443d d38f 003d a724 0a3e 5b2a 08bc
00000030: 88c7 c7bd e31a fa3d aa26 73bd 453b 43bc
00000040: c3e4 e2bd d022 40bb 63cb ecbd 33e5 d53d
00000050: 6d8a 49bc 1c1a 22bb ca82 033d fe84 093d
00000060: dda3 cbbd bdf5 e2bd c659 2c3d 7a88 9f3b
00000070: 3b26 4e3d 6ae8 eebc b2de 20bd 587e 8dbb
00000080: 2cc3 9d3d 4524 7fbd 8443 1a3e e2c4 bbbd
00000090: 586e 12be 8cae 17bd 3cc8 52bd 1d67 2abd
000000a0: 020e 4ebc 9de9 313e 92dd 853d a114 d73d
000000b0: e027 26bd 67a9 4d3d 8b77 c7bd f14d d93b
000000c0: 01a3 4cbd 6dae fb3d 8803 103d aabc 3a3c
000000d0: 658c b53b 95a1 61bd 97eb bf3d 6773 893d
000000e0: eff5 b23d 267a c2bc 3216 a13d 758e d73d
000000f0: 22f9 2abb 1eeb e6bc 9732 86bd 56ff 82bd
00000100: e649 ecbd 40df 353d 0fff 92bc 9e6c 93bd
00000110: 4c01 98bd ba8f 7f3d e27e eabc e79c e8bd
00000120: 1957 2f3a b606 20bd d31e 9bbc 7c2e 63be
00000130: 7444 2ebe 6b37 9f3c 7d18 f93d d145 ea3d
00000140: 80c1 df3d 3495 653d 2fb9 d4bc c14a d63d
00000150: cf10 12bd 8027 183d 3a36 873d c349 4cbd
00000160: 82ba 51bd 06ee a83c 8fa5 92bd 7802 073d
00000170: f266 5a3c d7ea 1dbe 95c1 39bd b253 363e
00000180: cd0d d93c a5e6 b3bd f86c 5a3d d107 813d
00000190: 9add 503d e9ba 523d ff9d bebd 9e87 24be
000001a0: 779c 4d3e 6715 1e3d 1b05 3ebd b099 11bd
000001b0: e170 0abd 9794 af3a 0d52 343e 9fc6 133e
000001c0: 34e8 d0bd 2a3e 833e 728b fcbd 6553 17be
000001d0: af1a c2bd a719 e33b ddcf 843e 8d9d 9c3c
000001e0: ccca 11ba eb0a 28bd b9f6 ebbd 2227 7d3d
000001f0: 9367 dabd d7a2 01bd d801 12be 638f 063d
00000200: afb3 25bd f9e1 95bd 1a51 c4bd 5d37 4fbd
00000210: 5680 1a3d d05f 3ebc 485c 203e 818e a33d
00000220: 0ade aabd 23ee 4ebd 0ae0 453d 8159 c03c
00000230: 9555 4e3d d9c4 253d 7b23 4bbd b619 d738
00000240: 67c3 06be 50c4 46bd 0b95 af3c 1a6b c6bd
00000250: 8dc8 123e 8122 713d d452 173d 1fde 30bd
00000260: 526a fdbc 600b df3c 4620 a4bd 1d2b 91bd
00000270: 608f bb3d 4fe1 d43d 49f3 41bd e74a e7bd
00000280: b3b1 f63d d047 9fbd 7cb6 c13d 184b 3bbc
00000290: e78a a4bd 7bc9 3c3c e9c2 7a3d 03e7 db3c
000002a0: 94da 373d 685c 493d 074e c63d 3ad6 06bd
000002b0: e7d0 9d3d 5ad3 953d 8335 16be 0d2e 8abd
000002c0: 9f30 14be cbbe 81bd d82e 21bc a3b8 b53b
000002d0: f852 3f3c 2c45 9dbd 14bc 7e3c 78e6 b73b
000002e0: 6b59 843d 539f 7dbd 164a 103d b848 753d
000002f0: 9800 173e 2a05 913d e644 6f3c 858d 8fbd
00000300: 9b16 8e3c 0bad 09be 4b3c 9d3c bd6e 813d
00000310: 18ad 2b3d 3330 253a 68e1 12bd a0ef 51bd
00000320: 5936 2fbd 2fd6 7abd 35df 7d3b 161d beba
00000330: 5ecb aa3d d293 5bbd f310 cc3d 5879 733c
00000340: 3cac b5bd 8a1b 98bd 3c5c b13d 1184 bebd
00000350: 8d3f 1b3b d41d dbbd 3ccd c6bc d6b5 333c
00000360: c1d3 cbbd 1d18 ecbc a424 9cbd 7f23 c2bd
00000370: a556 e53c e8b6 6a3d 7f80 c13d ad8d 7b3b
00000380: d124 8e3b ef73 863b 5153 393d 0233 ec3c
00000390: d874 2fbd b199 98bd 0275 ff3d 9791 c13c
000003a0: c650 bbbd badf d9bd 9c7c f5bd 4c9d 613d
000003b0: 6384 cfba 46d9 83bd 2e5c 813d aa72 dbbd
000003c0: 77e6 213d 071d 57bd 2384 20be 52b8 023d
000003d0: ac6f c9bc 3f55 65b9 adf0 b6bd 623b 68bd
000003e0: 4320 953d 6efe a43d dd4e aabc 3d19 953c
000003f0: c29f b7bd 0cc6 de3c d02c 993d 7058 c63d

bias f4 [10]
-0.124999784 -0.4682347 0.2797318 0.6150846 0.3445306 0.12272848 0.0065116244 -0.29838985
-0.42823207 -0.06397423
00000000: e3ff ffbd 75bc efbe 0239 8f3e 2f76 1d3f
00000010: 5166 b03e 1259 fb3d 775f d53b 8ec6 98be
00000020: 3c41 dbbe ec04 83bd
