module_nn/module_4.pth (torch, 341767 bytes, 10 tensors)

weight f4 [32, 3, 5, 5]
0.32212004 0.079293035 0.29719236 0.12151791 -0.030095337 0.053221148 0.16132832 0.07626778
-0.16688646 -0.06811693 -0.024343962 0.12559946 -0.26854607 0.017746214 0.11377116 -0.20138542
-0.37059435 -0.377958 0.08741967 -0.020359848 -0.13533075 -0.19466238 -0.04834324 0.10765691
-0.17189105 -0.11181065 -0.15958865 0.16439961 -0.043632116 -0.19373605 -0.33875945 -0.070178896
-0.056496453 -0.054779284 -0.13804075 -0.17387447 0.3079728 -0.048148327 0.1904044 0.10715351
0.07149854 0.2785208 0.2467475 0.20292774 0.16934416 -0.33065593 0.0896376 0.2248514
0.31695053 -0.0065810718 0.10351847 -0.15816249 0.007623474 0.09061697 -0.035917047 -0.0027054904
-0.15504935 -0.007978602 0.12875842 0.07701266 -0.11508487 0.23646753 -0.098328665 0.09981767
0.121213935 0.26024657 0.123966455 -0.1806847 -0.1779501 -0.094791256 0.05419266 -0.11788463
0.11254852 -0.14897756 -0.33204466 -0.023463238 -0.0054390086 0.18642072 0.3920821 0.046426617
0.025120782 0.098941825 0.20738287 0.34687322 -0.07329895 0.081598386 -0.14172393 0.06289278
0.17619708 -0.15529728 0.027049571 -0.15842843 -0.23915489 -0.135852 -0.40556884 -0.20993268
-0.04019482 -0.07775051 0.28754202 -0.117829874 0.12863065 0.0065621203 0.014870994 -0.12309869
-0.23678584 0.057267252 -0.146702 -0.22973925 -0.16652992 -0.40263483 0.17170876 0.0720581
0.18766731 0.25200814 -0.010198413 0.040850583 -0.0038790647 -0.08072721 0.054136805 -0.28095126
-0.24034452 -0.15010619 0.008628334 0.042290382 -0.26877367 0.09425116 0.07085372 -0.1544451
-0.4066152 0.31528494 -0.16664457 -0.1210048 -0.4000838 -0.42432073 0.32186753 -0.23188893
-0.052087337 -0.16539428 -0.10680204 0.4786109 0.047612693 0.36185908 0.044226225 0.18437488
0.5929862 -0.060617026 0.18078016 -0.11877145 0.17450742 0.3552252 0.06736757 -0.09924268
0.076910116 -0.19865668 -0.24414113 -0.08926692 0.27030092 -0.0059591723 -0.22181793 -0.08318904
0.13164498 0.43455705 -0.53956306 -0.3102567 0.27283415 0.20349859 -0.4472724 -0.2125484
0.5732665 0.33206666 -0.16908476 -0.14182867 -0.12695725 0.2915434 0.1636833 0.2695764
-0.10927879 0.12699188 0.14274691 0.30605584 -0.1370173 0.2126272 -0.009448496 -0.15668158
0.016143955 0.27652827 0.23762386 -0.4136982 -0.11491694 0.2090994 0.11107802 -0.5437178
-0.23213777 0.38628203 0.059115037 0.018811127 0.15952805 0.1777705 0.1425796 -0.0518129
0.2200091 -0.35684523 0.23865043 -0.199667 -0.060500108 -0.11269012 0.030379677 0.37892094
-0.18079033 0.11294211 0.15030478 0.20343298 0.048637506 -0.38514614 -0.062161833 -0.0010844674
-0.5592284 0.019991461 -0.06277139 -0.21520522 -0.1484468 -0.17019226 0.30194497 -0.053657364
-0.2522302 -0.26130506 0.05693235 0.15508057 0.4175003 -0.05575066 -0.410017 -0.2039133
-0.082549624 0.53652 -0.038449015 -0.3374202 -0.2426643 -0.4715065 0.5034966 0.18410042
-0.34432906 0.21109714 -0.17576742 0.13494511 0.21235253 -0.3420273 -0.0136692105 -0.015255532
-0.037087586 0.1155341 -0.19491279 -0.021521231 -0.10464834 -0.31042442 0.04393298 -0.28088823
00000000: ebec a43e 6364 a23d 9929 983e 62de f83d
00000010: 7f8a f6bc 6bfe 593d 4033 253e 4832 9c3d
00000020: 49e4 2abe e480 8bbd fd6c c7bc 259d 003e
00000030: df7e 89be 8260 913c db00 e93d fb37 4ebe
00000040: 8bbe bdbe b683 c1be 1509 b33d b2c9 a6bc
00000050: 2594 0abe 9355 47be 9003 46bd 3a7b dc3d
00000060: 3504 30be fbfc e4bd 356b 23be 5f58 283e
00000070: 97b7 32bd be62 46be e171 adbe f4b9 8fbd
00000080: d368 67bd 3e60 60bd 8e5a 0dbe 260c 32be
00000090: 9cae 9d3e 2e37 45bd 5ff9 423e 4d73 db3d
000000a0: d46d 923d 479a 8e3e 60ab 7c3e 4acc 4f3e
000000b0: 8e68 2d3e bc4b a9be eb93 b73d 723f 663e
000000c0: 5747 a23e 08a6 d7bb 7e01 d43d 59f5 21be
000000d0: 56ce f93b 6495 b93d c11d 13bd 994e 31bb
000000e0: 42c5 1ebe afb8 02bc 3fd9 033e d0b8 9d3d
000000f0: 9eb1 ebbd 8b24 723e 8a60 c9bd 356d cc3d
00000100: 033f f83d 0a3f 853e 20e2 fd3d 6905 39be
00000110: 8d38 36be eb21 c2bd 1ff9 5d3d 7f6d f1bd
00000120: d77f e63d 938d 18be c201 aabe fa35 c0bc
00000130: b639 b2bb 13e5 3e3e fcbe c83e d629 3e3d
00000140: 19ca cd3c 03a2 ca3d 2d5c 543e 5e99 b13e
00000150: c31d 96bd 0e1d a73d 1420 11be eecd 803d
00000160: 026d 343e 4006 1fbe 1097 dd3c 103b 22be
00000170: 05e5 74be c91c 0bbe b8a6 cfbe 98f8 56be
00000180: 53a3 24bd a93b 9fbd b538 933e ca50 f1bd
00000190: c1b7 033e 0e07 d73b 78a5 733c 2a1b fcbd
000001a0: fd77 72be 1191 6a3d 0d39 16be c440 6bbe
000001b0: d286 2abe 2726 cebe 6cd4 2f3e 3293 933d
000001c0: dc2b 403e 3607 813e 3f17 27bc f152 273d
000001d0: e837 7ebb 4f54 a5bd 8ebe 5d3d d8d8 8fbe
000001e0: e01c 76be 70b5 19be db5d 0d3c ae38 2d3d
000001f0: b49c 89be c106 c13d c11b 913d db26 1ebe
00000200: de2f d0be 076d a13e e0a4 2abe 5dd1 f7bd
00000210: c9d7 ccbe 9140 d9be d2cb a43e 4b74 6dbe
00000220: 8859 55bd 1e5d 29be 07bb dabd 7d0c f53e
00000230: 8705 433d 9845 b93e 8f26 353d c5cc 3c3e
00000240: f2cd 173f 8f49 78bd 6f1e 393e 723e f3bd
00000250: 13b2 323e 14e0 b53e 02f8 893d bf3f cbbd
00000260: 0d83 9d3d a86c 4bbe 2200 7abe 93d1 b6bd
00000270: e264 8a3e 2945 c3bb 3d24 63be 045f aabd
00000280: f1cd 063e 437e de3e ce20 0abf f7d9 9ebe
00000290: ebb0 8b3e ef61 503e e300 e5be 4aa6 59be
000002a0: 98c1 123f a404 aa3e 8e24 2dbe 893b 11be
000002b0: 1501 02be 2d45 953e 989c 273e eb05 8a3e
000002c0: 8fcd dfbd 290a 023e 3f2c 123e 5ab3 9c3e
000002d0: 434e 0cbe f2ba 593e ddcd 1abc 2371 20be
000002e0: 5440 843c 1d95 8d3e ab53 733e 40d0 d3be
000002f0: 9359 ebbd 271e 563e df7c e33d 1731 0bbf
00000300: 86b5 6dbe c2c6 c53e 9c22 723d cb19 9a3c
00000310: 525b 233e 7809 363e 6300 123e c339 54bd
00000320: 114a 613e 6bb4 b6be c760 743e 8275 4cbe
00000330: f6ce 77bd 14ca e6bd cdde f83c ed01 c23e
00000340: 1a21 39be 314e e73d 7fe9 193e bc50 503e
00000350: 1f38 473d e031 c5be 689d 7ebd b024 8eba
00000360: 9829 0fbf 22c5 a33c 498e 80bd c25e 5cbe
00000370: 7002 18be e146 2ebe 8898 9a3e d3c7 5bbd
00000380: 5124 81be c7c9 85be e531 693d 71cd 1e3e
00000390: 99c2 d53e ce5a 64bd c0ed d1be a6ce 50be
000003a0: c70f a9bd 6059 093f b77c 1dbd 57c2 acbe
000003b0: fe7c 78be 4d69 f1be 27e5 003f d284 3c3e
000003c0: e64b b0be d929 583e 60fc 33be 0d2f 0a3e
000003d0: f172 593e 341e afbe d3f4 5fbc 57f2 79bc
000003e0: 27e9 17bd 249d ec3d 3897 47be 4b4d b0bc
000003f0: de51 d6bd f3ef 9ebe 12f3 333d 95d0 8fbe

bias f4 [32]
0.13768825 0.08616431 -0.088232726 0.14377816 -0.100491315 0.03381366 -0.05889624 -0.0038239749
-0.13583224 -0.06352731 -0.1391537 -0.26281908 0.04091018 -0.07451688 -0.20277606 -0.050206486
-0.120279714 -0.18193848 -0.16017118 -0.1570396 -0.0027922855 -0.04049164 -0.29955694 -0.053148568
0.14331631 -0.29078928 -0.5371548 -0.25973865 -0.20051557 0.1492918 -0.24924889 -0.36367902
00000000: 26fe 0c3e ea76 b03d 5cb3 b4bd 953a 133e
00000010: 64ce cdbd 3180 0a3d 2f3d 71bd a79b 7abb
00000020: 9b17 0bbe 9b1a 82bd 4f7e 0ebe 3990 86be
00000030: 6f91 273d 4e9c 98bd 87a4 4fbe 51a5 4dbd
00000040: 3655 f6bd 154e 3abe ea03 24be fdce 20be
00000050: c7fe 36bb 90da 25bd 875f 99be 50b2 59bd
00000060: 83c1 123e 55e2 94be fa82 09bf 77fc 84be
00000070: f453 4dbe f3df 183e 1a3b 7fbe 2334 babe

weight f4 [32, 32, 5, 5]
0.033986017 0.077854775 -0.06729395 -0.080097914 0.055241648 0.10343439 -0.028489465 -0.06781901
-0.059675757 0.0017769721 0.08935668 0.0075889835 -0.03439139 0.039493486 0.15227544 0.0012705744
-0.16400929 -0.09345291 -0.08429031 -0.10231872 0.20578504 0.15978105 0.08520312 -0.07019982
-0.121547714 -0.10437093 -0.031045241 0.028746596 -0.05875837 -0.02902545 -0.023415614 0.055621084
0.060198996 -0.002689284 0.034919225 0.038771983 -0.02386836 0.07601802 0.12539744 0.02273344
-0.13577476 -0.19761547 -0.115849 -0.00044995447 -0.121788405 0.13255593 0.056400407 0.02285032
0.019541413 -0.08692259 -0.042048022 0.037321545 -0.005530841 -0.014407106 0.079582915 0.13165264
-0.1148599 -0.13992067 -0.09330604 -0.05553956 -0.06111393 0.08195978 -0.016713565 0.13772447
-0.08051396 -0.018408699 0.13058747 -0.10458963 -0.027330747 -0.00741114 -0.1598672 -0.031461727
0.12325862 -0.116197616 0.22735214 0.19209811 0.014216769 -0.32903695 0.19595994 -0.11228529
0.117562346 0.023438005 -0.15888228 0.1231513 -0.22034463 0.13601626 0.020868966 -0.0328686
-0.034642197 0.08096775 -0.14654614 0.0061724954 -0.17354748 0.0737588 -0.06238432 0.11992669
0.11667682 -0.031823322 -0.1005406 0.04023599 -0.08095424 0.21280287 -0.06059005 0.122038685
-0.087096386 -0.047285147 0.17676048 -0.03730163 0.028475417 -0.11183452 -0.062234744 0.06320264
-0.1013928 0.00061863865 0.059883364 -0.10503541 0.016508417 -0.10177563 -0.026850997 0.007060038
0.043628298 0.100829534 -0.10259663 0.03390034 0.023347821 0.09272135 0.08045265 0.06991189
0.015327743 0.041899063 -0.14985803 -0.06025457 -0.12335632 -0.25692278 -0.04654718 -0.100264154
-0.0006119246 0.11972056 0.019397102 0.08422414 0.13196248 0.08893142 -0.02483731 -0.044187333
0.1429615 0.020774828 -0.23823632 -0.099168316 0.065715425 0.009353097 -0.19814348 0.023177326
0.060138915 -0.20762552 0.036176518 0.05246837 0.09296766 0.080492795 0.065650456 0.061615247
-0.28393617 -0.17083953 -0.15784192 -0.20190261 -0.21186998 0.03870579 0.1475809 0.33417565
0.26606926 0.3220284 0.13240002 -0.058584694 -0.054329414 -0.094354585 0.037671745 -0.006063769
0.22571725 -0.13894762 0.11405023 -0.08039456 0.023227097 -0.07463996 -0.018039273 -0.08686766
-0.15646692 0.07202674 -0.05205935 -0.0038053093 -0.057595734 -0.027988538 0.10457953 0.061780166
0.07053571 0.16756281 0.05682061 0.11680628 0.07589352 -0.079802155 -0.15783152 -0.16251773
0.073625706 -0.08538329 -0.46598792 0.63313246 -0.07543188 -0.10744225 0.013438316 -0.38492218
0.63110584 -0.29724053 -0.16395347 0.018600749 -0.029612375 0.30506757 -0.2326958 0.003280534
-0.07835349 -0.13149081 0.3999646 -0.10683146 -0.076787844 -0.002121993 -0.15235521 0.13247086
-0.07023287 4.6791567e-05 -0.07243665 0.05187263 -0.05704902 -0.1373916 -0.02670477 -0.06899237
0.025157236 -0.075426266 -0.0008908435 0.034248333 -0.06522086 0.051033195 -0.019382838 -0.11442078
0.007006542 0.040667076 0.06434874 -0.10799207 0.07297237 0.103544824 0.108250864 0.0751512
-0.006979922 0.031350862 0.053695187 0.19006123 -0.10447477 0.041565016 0.021670332 0.022544228
00000000: ec34 0b3d 5372 9f3d 69d1 89bd 600a a4bd
00000010: 1145 623d 69d5 d33d bd62 e9bc b1e4 8abd
00000020: 916e 74bd 4ae9 e83a a300 b73d 02ad f83b
00000030: fcdd 0cbd ecc3 213d 18ee 1b3e 6789 a63a
00000040: 0df2 27be 3d64 bfbd 66a0 acbd 7a8c d1bd
00000050: 50b9 523e a59d 233e f97e ae3d ecc4 8fbd
00000060: 02ee f8bd 6dc0 d5bd 9752 febc fb7d eb3c
00000070: 9eac 70bd c8c6 edbc 1ad2 bfbc efd2 633d
00000080: 3993 763d b33e 30bb 7607 0f3d 5fcf 1e3d
00000090: 9487 c3bc 56af 9b3d 3068 003e 7b3b ba3c
000000a0: 8a08 0bbe b65b 4abe 3e42 edbd dee7 ebb9
000000b0: 336c f9bd bebc 073e 1d04 673d 9830 bb3c
000000c0: 5015 a03c 7904 b2bd 8c3a 2cbd 7ade 183d
000000d0: 0f3c b5bb c80b 6cbc 5efc a23d f3cf 063e
000000e0: ab3b ebbd 5d47 0fbe 3d17 bfbd 737d 63bd
000000f0: 9a52 7abd 87da a73d e3ea 88bc a507 0d3e
00000100: 81e4 a4bd d7cd 96bc b9b8 053e 1733 d6bd
00000110: bbe4 dfbc 26d9 f2bb 3ab4 23be 03de 00bd
00000120: 046f fc3d 04f9 edbd 00cf 683e 5eb5 443e
00000130: 73ed 683c 8877 a8be b9a9 483e d5f5 e5bd
00000140: 87c4 f03d 0f01 c03c 09b2 22be c036 fc3d
00000150: 06a2 61be d947 0b3e 65f5 aa3c 3aa1 06bd
00000160: fae4 0dbd 6bd2 a53d 3110 16be a542 ca3b
00000170: 6eb6 31be db0e 973d b386 7fbd 209c f53d
00000180: 42f4 ee3d 2c59 02bd 3be8 cdbd 7ece 243d
00000190: 56cb a5bd ffe8 593e 462d 78bd 6bef f93d
000001a0: 975f b2bd 12ae 41bd b300 353e 98c9 18bd
000001b0: 4745 e93c 7f09 e5bd dce9 7ebd 6370 813d
000001c0: 07a7 cfbd 232c 223a 4248 753d ce1c d7bd
000001d0: a93c 873c be6f d0bd 9ff6 dbbc e457 e73b
000001e0: 96b3 323d b77f ce3d 2f1e d2bd 15db 0a3d
000001f0: ee43 bf3c b1e4 bd3d 5cc4 a43d f72d 8f3d
00000200: 3721 7b3c 5a9e 2b3d 6274 19be 7fcd 76bd
00000210: 3da2 fcbd 628b 83be 41a8 3ebd 4b57 cdbd
00000220: 9169 20ba 0e30 f53d ace6 9e3c b57d ac3d
00000230: 2c21 073e ad21 b63d 9d77 cbbc c7fd 34bd
00000240: 8064 123e f92f aa3c 39f4 73be c218 cbbd
00000250: cf95 863d bb3d 193c 20e6 4abe 60de bd3c
00000260: 3954 763d c99b 54be d42d 143d 13e9 563d
00000270: d465 be3d 68d9 a43d bf73 863d 4560 7c3d
00000280: 1560 91be 8ff0 2ebe 50a1 21be 8fbf 4ebe
00000290: 72f4 58be f689 1e3d 731f 173e 1219 ab3e
000002a0: 3b3a 883e e8e0 a43e df93 073e 81f6 6fbd
000002b0: 8588 5ebd fa3c c1bd b04d 1a3d 95b2 c6bb
000002c0: 6c22 673e 4948 0ebe 2b93 e93d e7a5 a4bd
000002d0: c146 be3c d6dc 98bd 19c7 93bc ace7 b1bd
000002e0: dd38 20be c182 933d 2f3c 55bd 7f62 79bb
000002f0: 81e9 6bbd 3848 e5bc cb2d d63d 330d 7d3d
00000300: 0775 903d 9695 2b3e babc 683d 2238 ef3d
00000310: 106e 9b3d 506f a3bd 969e 21be 0c6b 26be
00000320: 13c9 963d 6fdd aebd f895 eebe f814 223f
00000330: 087c 9abd af0a dcbd 622c 5c3c 8514 c5be
00000340: 2790 213f e92f 98be 6be3 27be 9960 983c
00000350: a795 f2bc d131 9c3e cf47 6ebe 3afe 563b
00000360: cb77 a0bd 87a5 06be 29c8 cc3e 74ca dabd
00000370: f242 9dbd 2311 0bbb 0103 1cbe 71a6 073e
00000380: 40d6 8fbd 1042 4438 ab59 94bd 6578 543d
00000390: 3cac 69bd 62b0 0cbe f6c3 dabc df4b 8dbd
000003a0: 8c16 ce3c 1679 9abd 7f87 69ba fb47 0c3d
000003b0: 8492 85bd 2f08 513d c2c8 9ebc 7155 eabd
000003c0: 2297 e53b 8592 263d 46c9 833d f22a ddbd
000003d0: 8a72 953d 4f0f d43d a1b2 dd3d dfe8 993d
000003e0: d4b7 e4bb c369 003d 7cef 5b3d 699f 423e
000003f0: def6 d5bd 1440 2a3d fb85 b13c acae b83c

bias f4 [32]
-1.1584176 -0.9741302 -0.49048093 -0.97985965 -0.8157251 -0.6272658 -1.2697386 -0.5104996
-0.55983406 -1.1568055 -0.87581134 -0.74418145 -0.94460416 -0.86299825 -0.91584975 -0.9027975
-0.6227914 -1.0129731 -1.0474614 -1.2322022 -0.68856794 -0.6971442 -0.7315339 -0.90955186
-0.9170739 -0.4641365 -0.7782569 -0.8761375 -0.4080833 -0.7785773 -0.4356892 -0.4810733
00000000: 0747 94bf 9960 79bf 5120 fbbe 15d8 7abf
00000010: 5cd3 50bf 7e94 20bf cb86 a2bf 1ab0 02bf
00000020: 4951 0fbf 3412 94bf 2c35 60bf ad82 3ebf
00000030: 94d1 71bf 74ed 5cbf 2175 6abf bd1d 67bf
00000040: 426f 1fbf 1aa9 81bf 3713 86bf cdb8 9dbf
00000050: fd45 30bf 0b78 32bf ce45 3bbf 64d8 68bf
00000060: 5bc5 6abf 4da3 edbe d83b 47bf 8c4a 60bf
00000070: 4bf0 d0be d850 47bf a812 dfbe 3d4f f6be

weight f4 [64, 32, 5, 5]
-0.15592273 -0.10116584 -0.01319951 -0.07789814 -0.103463106 0.108973116 0.16254757 0.16278861
-0.010149378 0.08637835 -0.05673011 0.068195604 0.03693801 0.14108433 0.026952712 -0.14912207
-0.034059916 -0.037920043 -0.05944188 0.0407999 0.027951797 0.14347619 0.11248293 -0.04076384
-0.03673703 -0.115220055 0.1476978 0.17971525 -0.024511592 -0.13390587 0.27114353 -0.048746288
0.04297772 -0.13512395 -0.24091566 -0.0068713306 -0.03652199 0.08513492 -0.1606488 -0.040681254
0.14699343 -0.034428243 -0.06456562 0.08868471 0.06155046 0.08392545 -0.012054922 -0.029391842
0.13235375 0.13417518 -0.26212877 0.0341752 -0.08762437 0.044921197 0.022071924 0.1480922
-0.010661476 -0.11628007 0.015053691 0.104795985 -0.034192182 -0.043533664 -0.064973235 -0.19712815
-0.0013165347 -0.023449063 0.019584637 0.15560526 0.027056143 0.014983848 -0.034304094 0.1308634
0.10964782 0.036770355 -0.0053572296 0.07095977 0.22790083 -0.21078618 -0.032572955 -0.057622086
0.02984059 -0.015433354 0.21683893 -0.039776657 -0.25048876 -0.07239926 0.024280822 -0.026734103
-0.0051039597 0.007938157 0.12853625 0.042796746 -0.23845406 0.024795374 0.11272575 -0.042089228
0.015602881 -0.009129287 -0.081721105 0.08167869 0.018963609 0.12461659 -0.10746667 0.12610865
0.11277995 0.04124723 -0.030764796 -0.17701189 -0.009458586 -0.027737306 -0.041756038 0.07764173
-0.009252219 0.040881753 0.094277844 0.08324819 0.15879165 -0.11263459 -0.0017921691 0.08925462
0.12953559 0.03246206 -0.010491785 0.041040447 -0.14551201 0.26726305 -0.001938274 -0.112925395
0.051668867 -0.020715898 -0.09895929 0.015867157 0.1732204 -0.035344046 -0.08098232 -0.21015066
0.0064819353 -0.010954786 0.1550202 0.017686998 -0.19928883 0.06774016 0.007194362 -0.04165961
0.005826989 0.09328386 0.060637496 0.034335036 0.11654484 -0.17269349 0.1643104 0.022259347
0.046230935 -0.07505529 -0.16235793 0.07167139 0.11707272 0.07088193 0.053590775 -0.0074954988
-0.058323022 0.05049627 -0.28594604 -0.04796586 0.10702308 0.3269576 -0.08551618 -0.10135109
0.0667715 -0.18509854 0.044542663 0.18219577 0.036510445 -0.18803565 0.21395425 0.14286861
0.07057598 -0.07765514 -0.23333551 -0.077701464 -0.031455766 0.044351097 0.0016814837 0.03433184
-0.021030625 -0.19155625 0.057326272 0.11281466 0.050407086 0.0334974 -0.034376506 0.10906838
0.09957739 -0.031841718 0.05084725 0.13611548 -0.061131597 -0.010171123 -0.16084877 -0.09523589
0.20534207 0.15798745 -0.11866311 -0.19987668 -0.13246936 -0.110772066 -0.045258727 0.097609594
0.061913002 0.19373557 -0.12600476 -0.006606215 0.10655597 -0.117017195 0.24967907 -0.13422512
-0.002839313 -0.06740096 -0.13362399 0.05825244 0.17253697 -0.08279339 -0.16928257 -0.06486843
0.07453815 0.021216132 -0.06071928 0.16695252 0.07691625 -0.2347495 0.03907838 -0.08170879
0.21155268 0.10348576 -0.38695583 -0.09593917 -0.052133203 0.07409498 0.075025804 -0.08564672
0.024116745 0.044931855 0.07886119 0.09683904 -0.033018593 0.055144466 0.18901306 0.08099556
0.109682664 -0.036249507 -0.17467216 0.10315956 0.1531641 -0.1294614 0.00076165935 0.19763975
00000000: 35aa 1fbe 0930 cfbd c242 58bc 0f89 9fbd
00000010: 77e4 d3bd 4c2d df3d df72 263e 0fb2 263e
00000020: 9449 26bc 22e7 b03d d55d 68bd 23aa 8b3d
00000030: 504c 173d 6978 103e efcb dc3c 75b3 18be
00000040: 6982 0bbd 0c52 1bbd 5479 73bd cc1d 273d
00000050: 2bfb e43c 6ceb 123e 735d e63d fcf7 26bd
00000060: 9179 16bd 7ef8 ebbd 183e 173e 4607 383e
00000070: 89cc c8bc 9f1e 09be 53d3 8a3e 30aa 47bd
00000080: 6809 303d ef5d 0abe 98b2 76be e628 e1bb
00000090: 1598 15bd 385b ae3d 1e81 24be 63a1 26bd
000000a0: 7285 163e a104 0dbd fb3a 84bd 54a0 b53d
000000b0: 561c 7c3d 1be1 ab3d 0282 45bc 29c7 f0bc
000000c0: be87 073e 3865 093e be35 86be 4bfb 0b3d
000000d0: 6874 b3bd 4aff 373d 2ed0 b43c 7ba5 173e
000000e0: 79ad 2ebc 3f24 eebd c2a3 763c 479f d63d
000000f0: 1a0d 0cbd 5b50 32bd b010 85bd f6db 49be
00000100: 938f acba 4018 c0bc f66f a03c fc56 1f3e
00000110: d8a4 dd3c d07e 753c 7382 0cbd 0e01 063e
00000120: 098f e03d 839c 163d b38b afbb 5b53 913d
00000130: d65e 693e 55d8 57be 386b 05bd 2305 6cbd
00000140: 4174 f43c 2edc 7cbc 060b 5e3e d9ec 22bd
00000150: 1040 80be 1046 94bd 93e8 c63c 7a01 dbbc
00000160: 1e3f a7bb 0b0f 023c 029f 033e a44b 2f3d
00000170: 4d2d 74be ab1f cb3c c2dc e63d c165 2cbd
00000180: 3aa3 7f3c 0193 15bc 655d a7bd 2847 a73d
00000190: 9259 9b3c fc36 ff3d 7c17 dcbd a022 013e
000001a0: 2df9 e63d dbf2 283d 7406 fcbc 9b42 35be
000001b0: 2ff8 1abc 5939 e3bc 6108 2bbd a102 9f3d
000001c0: 9f96 17bc a073 273d be14 c13d 077e aa3d
000001d0: 479a 223e f7ac e6bd 37e7 eaba 20cb b63d
000001e0: faa4 043e f0f6 043d bce5 2bbc 071a 283d
000001f0: 1a01 15be b4d6 883e af0d feba 6e45 e7bd
00000200: bca2 533d 63b4 a9bc 2bab cabd d7fb 813c
00000210: b060 313e ebc4 10bd 0fda a5bd bc31 57be
00000220: 6a66 d43b b47b 33bc 9ebd 1e3e 53e4 903c
00000230: 5f12 4cbe 5abb 8a3d afbe eb3b 44a3 2abd
00000240: 54f0 be3b 9c0b bf3d 065f 783d e5a2 0c3d
00000250: 10af ee3d 90d6 30be fc40 283e 3c59 b63c
00000260: a65c 3d3d 96b6 99bd 2841 26be 73c8 923d
00000270: d2c3 ef3d 8c2a 913d 0082 5b3d cd9c f5bb
00000280: 1fe4 6ebd 2dd5 4e3d 8567 92be da77 44bd
00000290: eb2e db3d fd66 a73e 1b23 afbd 2991 cfbd
000002a0: 7fbf 883d 798a 3dbe 5e72 363d 8791 3a3e
000002b0: fa8b 153d 6b8c 40be d316 5b3e 264c 123e
000002c0: 248a 903d a809 9fbd 81ef 6ebe f221 9fbd
000002d0: c3d7 00bd 7fa9 353d 3b65 dc3a 8b9f 0c3d
000002e0: 6b48 acbc 5227 44be f4ce 6a3d 5f0b e73d
000002f0: a977 4e3d 9234 093d 61ce 0cbd 3e5f df3d
00000300: 3bef cb3d 766c 02bd 3545 503d db61 0b3e
00000310: 2065 7abd c8a4 26bc 8ab5 24be 090b c3bd
00000320: 3145 523e 76c7 213e a505 f3bd 79ac 4cbe
00000330: 0ca6 07be 77dc e2bd 3761 39bd 8ae7 c73d
00000340: 7d98 7d3d 9e62 463e 6407 01be f378 d8bb
00000350: 043a da3d b6a6 efbd dfab 7f3e 4f72 09be
00000360: c413 3abb 8409 8abd bad4 08be 1c9a 6e3d
00000370: 88ad 303e 958f a9bd 6958 2dbe bdd9 84bd
00000380: 75a7 983d 74cd ad3c c8b4 78bd 9af5 2a3e
00000390: 4486 9d3d 2c62 70be a710 203d f056 a7bd
000003a0: 44a1 583e 58f0 d33d 131f c6be c17b c4bd
000003b0: a089 55bd 1cbf 973d 21a7 993d 8c67 afbd
000003c0: 7b90 c53c 770a 383d fa81 a13d 8c53 c63d
000003d0: 813e 07bd 2adf 613d a48c 413e 00e1 a53d
000003e0: 4ea1 e03d 5d7a 14bd 42dd 32be 5245 d33d
000003f0: 0dd7 1c3e 8791 04be 18aa 473a 1362 4a3e

bias f4 [64]
-0.8424027 -0.6276736 -0.24913532 -0.9618787 -0.5731774 -0.93267053 -1.1633646 -0.7838219
-0.6625615 -0.9978006 -1.5491145 -0.44439238 -1.2478426 -0.1369664 -0.95860356 -0.97584397
-0.70207626 -0.37474862 -0.8850268 -0.98833984 -0.7609981 -1.0032681 -1.3786044 -0.24882855
-0.555725 -0.9353248 -0.46464208 -0.39560813 -0.15146737 -0.9604811 -1.1571118 -1.2219355
-1.2234446 -0.74310625 -0.36533603 -0.6115462 -0.40287367 -0.10109817 -0.9983198 -1.0299171
-1.1731509 -0.57597613 -0.31407425 -0.73252946 -1.140945 -1.1869922 -1.2703791 -1.0031946
-1.2175827 -1.1813573 -0.57115334 -0.5391364 -0.97693366 -0.5495992 -0.5512458 -0.5923885
-0.2949242 -0.424445 -0.9651391 -0.99889123 -1.0229876 -0.50582653 0.014511244 -0.4225124
00000000: b4a7 57bf 38af 20bf 541d 7fbe af3d 76bf
00000010: c1bb 12bf 7fc3 6ebf 22e9 94bf 8da8 48bf
00000020: a19d 29bf dc6f 7fbf 6249 c6bf 6687 e3be
00000030: 4eb9 9fbf ec40 0cbe 0b67 75bf e9d0 79bf
00000040: 45bb 33bf 0ddf bfbe 1e91 62bf d703 7dbf
00000050: c5d0 42bf 176b 80bf 1c76 b0bf e9cc 7ebe
00000060: fe43 0ebf 7271 6fbf 91e5 edbe 268d cabe
00000070: 431a 1bbe 17e2 75bf 3d1c 94bf 6268 9cbf
00000080: d599 9cbf 363c 3ebf 530d bbbe 4b8e 1cbf
00000090: 7545 cebe 8f0c cfbd e391 7fbf 53d4 83bf
000000a0: cf29 96bf 2c73 13bf 57ce a0be 0d87 3bbf
000000b0: 7c0a 92bf 5cef 97bf c89b a2bf ae68 80bf
000000c0: c0d9 9bbf b736 97bf 1b37 12bf d804 0abf
000000d0: 5318 7abf 88b2 0cbf 721e 0dbf c6a6 17bf
000000e0: 4e00 97be db50 d9be 5b13 77bf 56b7 7fbf
000000f0: 42f1 82bf d97d 01bf 92c0 6d3c 8c53 d8be

weight f4 [64, 64]
-0.022719827 0.05746443 0.046907384 -0.06862384 0.016592192 -0.10719405 0.023733336 0.0011510976
0.103404574 -0.021342741 0.08419642 -0.033050086 0.114658594 0.041607566 -0.025225313 -0.041836295
-0.027976897 0.0402969 -0.0826045 0.011049597 0.021188902 0.01976454 -0.09667571 -0.013278651
0.029686999 -0.028661754 0.007151971 -0.011958816 -0.023367109 0.029258972 -0.06532305 -0.0539858
0.0422041 -0.034506705 0.06030189 0.03760961 -0.031416126 0.008232782 0.076197624 -0.035409976
-0.03303598 0.004047421 -0.0391958 0.037322488 -0.008658199 -0.06699014 0.034360368 0.03952465
0.0030812547 -0.027173065 0.07211833 0.014388611 -0.092807226 0.01270372 -0.028767692 0.034780007
-0.08683962 0.07354899 0.086237855 -0.016337702 -0.08825461 -0.041564602 0.0649795 0.07584525
-0.07996791 0.022886502 0.04697328 -0.001153173 -0.021316675 0.101972565 0.05799454 -0.027643777
-0.043376144 0.0034532521 -0.13590713 0.023965582 -0.030799076 0.038568184 -0.06158418 0.031778187
0.061705053 0.016803643 0.056182012 0.037024032 -0.0408395 -0.035682958 0.03735465 0.055654958
-0.006186303 0.03531124 -0.011216842 0.033029437 -0.029884363 -0.0585304 0.041941494 0.053582024
-0.0054524783 0.095000125 -0.05207405 -0.050202023 0.0010244903 0.031082543 -0.042458594 -0.06436463
0.022295 0.03298414 -0.0593504 0.036439154 0.08953656 0.0055634473 -0.061705876 -0.05145186
-0.068738945 -0.035772942 -0.021375522 0.053969532 0.009680935 0.024630751 0.028393405 0.050169393
0.09239649 -0.04665445 -0.040714685 -0.019940376 0.0016468563 0.054943386 -0.002924578 -0.05981715
0.06700755 -0.041278813 0.14339988 0.011190893 -0.043958314 -0.06847049 0.03081917 0.033046044
-0.009717128 -0.02169955 0.07868437 -0.012073571 0.07030471 -0.14872906 -0.027601555 -0.006615611
-0.06226194 -0.095964156 -0.025205815 -0.14939022 -0.0008526682 0.015522713 -0.069393754 -0.023056056
0.032577235 -0.11246519 -0.009081735 -0.01383421 0.07106555 0.090340324 -0.060508378 -0.03793116
0.045983743 -0.020755948 0.13128003 0.12776376 0.0480294 0.07220528 0.05276146 0.021241922
-0.009994565 -0.07842903 -0.008243304 0.0330787 -0.035491753 0.11183243 -0.01656878 0.033580273
-0.017004501 0.010411974 0.07782317 0.00045877937 -0.0038771348 -0.033637647 0.0014936521 -0.042617686
0.045588415 0.053490896 -0.010019157 0.00786082 -0.040632665 -0.011428967 0.00087748986 0.10930578
-0.005541381 -0.020700987 0.028071411 -0.042738892 0.017826945 -0.02432435 -0.089308746 -0.016957628
0.06946414 0.003973634 0.07398721 -0.004894882 0.045428615 0.010447875 0.02839782 -0.055071574
-0.07060488 0.026883435 -0.10728192 -0.026902188 0.037422802 -0.031654023 -0.043413915 -0.013454594
-0.011849173 -0.04817511 0.027211942 0.030736107 0.034396686 0.024908278 -0.0025495836 -0.008398576
-0.0038732707 -0.09808141 0.047732793 0.05517103 -0.008037538 0.008449437 -0.05442475 0.024468921
-0.009710956 0.017348215 0.07054025 0.028929504 -0.10250316 -0.051491477 -0.012977326 0.024004102
-0.024114 0.00029447075 0.047378033 -0.044502147 0.007213098 0.072282486 -0.013888237 -0.031705037
-0.032710284 0.032171115 0.028783832 0.006726774 0.03666651 -0.06831503 0.040452696 0.039909005
00000000: ee1e babc d25f 6b3d f521 403d a88a 8cbd
00000010: 59ec 873c 8e88 dbbd 6a6c c23c 6de0 963a
00000020: c7c5 d33d f9d6 aebc 2c6f ac3d 875f 07bd
00000030: 20d2 ea3d b26c 2a3d 51a5 cebc 895c 2bbd
00000040: ce2f e5bc 5d0e 253d 8c2c a9bd 5e09 353c
00000050: 5994 ad3c 3fe9 a13c eafd c5bd b38e 59bc
00000060: 2632 f33c 0ecc eabc 155b ea3b e9ee 43bc
00000070: 616c bfbc 83b0 ef3c 17c8 85bd 3720 5dbd
00000080: 35de 2c3d e756 0dbd 1dff 763d 890c 1a3d
00000090: 32ae 00bd cae2 063c 800d 9c3d 0d0a 11bd
000000a0: bc50 07bd 3aa0 843b c68b 20bd 77df 183d
000000b0: 1edb 0dbc 2032 89bd 75bd 0c3d 99e4 213d
000000c0: e0ee 493b 0c9a debc c6b2 933d 35be 6b3c
000000d0: b711 bebd 4323 503c 39aa ebbc 7b75 0e3d
000000e0: f8d8 b1bd daa0 963d 799d b03d a5d6 85bc
000000f0: d5be b4bd a53f 2abd f913 853d c154 9b3d
00000100: 37c6 a3bd 797c bb3c 0e67 403d 1126 97ba
00000110: 4fa0 aebc fed6 d03d af8b 6d3d 3475 e2bc
00000120: 2fab 31bd f54f 623b 3d2b 0bbe 7853 c43c
00000130: 584e fcbc acf9 1d3d b13f 7cbd d829 023d
00000140: 70be 7c3d cba7 893c 1c1f 663d 83a6 173d
00000150: 5247 27bd 4b28 12bd 3101 193d 74f6 633d
00000160: 79b6 cabb 85a2 103d d8c6 37bc e049 073d
00000170: 0dd0 f4bc 93bd 6fbd d8ca 2b3d d378 5b3d
00000180: b4aa b2bb 6d8f c23d 994b 55bd a3a0 4dbd
00000190: 3148 863a d1a0 fe3c 10e9 2dbd 9ad1 83bd
000001a0: 01a4 b63c 611a 073d 6819 73bd 3941 153d
000001b0: f25e b73d 944d b63b 4dbf 7cbd 30bf 52bd
000001c0: 01c7 8cbd a686 12bd b81b afbc 280f 5d3d
000001d0: c99c 1e3c 6ec6 c93c 4999 e83c 6c7e 4d3d
000001e0: 5f3a bd3d bd18 3fbd 71c4 26bd 005a a3bc
000001f0: 54db d73a 510c 613d 47aa 3fbb d402 75bd
00000200: 413b 893d f913 29bd 6bd7 123e 025a 373c
00000210: a20d 34bd 423a 8cbd 7c78 fc3c 4a5b 073d
00000220: 9734 1fbc 41c3 b1bc 4525 a13d 3ad0 45bc
00000230: eafb 8f3d 6e4c 18be a81c e2bc c4c7 d8bb
00000240: 6006 7fbd db88 c4bd 6d7c cebc c0f9 18be
00000250: 9885 5fba fa52 7e3c 501e 8ebd 0ee0 bcbc
00000260: b56f 053d 2654 e6bd 8fcb 14bc e2a8 62bc
00000270: d18a 913d 5904 b93d a2d7 77bd b45d 1bbd
00000280: 7359 3c3d 6108 aabc 466e 063e 81d4 023e
00000290: 7aba 443d 5de0 933d 671c 583d 8a03 ae3c
000002a0: 3ec0 23bc 669f a0bd ec0e 07bc 887d 073d
000002b0: cd5f 11bd 6708 e53d 40bb 87bc 788b 093d
000002c0: 064d 8bbc fc96 2a3c c161 9f3d 5388 f039
000002d0: 8717 7ebb a1c7 09bd a6c6 c33a e28f 2ebd
000002e0: ebba 3a3d 4519 5b3d 6427 24bc abca 003c
000002f0: 706e 26bd 9040 3bbc 5907 663a b5db df3d
00000300: 7994 b5bb 1e95 a9bc 04f6 e53c fa0e 2fbd
00000310: d009 923c dc43 c7bc 81e7 b6bd b9ea 8abc
00000320: 3743 8e3d 4235 823b 9b86 973d 3f65 a0bb
00000330: 5b13 3a3d 902d 2b3c 8ca2 e83c bb92 61bd
00000340: 4b99 90bd a63a dc3c a0b6 dbbd fa61 dcbc
00000350: a748 193d a6a7 01bd cad2 31bd a870 5cbc
00000360: 0923 42bc 4453 45bd 94eb de3c 4aca fb3c
00000370: 8ae3 0c3d 720c cc3c ea16 27bb 2e9a 09bc
00000380: b3d6 7dbb e8de c8bd 7683 433d 05fb 613d
00000390: e1af 03bc 826f 0a3c 7dec 5ebd 0c73 c83c
000003a0: b41a 1fbc d81d 8e3c 6877 903d 91fd ec3c
000003b0: 2ded d1bd bae8 52bd da9e 54bc 40a4 c43c
000003c0: b98a c5bc 3263 9a39 780f 423d e247 36bd
000003d0: da5b ec3b d708 943d 7d8b 63bc 24dd 01bd
000003e0: 38fb 05bd dcc5 033d 12cc eb3c 456c dc3b
000003f0: 9f2f 163d c0e8 8bbd bab1 253d a077 233d

bias f4 [64]
0.21343085 -0.01012155 -0.10038423 0.22525622 -0.12792458 -0.1960474 0.1396886 0.36668423
0.10509965 0.127624 0.11358862 0.13754788 -0.0110849 0.0084085325 -0.031505343 -0.043777496
-0.04691044 0.049809948 -0.064309046 -0.061771676 0.015625594 0.24190459 -0.21628849 -0.06974998
0.13667026 -0.01566341 0.036884826 0.018658591 -0.28081453 0.1588653 0.056870796 -0.019453486
-0.032662768 0.0037030806 -0.041461237 0.08423399 0.0061876276 0.051181503 -0.09494743 0.13315515
-0.08423038 -0.2948117 0.056110337 -0.2753395 0.09563912 0.08107545 0.15035988 -0.19847625
-0.05423364 -0.19643816 0.1737321 -0.07637918 0.115928255 0.13536786 -0.09087446 -0.16880003
-0.2760189 -0.009921283 -0.033068504 0.0767485 0.1363335 0.14688142 0.08601736 0.049010947
00000000: 9e8d 5a3e dcd4 25bc 3f96 cdbd 91a9 663e
00000010: a9fe 02be a6c0 48be 870a 0f3e 09be bb3e
00000020: 7c3e d73d deaf 023e 27a1 e83d 5ad9 0c3e
00000030: 719d 35bc f1c3 093c bf0b 01bd 0850 33bd
00000040: 2925 40bd 8405 4c3d 76b4 83bd 4c04 7dbd
00000050: 3f01 803c d6b5 773e bb7a 5dbe 14d9 8ebd
00000060: 4af3 0b3e 8d50 80bc 8b14 173d e7d9 983c
00000070: ecc6 8fbe 96ad 223e 5af1 683d eb5c 9fbc
00000080: 65c9 05bd 62af 723b 42d3 29bd df82 ac3d
00000090: 95c1 ca3b b2a3 513d cc73 c2bd d359 083e
000000a0: fa80 acbd 8ff1 96be f4d3 653d 4df9 8cbe
000000b0: 71de c33d e30a a63d f1f7 193e 5c3d 4bbe
000000c0: 1824 5ebd 1627 49be d4e6 313e b06c 9cbd
000000d0: cb6b ed3d df9d 0a3e 641c babd ead9 2cbe
000000e0: 5952 8dbe e18c 22bc d772 07bd 512e 9d3d
000000f0: 029b 0b3e 1568 163e df29 b03d b4bf 483d

weight f4 [10, 64]
0.000507966 -0.071241364 -0.09164324 0.009839016 -0.056863185 -0.06463475 0.10913328 0.05697308
0.05378104 0.0057509253 0.1152799 0.047167726 -0.029581584 -0.051227663 0.025621027 -0.03881443
-0.02458142 0.02613477 0.11893014 -0.10536396 0.008047136 0.018529788 0.026737629 0.06185454
-0.07581441 -0.019474756 -0.013343109 -0.011439995 -0.053937078 -0.0059456616 0.07144018 -0.0046840645
0.13575849 -0.055340543 0.0654838 0.0027159858 -0.05888275 0.03644319 -0.03410268 0.096846
0.036578476 -0.06631153 -0.07531083 -0.039360587 -0.05012031 0.06482235 0.084838495 -0.11198278
-0.06453402 -0.002953633 -0.08003329 -0.03570438 -0.06514519 0.02116043 -0.064180724 0.011504144
0.04824035 -0.00024783434 0.104939885 0.12785424 -0.07021981 0.045054205 0.11209238 0.044454116
0.09383583 -0.11094357 0.17811085 0.034948885 0.025267348 -0.035332795 -0.063455105 -0.08017956
-0.14471778 0.103910595 -0.020799192 0.026457304 0.047822524 0.026945602 -0.018440112 -0.07658577
-0.007851319 -0.085122585 0.012614753 0.08435913 -0.055932485 -0.13984261 -0.10804876 -0.02737023
0.027346699 0.09248187 -0.13158233 0.10066086 -0.039048944 0.015406344 0.04364729 -0.0014836552
-0.031197688 0.05728101 0.032754872 -0.06288259 0.072669804 -0.00683112 -0.087073945 -0.081643015
-0.035511784 0.15234524 -0.08205683 -0.045712154 0.10730737 -0.0026865639 0.040394392 0.05348863
0.118363544 0.0005089522 -0.036555115 0.05904833 -0.042563472 -0.08355167 -0.028947137 0.039316885
-0.037272997 -0.08449522 -0.027318463 -0.109083176 0.053996462 0.02694618 0.06708779 0.26273492
-0.002167724 0.04945912 -0.03462852 -0.10889212 0.0023030567 0.04006309 -0.0069558877 -0.06623162
0.036412615 0.019176103 0.11983985 0.06968361 -0.08463948 -0.035785638 -0.04366914 0.05770661
0.004609578 -0.030657854 0.018085908 -0.006558928 -0.00495954 0.085900106 0.048542593 0.09228519
-0.09088147 -0.082271606 0.040852774 -0.073155135 -0.047414906 0.018460317 -0.016843913 0.023859134
0.074148946 -0.027681166 -0.0053305863 0.030223276 -0.026636677 0.03269663 0.0094509795 -0.06890369
0.078174725 0.029608129 -0.03430909 -0.12068623 -0.08052263 0.054261796 -0.035595305 0.0047018216
-0.0536168 0.10897501 -0.06972476 -0.07825209 0.0037444057 0.009791073 0.04206177 0.10173524
0.02568617 0.03592764 0.047207084 0.038689844 -0.080598794 -0.024750173 -0.025022466 0.04306882
-0.0361004 0.00987357 0.015293477 -0.016684396 0.07404611 0.027153168 -0.006872322 -0.014452911
-0.017286712 -0.08069382 -0.07232232 -0.07078691 0.049042087 0.08146245 0.022543162 0.033422202
-0.033367004 -0.010730378 -0.022037115 -0.10710907 0.010209813 -0.08302714 0.019880867 -0.04524616
-0.04538033 -0.008461557 -0.091458514 -0.030968538 0.035473816 -0.036820106 -0.06639592 0.04352893
-0.020204678 -0.053359754 0.07868456 0.027930446 -0.012402616 -0.06447446 0.018074693 -0.09951063
0.064118035 0.039917927 0.08291234 0.02758358 -0.03237095 -0.080103576 -0.013504719 -0.012299127
-0.055019174 0.061920237 -0.030507868 0.0005277169 -0.0027091873 -0.06642923 0.09670551 -0.09261278
0.010750286 0.035853483 -0.04344247 -0.0052517583 0.03425015 0.04172866 -0.091110006 -0.018241225
00000000: 0529 053a fee6 91bd 73af bbbd d333 213c
00000010: 5fe9 68bd 395f 84bd 4581 df3d 9b5c 693d
00000020: 8249 5c3d 4272 bc3b de17 ec3d f232 413d
00000030: 1455 f2bc 19d4 51bd 30e3 d13c e1fb 1ebd
00000040: f95e c9bc 9618 d63c a591 f33d 0fc9 d7bd
00000050: 22d8 033c c8cb 973c df08 db3c 305b 7d3d
00000060: 9644 9bbd 8689 9fbc 0e9d 5abc d16e 3bbc
00000070: 20ed 5cbd d3d3 c2bb 3b4f 923d c87c 99bb
00000080: 4604 0b3e c4ac 62bd 5f1c 863d aefe 313b
00000090: 0a2f 71bd 7445 153d 40af 0bbd 3257 c63d
000000a0: 50d3 153d 57ce 87bd 903c 9abd 9138 21bd
000000b0: f44a 4dbd 95c1 843d cebf ad3d 3a57 e5bd
000000c0: 6a2a 84bd bd91 41bb 7ee8 a3bd c23e 12bd
000000d0: d76a 85bd a358 ad3c 2f71 83bd e17b 3c3c
000000e0: ac97 453d c3ef 81b9 b9ea d63d 39ec 023e
000000f0: 67cf 8fbd c28a 383d b190 e53d 8515 363d
00000100: 002d c03d 6236 e3bd b162 363e 9026 0f3d
00000110: 78fd ce3c 1fb9 10bd c0f4 81bd 2e35 a4bd
00000120: e630 14be 14cf d43d 1163 aabc fdbc d83c
00000130: 8de1 433d 06bd dc3c b80f 97bc 00d9 9cbd
00000140: d2a2 00bc c054 aebd 1cae 4e3c 7bc4 ac3d
00000150: 7619 65bd e732 0fbe ab48 ddbd 8837 e0bc
00000160: 2f06 e03c 2267 bd3d 85bd 06be 4827 ce3d
00000170: c9f1 1fbd e46a 7c3c 80c7 323d 3577 c2ba
00000180: 4b92 ffbc 7e9f 6a3d f929 063d 96c8 80bd
00000190: e8d3 943d 96d7 dfbb d353 b2bd 7434 a7bd
000001a0: ce74 11bd 6400 1c3e 690d a8bd ab3c 3bbd
000001b0: f7c3 db3d 1011 30bb 9774 253d e516 5b3d
000001c0: 9668 f23d 346b 053a d1ba 15bd a9dc 713d
000001d0: 0957 2ebd 231d abbd 8c22 edbc be0a 213d
000001e0: 92ab 18bd d40b adbd f8ca dfbc 0067 dfbd
000001f0: 652b 5d3d 3cbe dc3c 5365 893d 3185 863e
00000200: 6010 0ebb a595 4a3d a3d6 0dbd d502 dfbd
00000210: e1ee 163b 3219 243d 37ee e3bb 72a4 87bd
00000220: 6525 153d 3417 9d3c 986e f53d 48b6 8e3d
00000230: 7757 adbd f693 12bd 6ade 32bd c45d 6c3d
00000240: f10b 973b 2e26 fbbc e628 943c 47ec d6bb
00000250: a383 a2bb 65ec af3d 99d4 463d 0500 bd3d
00000260: 1020 babd 047e a8bd 3d55 273d 5cd2 95bd
00000270: 2236 42bd 173a 973c 3ffc 89bc 3b74 c33c
00000280: 67db 973d 9dc3 e2bc 33ac aebb ce96 f73c
00000290: 2935 dabc e7ec 053d 48d8 1a3c 611d 8dbd
000002a0: 121a a03d bf8c f23c b087 0cbd 582a f7bd
000002b0: 0ce9 a4bd 9e41 5e3d 62cc 11bd bd11 9a3b
000002c0: 4a9d 5bbd 4a2e df3d dbcb 8ebd a242 a0bd
000002d0: b464 753b bd6a 203c f648 2c3d 915a d03d
000002e0: ce6b d23c dc28 133d 375c 413d 3e79 1e3d
000002f0: fb10 a5bd e0c0 cabc eafb ccbc ee68 303d
00000300: 03de 13bd c1c4 213c 7e91 7a3c b7ad 88bc
00000310: 7da5 973d 5270 de3c 3731 e1bb e7cb 6cbc
00000320: dd9c 8dbc cd42 a5bd b91d 94bd baf8 90bd
00000330: 5be0 483d c9d5 a63d 70ac b83c b8e5 083d
00000340: d7ab 08bd 78ce 2fbc 2e87 b4bc 005c dbbd
00000350: 0f47 273c 220a aabd 33dd a23c 0a54 39bd
00000360: bae0 39bd 58a2 0abc 9a4e bbbd bbb1 fdbc
00000370: fe4c 113d aed0 16bd 96fa 87bd 644b 323d
00000380: 4884 a5bc c28f 5abd 5f25 a13d 64ce e43c
00000390: 5834 4bbc 300b 84bd 6111 943c 3bcc cbbd
000003a0: 5150 833d fb80 233d f2cd a93d f6f6 e13c
000003b0: 6797 04bd 580d a4bd e642 5dbc 4782 49bc
000003c0: c95b 61bd 13a0 7d3d a3eb f9bc 7b56 0a3a
000003d0: 9f8c 31bb 0c0c 88bd 8a0d c63d c5ab bdbd
000003e0: f821 303c 1adb 123d bbf0 31bd f116 acbb
000003f0: e349 0c3d aceb 2a3d e297 babd 9f6e 95bc

bias f4 [10]
-0.10917332 -0.9851208 0.46703008 0.9223798 0.50963223 0.3500102 0.1057071 -0.39131534
-0.6421165 -0.24221478
00000000: 4396 dfbd e030 7cbf 911e ef3e 1521 6c3f
00000010: 4277 023f 8934 b33e f77c d83d 7c5a c8be
00000020: bf61 24bf 2707 78be
