module_nn/module_2.pth (torch, 341767 bytes, 10 tensors)

weight f4 [32, 3, 5, 5]
0.44919685 0.11054723 0.23643419 0.07115987 0.019637479 -0.09828443 0.040742274 0.009747955
-0.11696709 -0.1046322 -0.12313843 0.10144875 -0.07350227 0.07488887 0.004773703 -0.18916143
-0.22488447 -0.23305182 0.015333764 -0.086184226 -0.14979537 -0.11089985 -0.06722771 0.029656453
-0.17896001 -0.010082863 -0.14615847 0.076388314 -0.07927081 -0.094393566 -0.25294018 -0.026164195
-0.08827836 0.059632696 0.011792615 -0.10714425 0.29768986 0.036847193 0.19742426 0.07416074
0.043199632 0.2789953 0.25757837 0.111528575 0.10173943 -0.31087935 0.10003171 0.110617265
0.27155608 -0.03675733 0.0066811563 -0.3202281 -0.23953898 -0.106160305 -0.05158265 0.02665709
-0.102049835 -0.08320859 0.1677934 0.21526165 -0.06533949 0.2740073 -0.012836689 0.08507264
0.10505212 0.20716704 0.1515402 -0.09075252 -0.12778457 -0.0053003333 0.009819126 -0.057354562
0.13735582 -0.015735468 -0.15963195 0.11996507 0.11004757 0.19297034 0.37463486 0.08729554
0.045101326 0.07899545 0.17718379 0.21799475 -0.028565433 0.03428693 -0.11318676 0.12491355
0.062497932 -0.13944939 -0.0747357 -0.15005426 -0.09720516 -0.24952726 -0.38721615 -0.16409649
0.015945638 0.049458306 0.13049269 -0.0462045 0.110484056 -0.012715686 -0.036198236 -0.06103451
-0.19491017 -0.00981917 -0.16056193 -0.16794509 -0.12220514 -0.32254925 0.02921359 0.056348264
0.211677 0.115687035 -0.0721853 -0.046606015 -0.03460948 -0.049941886 -0.06928656 -0.27610078
-0.11912808 -0.07654091 0.08939146 -0.0874908 -0.21005574 0.066740304 0.042424675 -0.10277747
-0.1731801 0.12448128 -0.15652427 -0.08065623 -0.19259425 -0.18574497 0.20156826 -0.16818424
0.03975928 0.032924574 0.023895623 0.33519927 -0.010558966 0.23139589 0.07664276 0.20952436
0.4191629 0.0963243 0.22951996 0.035172533 0.2258098 0.23332648 -0.02167486 0.042357277
0.15917636 -0.12250158 -0.21820764 0.0065855063 0.20885885 0.019370394 -0.31475824 -0.14211829
0.35239697 0.27841005 -0.4940104 -0.4453095 0.2117437 0.20422244 -0.5084258 -0.2497154
0.41941702 0.1947078 -0.15477167 -0.25126696 -0.10037433 0.18193077 -0.014654776 0.12422233
0.0019414297 0.08608642 0.026066372 0.1358753 -0.14985423 0.17261422 -0.018378565 -0.3292818
-0.057882886 0.31233105 0.099943504 -0.33469427 -0.22695461 0.30794695 0.072352536 -0.47609568
-0.2842138 0.2638547 0.11889449 -0.058003776 -0.01521539 0.14100188 0.13444144 -0.060499255
0.0058602374 -0.05953886 0.35859957 -0.07369429 -0.11450097 -0.25025877 0.10263571 0.3869994
-0.2592303 0.03997985 0.069696724 0.17438313 0.091879435 -0.37989724 -0.016800048 0.038446967
-0.2706803 0.050334655 0.02655884 -0.13175479 -0.19379516 -0.13761744 0.21272942 -0.040452406
-0.2882036 -0.27335247 -0.008059344 0.18017173 0.4313302 0.18751921 -0.33893228 -0.24211083
-0.09945658 0.4118102 0.013111697 -0.26167452 -0.12421929 -0.4873606 0.38710046 0.2854878
-0.31730208 0.26089385 -0.24899054 -0.034379777 0.10403381 -0.3645186 0.0030683938 -0.008528078
-0.13408542 -0.024983399 -0.25525934 -0.07122049 0.04479276 -0.10434952 0.034093205 -0.22052413
00000000: 21fd e53e 9666 e23d ce1b 723e 44bc 913d
00000010: c7de a03c 5949 c9bd 5fe1 263d e3b5 1f3c
00000020: 718c efbd 6849 d6bd 0030 fcbd 5dc4 cf3d
00000030: 5c88 96bd 565f 993d b96c 9c3b 89b3 41be
00000040: 1d48 66be 23a5 6ebe 783a 7b3c 5b81 b0bd
00000050: f563 19be 761f e3bd aeae 89bd 17f2 f23c
00000060: 4b41 37be 9832 25bc 91aa 15be 7a71 9c3d
00000070: bc58 a2bd 6a51 c1bd 6081 81be 4b56 d6bc
00000080: 49cb b4bd 6a41 743d d035 413c 726e dbbd
00000090: ce6a 983e 15ed 163d 9629 4a3e 96e1 973d
000000a0: 19f2 303d 79d8 8e3e 50e1 833e 1869 e43d
000000b0: c35c d03d 942b 9fbe 6ddd cc3d 4e8b e23d
000000c0: 6609 8b3e db8e 16bd 9aed da3b f0f4 a3be
000000d0: b549 75be 936a d9bd 5448 53bd f85f da3c
000000e0: 81ff d0bd 4469 aabd 08d2 2b3e 8d6d 5c3e
000000f0: b6d0 85bd af4a 8c3e fa50 52bc 903a ae3d
00000100: 9125 d73d 9923 543e 5b2d 1b3e 75dc b9bd
00000110: f5d9 02be 6bae adbb 66e0 203c 9eec 6abd
00000120: 01a7 0c3e abe7 80bc 8f76 23be 3fb0 f53d
00000130: 9f60 e13d 049a 453e 24d0 bf3e 01c8 b23d
00000140: 2bbc 383d 5ec8 a13d ab6f 353e 043a 5f3e
00000150: 0e02 eabc 7470 0c3d 76ce e7bd add2 ff3d
00000160: d5fd 7f3d d2cb 0ebe 080f 99bd d3a7 19be
00000170: 8013 c7bd 1384 7fbe 3241 c6be e908 28be
00000180: 6da0 823c cb94 4a3d e09f 053e ee40 3dbd
00000190: 7745 e23d 7455 50bc 9a44 14bd 53ff 79bd
000001a0: 8896 47be 96e0 20bc 596a 24be ccf9 2bbe
000001b0: b046 fabd 2d25 a5be 5751 ef3c 70cd 663d
000001c0: dbc1 583e 53ed ec3d e3d5 93bd f3e5 3ebd
000001d0: acc2 0dbd dd8f 4cbd 1de6 8dbd 155d 8dbe
000001e0: 6cf9 f3bd 7bc1 9cbd df12 b73d 602e b3bd
000001f0: da18 57be 24af 883d 7fc5 2d3d ff7c d2bd
00000200: 2056 31be 0bf0 fe3d e647 20be 182f a5bd
00000210: 6d37 45be ee33 3ebe e967 4e3e 7d38 2cbe
00000220: a0da 223d ebdb 063d c1c0 c33c 3d9f ab3e
00000230: 83ff 2cbc 0bf3 6c3e e1f6 9c3d 8e8d 563e
00000240: 859c d63e ad45 c53d 4807 6b3e 1311 103d
00000250: af3a 673e 23ed 6e3e 7a8f b1bc d37e 2d3d
00000260: 21ff 223e 1ce2 fabd d371 5fbe 3bcb d73b
00000270: 18df 553e a9ae 9e3c fe27 a1be 7587 11be
00000280: 606d b43e c38b 8e3e eeee fcbe 9bff e3be
00000290: 57d3 583e b01f 513e 3128 02bf 65b5 7fbe
000002a0: d4bd d63e 7b61 473e 777c 1ebe 10a6 80be
000002b0: 0f91 cdbd 0f4c 3a3e 961a 70bc 4768 fe3d
000002c0: 9277 fe3a 144e b03d 2589 d53c e522 0b3e
000002d0: 6373 19be c8c1 303e a58e 96bc a097 a8be
000002e0: 9b16 6dbd dbe9 9f3e 2eaf cc3d 0c5d abbe
000002f0: ca66 68be 39ab 9d3e 912d 943d d0c2 f3be
00000300: 7984 91be f717 873e f47e f33d 5e95 6dbd
00000310: f949 79bc cc62 103e 04ab 093e 11ce 77bd
00000320: 3c07 c03b 05df 73bd 5d9a b73e 08ed 96bd
00000330: 7c7f eabd eb21 80be ac32 d23d c924 c63e
00000340: d5b9 84be e9c1 233d 28bd 8e3d 7e91 323e
00000350: 492b bc3d e481 c2be 41a0 89bc 917a 1d3d
00000360: 9c96 8abe b62b 4e3d ed91 d93c baea 06be
00000370: 3d72 46be 96eb 0cbe bed5 593e 6cb1 25bd
00000380: 6c8f 93be dbf4 8bbe 570b 04bc f07e 383e
00000390: 50d7 dc3e 0905 403e 8888 adbe e7eb 77be
000003a0: e4af cbbd c9d8 d23e 71d2 563c 34fa 85be
000003b0: af66 febd 5487 f9be 0832 c63e 752b 923e
000003c0: 6b75 a2be e193 853e 60f7 7ebe cfd1 0cbd
000003d0: ae0f d53d 2fa2 babe 1b17 493b 5ab9 0bbc
000003e0: b04d 09be fca9 ccbc 5ab1 82be 0cdc 91bd
000003f0: 9d78 373d 33b5 d5bd 51a5 0b3d 14d1 61be

bias f4 [32]
0.14101972 -0.09794236 0.0127077345 0.20622516 -0.10689042 0.08149884 0.0006147692 -0.059368126
-0.16661678 -0.08960758 -0.22401522 -0.20504232 0.15468076 -0.13278957 -0.14639685 -0.05159128
-0.12592846 -0.105279915 -0.07398666 0.013693757 -0.06374369 -0.031149052 -0.16325478 -0.090536796
0.19374593 -0.33680618 -0.4758012 -0.13979667 -0.16775429 0.1137847 -0.2672987 -0.3133102
00000000: 7967 103e 0196 c8bd 1a34 503c b02c 533e
00000010: 5de9 dabd dde8 a63d 7628 213a fe2b 73bd
00000020: 979d 2abe 2e84 b7bd 3f64 65be 9df6 51be
00000030: a264 1e3e fdf9 07be 0ee9 15be 6151 53bd
00000040: 64f3 00be ff9c d7bd 5186 97bd c85b 603c
00000050: 0d8c 82bd 4c2c ffbc 432c 27be 5b6b b9bd
00000060: 5565 463e dc71 acbe 379c f3be dc26 0fbe
00000070: c8c7 2bbe f407 e93d 60db 88be 326a a0be

weight f4 [32, 32, 5, 5]
-0.00898466 0.03556985 -0.098422125 -0.06591585 0.043437216 0.05104764 -0.064646184 -0.05517524
-0.055799108 0.019308751 0.0204214 0.0064940886 0.058347233 0.086601965 0.1398262 -0.09384333
-0.15947902 -0.08116642 -0.09395824 -0.083068326 0.0941723 0.091157466 0.008725014 -0.017798662
-0.086561956 -0.018956821 0.024578929 0.042792927 -0.013674277 -0.06839174 -0.042918034 -0.0107957395
0.025183097 -0.014609501 -0.0021345557 0.010318955 -0.02772189 0.10987657 0.059824124 0.06429981
-0.13030162 -0.14662087 -0.08034174 -0.031229455 -0.06661936 0.15013729 0.12694642 0.026792612
0.042846195 0.06230219 -0.002044627 0.08150639 -0.14776723 -0.056007344 0.06222515 0.08164187
-0.06636257 -0.020768546 0.0011978227 -0.091979764 -0.061253883 0.12329995 0.03483711 0.105759434
-0.07247189 -0.019432591 0.058886617 -0.051288582 -0.008992194 0.030363042 -0.06093455 -0.0048665213
0.066729 0.030257786 0.15763558 0.076141484 0.09182811 -0.20256466 0.19221017 -0.052878536
0.048218157 0.088928595 -0.051996984 0.121447794 0.01996699 0.00401227 0.083131954 0.023919264
0.12538813 0.08267844 -0.17378034 -0.018354665 -0.13469636 0.06761025 -0.042075824 0.1410365
0.02387687 -0.04910766 -0.057595246 -0.21937239 -0.034812704 0.1302678 -0.057321835 0.044802718
-0.04373709 -0.13612042 0.145895 -0.0039271354 -0.007869204 -0.08324133 -0.094375886 0.063622184
-0.11325395 -0.08160758 0.027372729 -0.04625601 0.03382762 -0.028149344 0.0030164775 0.0025272663
-0.026212016 0.022973659 -0.060129028 0.06250375 0.038210467 0.20875087 0.006879365 0.06817216
0.014911945 0.02348517 0.0027785264 -0.008044164 -0.17627522 -0.21636705 -0.07354231 0.109309494
-0.04407099 0.13541552 -0.005711721 0.03234096 0.111221634 0.042509485 -0.038877357 0.03403561
-0.036941055 -0.029655775 -0.09038499 -0.014685378 -0.01776961 0.028122788 -0.14512356 -0.05445164
-0.09045357 -0.1809565 -0.0755722 0.05537955 0.0782353 0.049315732 0.010356764 -0.052983336
-0.11739928 -0.11071916 -0.18607455 -0.16705313 -0.24696876 0.11002021 0.27543992 0.30487865
0.29953933 0.2639735 0.096696086 0.023412954 -0.07156821 -0.03779207 -0.034678776 0.052323274
0.24125415 0.011655339 0.059373613 0.012148729 -0.08503031 -0.0041056015 0.004018189 -0.050957102
-0.15518191 -0.023720786 0.06032072 -0.047252446 0.03213005 0.022480791 0.012417874 0.0014791051
0.03728316 0.10043737 0.0755519 0.057740662 -0.06278113 -0.09120909 -0.1506792 -0.106649674
0.102535054 0.10780658 -0.51785 0.36181635 -0.11917547 -0.04755054 0.13978902 -0.3119525
0.49190164 -0.10488388 -0.03198562 0.04259745 0.010217842 0.3012984 -0.10468952 -0.04751064
0.018579511 -0.1828133 0.22373165 -0.09292499 -0.13219927 -0.029268768 -0.1625835 0.057557963
-0.019826898 -0.049485866 -0.07358425 0.04629949 -0.04649427 0.001069896 0.013374316 -0.03200765
0.03684674 -0.077654175 0.045407128 -0.010364484 -0.10812746 -0.017476061 -0.040747948 0.0020429287
0.035550356 -0.009088787 0.044675775 -0.03873685 0.10356215 0.1178751 -0.005668205 -0.026392514
-0.031079099 -0.007276654 0.054321848 0.056594137 -0.061988838 -0.024917925 0.01797154 -0.07651224
00000000: 6534 13bc b1b1 113d 8a91 c9bd e4fe 86bd
00000010: 39eb 313d 5517 513d 3865 84bd 6fff 61bd
00000020: 9b8d 64bd 632d 9e3c c84a a73c 5dcc d43b
00000030: 82fd 6e3d 5f5c b13d 992e 0f3e ef30 c0bd
00000040: 784e 23be 943a a6bd 2d6d c0bd ba1f aabd
00000050: 68dd c03d c4b0 ba3d 5cf3 0e3c 80ce 91bc
00000060: 6547 b1bd 564b 9bbc c059 c93c a347 2f3d
00000070: 130a 60bc f810 8cbd d2ca 2fbd 9de0 30bc
00000080: c84c ce3c b05c 6fbc e7e3 0bbb d610 293c
00000090: 0419 e3bc f806 e13d 240a 753d 9eaf 833d
000000a0: ca6d 05be c823 16be 368a a4bd ead4 ffbc
000000b0: bb6f 88bd 97bd 193e 3efe 013e 2e7c db3c
000000c0: 7e7f 2f3d 9530 7f3d 26ff 05bb d2ec a63d
000000d0: 4b50 17be f567 65bd cddf 7e3d da33 a73d
000000e0: 19e9 87bd cc22 aabc 4300 9d3a e35f bcbd
000000f0: 5ae5 7abd af84 fc3d 5cb1 0e3d 6798 d83d
00000100: 246c 94bd 1931 9fbc 1833 713d fa13 52bd
00000110: ff53 13bc eabb f83c 8296 79bd 5777 9fbb
00000120: 37a9 883d 2ddf f73c 396b 213e 11f0 9b3d
00000130: 6010 bc3d 1c6d 4fbe bed2 443e 2a97 58bd
00000140: 6780 453d 3220 b63d cafa 54bd 9fb9 f83d
00000150: d091 a33c 5c79 833b 1641 aa3d 55f2 c33c
00000160: bf65 003e 5053 a93d 79f3 31be 865c 96bc
00000170: d8ed 09be 3e77 8a3d b357 2cbd df6b 103e
00000180: 6d99 c33c 1d25 49bd fee8 6bbd 28a3 60be
00000190: c497 0ebd ec64 053e 4dca 6abd 0e83 373d
000001a0: aa25 33bd 2763 0bbe 8065 153e 33af 80bb
000001b0: d5ed 00bc 6e7a aabd 2548 c1bd 594c 823d
000001c0: b0f1 e7bd e021 a7bd c63c e03c f176 3dbd
000001d0: d58e 0a3d 7499 e6bc 18b0 453b 7ea0 253b
000001e0: 95ba d6bc 4133 bc3c db49 76bd f701 803d
000001f0: 9482 1c3d cac2 553e 4c6c e13b d89d 8b3d
00000200: 3b51 743c f963 c03c f017 363b abcb 03bc
00000210: 7e81 34be 538f 5dbe 5a9d 96bd a8dd df3d
00000220: c883 34bd 5eaa 0a3e 6329 bbbb f477 043d
00000230: 2bc8 e33d 6d1e 2e3d dd3d 1fbd ec68 0b3d
00000240: 814f 17bd abf0 f2bc c41b b9bd f19a 70bc
00000250: 9391 91bc c361 e63c 459b 14be af08 5fbd
00000260: b93f b9bd a94c 39be 99c5 9abd abd5 623d
00000270: d439 a03d 4bff 493d 6baf 293c 0e05 59bd
00000280: 096f f0bd bac0 e2bd 548a 3ebe fa0f 2bbe
00000290: 61e5 7cbe 4752 e13d 7606 8d3e 0e19 9c3e
000002a0: 385d 993e 8927 873e 9908 c63d 86cc bf3c
000002b0: 5b92 92bd dccb 1abd 550b 0ebd ee50 563d
000002c0: 540b 773e 09f6 3e3c bf31 733d 760b 473c
000002d0: 5f24 aebd 4888 86bb 03ab 833b 65b8 50bd
000002e0: 02e8 1ebe 1852 c2bc dc12 773d c88b 41bd
000002f0: cd9a 033d a329 b83c 5774 4b3c 88de c13a
00000300: 3ab6 183d 1cb2 cd3d f4ba 9a3d 7981 6c3d
00000310: 6593 80bd d5cb babd a64b 1abe 256b dabd
00000320: e6fd d13d b2c9 dc3d d191 04bf fe3f b93e
00000330: 4512 f4bd 5bc4 42bd da24 0f3e 3db8 9fbe
00000340: 88da fb3e 5ccd d6bd 5a03 03bd aa7a 2e3d
00000350: bc68 273c c943 9a3e 7667 d6bd 849a 42bd
00000360: 0f34 983c 6933 3bbe e919 653e 754f bebd
00000370: 3f5f 07be 0ec5 efbc 4a7c 26be e6c1 6b3d
00000380: 056c a2bc b1b1 4abd 57b3 96bd 89a4 3d3d
00000390: c770 3ebd c13b 8c3a f21f 5b3c 741a 03bd
000003a0: 9bec 163d 2709 9fbd d3fc 393d cccf 29bc
000003b0: ee71 ddbd f529 8fbc 52e7 26bd a8e2 053b
000003c0: 409d 113d 23e9 14bc f2fd 363d 88aa 1ebd
000003d0: 6418 d43d 8068 f13d 5abc b9bb 1d35 d8bc
000003e0: 9899 febc ff70 eebb 9680 5e3d 41cf 673d
000003f0: 02e8 7dbd ad20 ccbc 0d39 933c 73b2 9cbd

bias f4 [32]
-1.1804824 -0.8957815 -0.38411206 -0.7531227 -0.74357796 -0.5117608 -1.0828902 -0.27782914
-0.51603717 -0.92589575 -0.7217329 -0.651662 -0.86604553 -0.7073032 -0.8199672 -0.8670623
-0.56219727 -0.7933118 -0.88530874 -1.1746166 -0.5859168 -0.6620852 -0.52646005 -0.84340453
-0.88964754 -0.31690758 -0.6331064 -0.6970731 -0.19973318 -0.65946156 -0.5045442 -0.35120603
00000000: 0c1a 97bf f051 65bf 56aa c4be a6cc 40bf
00000010: 205b 3ebf c102 03bf 259c 8abf 9f3f 8ebe
00000020: 031b 04bf 8107 6dbf 7dc3 38bf 52d3 26bf
00000030: 29b5 5dbf d311 35bf 5fe9 51bf cbf7 5dbf
00000040: 29ec 0fbf 7b16 4bbf 98a3 62bf d659 96bf
00000050: a5fe 15bf 6a7e 29bf 16c6 06bf 5ce9 57bf
00000060: f1bf 63bf b641 a2be 4313 22bf 6273 32bf
00000070: db86 4cbe 79d2 28bf cf29 01bf 47d1 b3be

weight f4 [64, 32, 5, 5]
-0.08774451 -0.10664962 -0.059278574 -0.010063864 -0.1330545 0.15371077 0.049384892 0.08759739
0.1860174 0.10226582 -0.12781768 -0.051691342 0.14220561 0.11265617 -0.065945856 -0.12575132
-0.14127325 -0.00024667813 -0.12322882 0.007184382 0.035347115 0.116265334 0.11857273 -0.10552871
0.09977807 -0.20361522 0.046012796 0.17059284 0.21771145 0.050143808 0.010282252 0.0036875466
-0.0073762797 -0.084580295 -0.08765285 -0.0036205582 0.030236494 0.022397336 -0.034171335 -0.12678608
0.21366127 -0.03488163 -0.052039597 0.14587629 0.101249024 0.067738935 0.051602587 -0.05860924
0.050268915 0.103128225 -0.2587391 -0.034951698 0.004671369 0.10098476 0.0408239 -0.07167318
0.023352169 -0.10741988 0.04719121 0.10741713 0.0124363145 -0.005164335 -0.08943656 -0.13770397
0.039766528 0.06757096 0.0027399098 0.113080494 0.0014611976 -0.06345354 -0.0005611345 0.095445395
-0.014851136 0.05421115 0.027827019 0.10756111 0.09967759 -0.12871565 -0.11080798 0.019563587
0.12582953 0.014329023 0.0416606 0.07021786 -0.026736135 -0.11770436 0.05204946 -0.06954866
0.06675387 0.059735242 0.095461585 0.05050806 -0.14044665 -0.044035483 0.025371594 0.0775114
0.015113836 -0.033558153 -0.111511074 -0.01931446 0.05337168 0.1091771 0.0048355116 0.117059916
0.13837197 0.10435029 0.028394483 -0.014670819 -0.13985832 -0.1629329 0.002315148 0.011640669
0.028321395 -0.109685965 -0.032254793 0.053488933 0.13642594 0.037768655 0.07856993 0.041876756
0.012698052 0.05725743 -0.08999626 -0.019264847 -0.13789886 0.12138872 -0.030334298 -0.1433174
0.037329778 0.023277435 -0.020318342 0.03741529 0.17756784 0.016372219 0.035920348 -0.08694923
0.056277703 -0.05083735 0.0148278335 0.012980081 -0.09705611 0.061872505 0.011038953 -0.07409843
-0.036387514 0.0540427 0.09264955 0.022544233 0.09195824 -0.17930946 0.08648296 0.039676175
-0.0049722814 0.12701212 -0.10024622 0.016311845 0.09256572 0.05708801 0.026404236 0.08178773
-0.04613664 -0.0046568317 -0.21159014 -0.09146614 0.013187133 0.27006584 -0.043684706 -0.19297472
-0.034145165 -0.12079055 0.059462875 0.25330037 0.10098453 -0.021225978 0.20469457 0.07565953
0.044853788 -0.13399231 -0.18705161 -0.048491232 -0.023208179 0.14661124 -2.8111087e-06 -0.037652712
0.027600085 -0.13926268 0.04732484 0.06439599 0.06518615 0.014467128 0.021033013 0.025798574
0.010847037 -0.049106747 0.03820461 0.09911093 -0.0072521945 0.026738718 -0.170006 -0.070893295
0.2604609 0.06831529 -0.0891145 -0.106636494 -0.08724723 -0.11496982 -0.08567397 0.104943916
0.16876155 0.1596925 -0.12686828 -0.059511725 0.04374874 0.0261565 0.22391346 -0.14778581
-0.115361996 -0.07568482 -0.12626408 0.0026915472 0.009997862 -0.099255785 -0.055011872 0.012560465
0.04918654 0.028578581 0.10648625 0.17081442 -0.029257268 -0.25134638 -0.036422744 -0.09685844
0.10874951 0.073515706 -0.33197019 0.0064892997 -0.0150808515 0.120517835 0.003660847 -0.12531078
0.08410643 -0.1349677 -0.00031483744 0.06991108 -0.13513237 0.050034072 0.05685341 0.041038197
0.03375879 -0.018781282 -0.0782317 0.07778314 0.12438334 -0.0105503565 0.09574196 0.14375447
00000000: 65b3 b3bd 1e6b dabd 17ce 72bd e8e2 24bc
00000010: 703f 08be 5b66 1d3e d047 4a3d 4366 b33d
00000020: 587b 3e3e be70 d13d a3e2 02be 4dba 53bd
00000030: 599e 113e 47b8 e63d 9f0e 87bd f4c4 00be
00000040: efa9 10be 9454 81b9 645f fcbd f76a eb3b
00000050: 23c8 103d 851c ee3d 42d6 f23d 701f d8bd
00000060: 7258 cc3d 8280 50be ea77 3c3d e4af 2e3e
00000070: c0ef 5e3e 9863 4d3d e476 283c c4aa 713b
00000080: b8b4 f1bb 6f38 adbd 5683 b3bd e346 6dbb
00000090: 86b2 f73c 9e7a b73c 3ef7 0bbd 36d4 01be
000000a0: 05ca 5a3e 0ae0 0ebd 7927 55bd 9860 153e
000000b0: a65b cf3d b6ba 8a3d 3c5d 533d 3e10 70bd
000000c0: c7e6 4d3d e434 d33d 7479 84be 8329 0fbd
000000d0: 4912 993b 19d1 ce3d f636 273d 63c9 92bd
000000e0: 0c4d bf3c f4fe dbbd 924b 413d 83fd db3d
000000f0: afc1 4b3c 9539 a9bb 842a b7bd 4502 0dbe
00000100: 3ae2 223d a562 8a3d 0f90 333b bf96 e73d
00000110: a885 bf3a eef3 81bd 1919 13ba e078 c33d
00000120: 2e52 73bc 830c 5e3d 7df5 e33c 0049 dc3d
00000130: c423 cc3d 09ce 03be 4bef e2bd d143 a03c
00000140: 75d9 003e 47c4 6a3c 4ea4 2a3d 62ce 8f3d
00000150: bd05 dbbc fc0e f1bd d131 553d 876f 8ebd
00000160: 41b6 883d f1ac 743d 5d81 c33d 8ae1 4e3d
00000170: 3fd1 0fbe 8d5e 34bd 17d8 cf3c 4cbe 9e3d
00000180: 06a0 773c 4674 09bd eb5f e4bd 5c39 9ebc
00000190: 439c 5a3d 3e98 df3d 3673 9e3b 1cbd ef3d
000001a0: 62b1 0d3e 9bb5 d53d 8c9b e83c e05d 70bc
000001b0: 0537 0fbe e2d7 26be bdb9 173b 81b8 3e3c
000001c0: 4502 e83c 09a3 e0bd 9a1d 04bd 3617 5b3d
000001d0: 3eb3 0b3e 4eb3 1a3d 45e9 a03d f686 2b3d
000001e0: 7e0b 503c c486 6a3d f64f b8bd 50d1 9dbc
000001f0: 5c35 0dbe a69a f83d a27f f8bc ccc1 12be
00000200: 1ce7 183d 52b0 be3c a772 a6bc c640 193d
00000210: 58d4 353e 081f 863c 3721 133d 7012 b2bd
00000220: 7383 663d d33a 50bd 71f0 723c 68aa 543c
00000230: 5bc5 c6bd 066e 7d3d badc 343c ebc0 97bd
00000240: 130b 15bd e15b 5d3d 0cbf bd3d afae b83c
00000250: 9a54 bc3d e69c 37be fa1d b13d 7c83 223d
00000260: 85ee a2bb 770f 023e e44d cdbd 6ba0 853c
00000270: 1993 bd3d 1ed5 693d b24d d83c 5380 a73d
00000280: c6f9 3cbd 5698 98bb 16ab 58be 9952 bbbd
00000290: d80e 583c 1246 8a3e bcee 32bd 2a9b 45be
000002a0: cddb 0bbd 0961 f7bd 588f 733d 96b0 813e
000002b0: fad0 ce3d 1ae2 adbc 749b 513e 62f3 9a3d
000002c0: 9bb8 373d 4835 09be 758a 3fbe be9e 46bd
000002d0: 141f bebc 4221 163e 7ba6 3cb6 bb39 1abd
000002e0: 9319 e23c e09a 0ebe b1d7 413d 0be2 833d
000002f0: 5180 853d 8807 6d3c 6d4d ac3c 8857 d33c
00000300: c5b7 313c 2824 49bd 707c 1c3d acfa ca3d
00000310: d1a3 edbb 280b db3c 0e16 2ebe 8130 91bd
00000320: 225b 853e e3e8 8b3d aa81 b6bd 3c64 dabd
00000330: adae b2bd 4c75 ebbd d675 afbd d6ec d63d
00000340: d4cf 2c3e 6e86 233e c2e9 01be 91c2 73bd
00000350: e131 333d 2846 d63c 9249 653e 2a55 17be
00000360: e942 ecbd a500 9bbd 5f4b 01be ab64 303b
00000370: 13ce 233c 9e46 cbbd 2154 61bd 69ca 4d3c
00000380: d377 493d a11d ea3c 7715 da3d fae9 2e3e
00000390: f0ac efbc 79b0 80be 0430 15bd b85d c6bd
000003a0: 10b8 de3d 678f 963d fff7 a9be 31a4 d43b
000003b0: ad15 77bc 0ed2 f63d d2ea 6f3b 7851 00be
000003c0: fe3f ac3d f934 0abe c410 a5b9 8a2d 8f3d
000003d0: 2460 0abe 87f0 4c3d 1fdf 683d ab17 283d
000003e0: a846 0a3d 34db 99bc f137 a0bd c44c 9f3d
000003f0: b1bc fe3d 67db 2cbc 5c14 c43d 5f34 133e

bias f4 [64]
-0.61329794 -0.50604993 -0.20227776 -0.6067488 -0.42090032 -0.6576104 -0.75709105 -0.4724562
-0.4614078 -0.74030584 -1.1480856 -0.21037386 -0.85503614 -0.058631238 -0.59691393 -0.7006242
-0.4738853 -0.18623468 -0.63085324 -0.7458853 -0.44821164 -0.61761624 -0.9705976 -0.20367172
-0.3662552 -0.73947465 -0.43402317 -0.16011934 -0.06801545 -0.65164304 -0.9376837 -0.96118855
-0.93075603 -0.48526338 -0.23759091 -0.35186285 -0.1978782 -0.06195796 -0.6633792 -0.6767582
-0.7723482 -0.4588936 -0.17531635 -0.5318878 -0.7876055 -0.7877575 -0.9459939 -0.72674704
-0.80512995 -0.8197528 -0.32216722 -0.3686061 -0.5787653 -0.41617176 -0.39988065 -0.42457145
-0.113862574 -0.2723608 -0.68256545 -0.7210143 -0.6560666 -0.36930215 0.027901191 -0.15536991
00000000: 1801 1dbf 7d8c 01bf e721 4fbe e453 1bbf
00000010: 3f80 d7be 2859 28bf b8d0 41bf c7e5 f1be
00000020: a53d ecbe af84 3dbf 78f4 92bf 3f6c 57be
00000030: a6e3 5abf 4f27 70bd 5acf 18bf 1c5c 33bf
00000040: 18a1 f2be 4eb4 3ebe 997f 21bf 57f2 3ebf
00000050: ff7b e5be 191c 1ebf 1679 78bf 528f 50be
00000060: cd85 bbbe 364e 3dbf 4938 debe 53f6 23be
00000070: af4b 8bbd 14d2 26bf 0a0c 70bf 7410 76bf
00000080: 0746 6ebf 7174 f8be 084b 73be 5e27 b4be
00000090: 95a0 4abe a1c7 7dbd 38d3 29bf 0740 2dbf
000000a0: 9db8 45bf 1af4 eabe 2186 33be cd29 08bf
000000b0: 84a0 49bf 7aaa 49bf a82c 72bf 180c 3abf
000000c0: ff1c 4ebf 52db 51bf 1af3 a4be f0b9 bcbe
000000d0: f629 14bf 7714 d5be 28bd ccbe 6e61 d9be
000000e0: c830 e9bd e072 8bbe 9cbc 2ebf 6594 38bf
000000f0: fbf3 27bf 2c15 bdbe 0a91 e43c 4a19 1fbe

weight f4 [64, 64]
0.030780409 -0.002349892 -0.015277434 -0.0367549 -0.007893119 0.1256173 -0.061057564 -0.040398758
-0.041872106 0.07037737 0.003551323 0.029781356 0.0345991 -0.06498073 0.06819093 -0.06304366
-0.12887649 -0.029989589 -0.11603197 -0.020128032 0.009966029 -0.043009747 -0.012682719 -0.07127171
0.059203457 -0.053899366 -0.047788832 0.01971192 0.024202358 -0.0073234364 0.018430064 0.03643655
-0.03283051 -0.039223034 -0.015280667 0.02439458 0.09813979 0.039080065 0.007067714 -0.08532597
-0.01716071 0.023626283 0.008549449 -0.05207046 -0.0036494136 -0.005521305 -0.007612414 0.026899217
0.0001578649 0.033157464 0.02361036 -0.04244622 0.050967313 0.045725826 0.01606547 -0.06560705
0.019846585 -0.038094994 -0.007997846 0.0648993 0.0568908 -0.04430617 0.070050895 -0.021654325
-0.015496284 0.035239067 0.003760496 0.00484886 0.044338748 -0.008040393 -0.023861956 -0.017043797
-0.015981957 -0.002023922 -0.039846577 -0.030986777 -0.008630265 0.046111032 -0.022844305 0.0050678826
0.06584754 0.012588792 -0.022086004 0.05423884 0.06395139 0.023823919 -0.0033998901 -0.035536297
-0.02548804 0.05780527 0.013314325 -0.040532254 -0.017974937 -0.017570203 0.01601855 0.04886814
0.024373317 0.03935026 -0.01550059 0.0022119377 0.03750682 0.001004463 -0.058608137 -0.0034473427
-0.071446404 0.038285483 -0.030922811 0.03754804 0.016688976 -0.07138894 0.011399776 0.011745588
0.058884423 0.043623034 -0.05004769 -0.047913592 -0.04152941 0.025847437 -0.01874789 0.020237852
0.023936316 -0.023265634 0.03755332 0.021071209 -0.049638327 0.021987338 -0.0057265842 -0.009861901
0.0663133 -0.008013191 -0.045341372 0.07977426 0.018403977 0.016474899 0.017592942 0.014388505
0.09155425 0.011634412 0.13902223 -0.020617517 0.117400974 -0.113823965 0.117309004 -0.0337394
-0.044611417 -0.10007569 -0.009723822 -0.16161306 -0.0061538075 -0.038638555 0.006414723 -0.07041698
0.050188158 -0.08459368 -0.049512316 0.01094406 -0.012452664 0.03228636 -0.06318922 -0.1232157
0.0015540055 -0.030934984 -0.03971144 0.06617309 -0.029404892 0.06445068 0.11930677 0.1521959
0.09593639 -0.028449273 -0.00061774784 0.043375846 -0.014400208 0.09869695 -0.026970433 0.027653953
0.004672674 -0.11345933 0.07644635 0.0601034 0.03397588 0.018022371 -0.05979696 -0.025390888
-0.032203145 -0.021910222 -0.053025108 0.02427289 0.036335737 -0.034195594 0.0054332297 0.028992357
-0.03902098 -0.015211167 -0.014536258 0.00280613 -0.016101703 0.04129835 -0.019126639 -0.005604026
0.0045337 -0.0029763582 0.015140441 -0.015396794 -0.005251573 0.01699626 0.038903393 -0.03478356
-0.07802859 0.013948801 -0.006090462 -0.083448656 0.00637165 -0.05153183 -0.012647229 0.06162817
-0.0063440315 -0.039449494 -0.01097667 0.053488377 0.058388412 -0.03203903 0.00060774584 -0.055682216
-0.02740423 -0.024301277 0.019277792 -0.020143487 -0.0071038245 -0.014328634 -0.006244835 0.046566997
0.046879698 -0.043711245 0.05376993 -0.029889755 -0.08435361 -0.016293386 -0.06382667 -0.010404916
-0.051036052 -0.056318607 0.0014158098 -0.0057344083 0.08352739 0.03766036 -0.015086711 -0.018773513
-0.02553702 -0.006317188 -0.052404225 0.026406767 0.023741044 -0.08061686 0.036655735 0.022467658
00000000: 3227 fc3c a500 1abb 344e 7abc 4e8c 16bd
00000010: 2452 01bc d2a1 003e 7f17 7abd 2b79 25bd
00000020: 1682 2bbd 0322 903d 50bd 683b 08f8 f33c
00000030: c9b7 0d3d 9e14 85bd b0a7 8b3d 091d 81bd
00000040: 33f8 03be baac f5bc 2ba2 edbd 8be3 a4bc
00000050: 8e48 233c fd2a 30bd 2ecb 4fbc e7f6 91bd
00000060: 537f 723d 95c5 5cbd 39be 43bd e47a a13c
00000070: 0644 c63c 70f9 efbb a5fa 963c 7e3e 153d
00000080: 4979 06bd 55a8 20bd c35b 7abc 24d7 c73c
00000090: 84fd c83d 6b12 203d 4898 e73b 62bf aebd
000000a0: 9e94 8cbc e88b c13c fd12 0c3c d647 55bd
000000b0: 002b 6fbb 10ec b4bb 8f71 f9bb bf5b dc3c
000000c0: 8988 2539 1fd0 073d 846a c13c 16dc 2dbd
000000d0: 1ac3 503d 014b 3b3d bc9b 833c fd5c 86bd
000000e0: 4e95 a23c 7f09 1cbd 6609 03bc ede9 843d
000000f0: 5406 693d 637a 35bd d876 8f3d 6964 b1bc
00000100: 20e4 7dbc d756 103d a772 763b 30e3 9e3b
00000110: 8c9c 353d dabb 03bc 267a c3bc 6f9f 8bbc
00000120: 98ec 82bc c7a3 04bb 2a36 23bd fbd7 fdbc
00000130: f465 0dbc ecde 3c3d fb23 bbbc 7b10 a63b
00000140: 13db 863d 3841 4e3c b5ed b4bc 8c29 5e3d
00000150: f2f8 823d 612a c33c b1d0 5ebb 828e 11bd
00000160: 4bcc d0bc 38c5 6c3d 5424 5a3c 2605 26bd
00000170: 2d40 93bc 63ef 8fbc 5639 833c f529 483d
00000180: 8daa c73c bd2d 213d 30f6 7dbc 28f6 103b
00000190: c0a0 193d 2fa8 833a 160f 70bd d0ec 61bb
000001a0: 7e52 92bd 3dd1 1c3d d651 fdbc f9cb 193d
000001b0: 52b7 883c 5d34 92bd 20c6 3a3c 9170 403c
000001c0: cb30 713d 11ae 323d cefe 4cbd 0b41 44bd
000001d0: be1a 2abd 01be d33c 2d95 99bc dac9 a53c
000001e0: 1816 c43c 9297 bebc 83d1 193d 879d ac3c
000001f0: 8f51 4bbd ca1e b43c 12a6 bbbb d093 21bc
00000200: 44cf 873d c249 03bc e0b7 39bd b060 a33d
00000210: f0c3 963c 5ef6 863c 131f 903c c4bd 6b3c
00000220: cb80 bb3d 439e 3e3c d85b 0e3e 11e6 a8bc
00000230: ec6f f03d 8a1c e9bd b43f f03d 5332 0abd
00000240: 76ba 36bd 7cf4 ccbd aa50 1fbc e57d 25be
00000250: e1a5 c9bb 7643 1ebd 9932 d23b c736 90bd
00000260: 1992 4d3d 743f adbd 6dcd 4abd b74e 333c
00000270: 4206 4cbc b43e 043d 5a69 81bd 8358 fcbd
00000280: c6af cb3a 5d6b fdbc 77a8 22bd c285 873d
00000290: 87e2 f0bc b8fe 833d 1c57 f43d 3ed9 1b3e
000002a0: 4c7a c43d 730e e9bc 5bf0 21ba dfaa 313d
000002b0: daee 6bbc a021 ca3d 19f1 dcbc 8b8a e23c
000002c0: 3b1d 993b 5d5d e8bd e78f 9c3d fc2e 763d
000002d0: 4b2a 0b3d a7a3 933c a8ed 74bd 8d00 d0bc
000002e0: 72e7 03bd 117d b3bc db30 59bd f1d7 c63c
000002f0: c8d4 143d ae10 0cbd 3c09 b23b 6181 ed3c
00000300: 77d4 1fbd 4238 79bc 7c29 6ebc 0de7 373b
00000310: b8e7 83bc 7528 293d 78af 9cbc faa1 b7bb
00000320: 6f8f 943b 010f 43bb 9d0f 783c d642 7cbc
00000330: 6315 acbb be3b 8b3c 2a59 1f3d 3579 0ebd
00000340: 74cd 9fbd 8389 643c 8092 c7bb 21e7 aabd
00000350: 46c9 d03b 0a13 53bd 5336 4fbc d26d 7c3d
00000360: 98e1 cfbb cb95 21bd 7ed7 33bc a116 5b3d
00000370: b028 6f3d 5c3b 03bd 2251 1f3a 0913 64bd
00000380: d67e e0bc 7913 c7bc 76ec 9d3c f403 a5bc
00000390: 33c7 e8bb a6c2 6abc 79a1 ccbb 09bd 3e3d
000003a0: ed04 403d 900a 33bd dc3d 5c3d 5cdb f4bc
000003b0: 96c1 acbd b579 85bc 8fb7 82bd 6179 2abc
000003c0: 2e0b 51bd 57ae 66bd b292 b93a b4e7 bbbb
000003d0: 6910 ab3d c041 1a3d 412e 77bc e9ca 99bc
000003e0: 0333 d1bc 6a00 cfbb d0a5 56bd 0153 d83c
000003f0: 947c c23c 741a a5bd 5324 163d 180e b83c

bias f4 [64]
0.15930036 -0.032927185 -0.13918449 0.25332677 -0.15959409 -0.22502404 0.12763686 0.4096964
0.13673955 0.11315198 0.18733151 0.17365868 -0.02539108 -0.087074004 0.11436774 -0.08138506
-0.05900916 0.07408918 -0.023250893 -0.028748196 -0.07714223 0.23352516 -0.27218348 -0.010353086
0.18189357 0.0064946474 0.026504936 0.014188639 -0.21067555 0.12460615 0.15757827 0.044567555
-0.06441842 0.006790844 -0.043783236 0.121372834 0.02967334 0.054525644 -0.083457276 0.21110438
-0.10702141 -0.4359806 -0.016800337 -0.15877727 0.092878856 0.039412938 0.22874951 -0.26136976
0.0068179 -0.20140444 0.091674365 -0.024300653 0.08417119 0.14977859 -0.1927483 -0.17534034
-0.23316781 0.07306472 -0.044322368 0.0981472 0.028503267 0.0979452 0.14240801 0.088522606
00000000: a21f 233e a8de 06bd 6186 0ebe 0cb4 813e
00000010: a26c 23be b46c 66be 3db3 023e bac3 d13e
00000020: 7405 0c3e 3abc e73d d5d3 3f3e 95d3 313e
00000030: f400 d0bc db53 b2bd a239 ea3d 36ad a6bd
00000040: 97b3 71bd 11bc 973d a878 bebc 5681 ebbc
00000050: bffc 9dbd 3821 6f3e a25b 8bbe fd9f 29bc
00000060: 4f42 3a3e 0dd1 d43b e120 d93c 7777 683c
00000070: 55bb 57be 8231 ff3d 335c 213e 788c 363d
00000080: ceed 83bd ba85 de3b 0d56 33bd 5292 f83d
00000090: 8115 f33c 4856 5f3d a6eb aabd bf2b 583e
000000a0: 0a2e dbbd d938 dfbe dca0 89bc 8296 22be
000000b0: 4537 be3d 766f 213d 503d 6a3e 42d2 85be
000000c0: b168 df3b f73c 4ebe c5bf bb3d 2a12 c7bc
000000d0: f261 ac3d 8f5f 193e cf5f 45be 6b8c 33be
000000e0: 8bc3 6ebe f5a2 953d 5f8b 35bd 6601 c93d
000000f0: af7f e93c 7e97 c83d 68d3 113e 574b b53d

weight f4 [10, 64]
0.015968714 0.07153518 -0.042106744 -0.07272105 0.057620168 0.07385817 -0.005746333 -0.05984552
0.09102444 -0.016812643 0.03872904 0.026460627 -0.09750597 0.05590295 0.09624305 0.01662141
-0.0287512 0.03603683 -0.07357294 -0.020633033 -0.09135254 -0.024146616 -0.045455985 0.038346134
-0.055689875 -0.12469673 -0.040200286 -0.029045464 0.06620455 -0.11770996 -0.027305434 0.049139135
-0.043151584 -0.055312213 0.09228218 0.0213019 -0.061603017 -0.027885592 0.0071567534 -0.09491791
0.07177819 0.016420158 -0.0085652275 0.04256819 -0.054902893 -0.030899728 0.031452794 0.058701612
0.013449395 0.06562294 -0.086910024 -0.038377993 -0.06295593 -0.053460766 0.07105469 0.093851335
-0.041660033 0.03728159 0.00504619 0.02672801 -0.0040964987 -0.026214639 -0.047550704 0.03810105
0.077244565 -0.015174401 0.14094149 -0.08720812 0.034629095 0.051866807 -0.018888196 -0.1699604
-0.04427981 0.08103271 0.02499982 0.053474084 0.046023827 -0.064795464 -0.1122484 0.03949966
0.04877848 -0.11449497 0.026185615 0.0795134 -0.020559525 -0.16086993 -0.043529257 0.061151326
-0.080413595 0.013507174 -0.002313403 0.072116435 -0.14347543 0.03861535 -0.12601233 -0.012079959
0.039173968 -0.09895717 0.041921627 -0.03362282 0.07630597 0.09259478 -0.08459331 -0.16577269
0.1312405 0.20921509 -0.05992105 -0.14558083 0.048299894 0.06738791 -0.050613146 0.08058627
0.0022437652 0.13453324 -0.05026573 -0.08869091 -0.086103424 -0.056248322 0.03450197 0.16933878
-0.034827273 -0.121002965 0.021678625 -0.109568685 0.040742442 0.00588222 -0.00022446552 0.28492588
-0.14540692 0.027838446 -0.056241915 -0.07342341 -0.0010558525 -0.0035040327 -0.054579213 -0.027706776
0.006233567 -0.090433165 0.059732974 -0.10740284 -0.07825053 0.038016487 0.16345184 0.09714499
-0.013107819 0.08800009 -0.0017316221 -0.019677417 -0.06003342 0.064159274 0.068394095 0.0070238817
-0.05216198 -0.041049026 -0.06960686 -0.09123882 0.14971986 -0.09559899 0.09122484 0.10519703
0.046061985 -0.0064997533 0.008525893 0.09168267 -0.052266836 -0.06163489 0.009467827 -0.08866464
0.07309491 -0.08620418 0.0020939424 0.039180674 -0.13549307 -0.047983624 0.06313362 0.024456952
-0.025340432 0.077315465 -0.15089473 -0.020251805 -0.0068306853 -0.018571323 0.14528754 0.01262016
0.11181279 0.08450963 -0.041124657 0.09193223 -0.12717833 -0.042297058 -0.08516262 -0.047375865
-0.08349577 -0.020920988 -0.067184925 -0.034421824 0.0041600247 -0.032284398 0.03884788 -0.007823888
-0.06139942 -0.055387247 0.046846524 -0.03417275 0.031133277 0.0025651392 -0.054205973 0.04568125
-0.07364921 -0.056574207 0.061350733 -0.081164055 0.10464828 -0.00734486 0.09258032 -0.000118991644
-0.0466522 0.029205138 -0.03417981 -0.098780036 0.034756925 0.10740133 -0.022933733 -0.036752183
0.10346082 -0.012871015 0.029587984 -0.0068089934 -0.010511545 -0.017315978 0.0943227 -0.0031043582
-0.000727826 -0.004414439 0.04621116 -0.0077380305 -0.01942809 -0.008344535 -0.07685786 -0.123010345
-0.10127125 0.04517456 -0.028189836 0.04102285 0.030718183 -0.021052657 0.0034011703 -0.0883348
0.078856155 0.036381744 0.011892052 0.048360284 -0.0081386715 0.057386518 -0.03410413 -0.048434597
00000000: d2d0 823c 0981 923d 1f78 2cbd c6ee 94bd
00000010: 2003 6c3d f442 973d bc4b bcbb 9320 75bd
00000020: 066b ba3d abba 89bc 58a2 1e3d f5c3 d83c
00000030: 36b1 c7bd 7efa 643d 141b c53d a029 883c
00000040: a387 ebbc 5b9b 133d 69ad 96bd 9b06 a9bc
00000050: 0a17 bbbd 20cf c5bc 0e30 3abd d610 1d3d
00000060: 111b 64bd 0061 ffbd 0ea9 24bd c1f0 edbc
00000070: 4096 873d eb11 f1bd a5af dfbc 1e46 493d
00000080: b7bf 30bd 0f8f 62bd 71fe bc3d 5281 ae3c
00000090: 7253 7cbd 5370 e4bc 3383 ea3b 5264 c2bd
000000a0: 7200 933d 9183 863c 2b55 0cbc fb5b 2e3d
000000b0: dbe1 60bd 6d21 fdbc a5d4 003d 1a71 703d
000000c0: da5a 5c3c 5265 863d e2fd b1bd 3e32 1dbd
000000d0: 0aef 80bd adf9 5abd 1f85 913d 2135 c03d
000000e0: b6a3 2abd 95b4 183d 835a a53b b3f4 da3c
000000f0: ec3b 86bb 15c0 d6bc 87c4 42bd d90f 1c3d
00000100: 6632 9e3d 0d9e 78bc f752 103e 2c9a b2bd
00000110: 3dd7 0d3d 4a72 543d 6bbb 9abc 190a 2ebe
00000120: bf5e 35bd 7af4 a53d 6ccc cc3c a407 5b3d
00000130: 7b83 3c3d 7cb3 84bd 7de2 e5bd 65ca 213d
00000140: f2cb 473d 577c eabd 3783 d63c ecd7 a23d
00000150: 736c a8bc 16bb 24be bc4b 32bd d079 7a3d
00000160: e2af a4bd 324d 5d3c 769c 17bb c8b1 933d
00000170: 39eb 12be 212b 1e3d 6009 01be 05eb 45bc
00000180: e274 203d 0faa cabd 03b6 2b3d 15b8 09bd
00000190: 4e46 9c3d 55a2 bd3d 423f adbd 51c0 29be
000001a0: e963 063e 7b3c 563e c66f 75bd 2413 15be
000001b0: 1cd6 453d ac02 8a3d bb4f 4fbd 6a0a a53d
000001c0: 220c 133b 15c3 093e 70e3 4dbd 94a3 b5bd
000001d0: fe56 b0bd a464 66bd f051 0d3d 2567 2d3e
000001e0: 0ba7 0ebd 67d0 f7bd 5f97 b13c 8c65 e0bd
000001f0: 8ce1 263d a3bf c03b 815e 6bb9 cee1 913e
00000200: 8de5 14be 740d e43c ec5d 66bd 035f 96bd
00000210: 8864 8aba eaa3 65bb 748e 5fbd 52f9 e2bc
00000220: f342 cc3b 0635 b9bd 90aa 743d 05f6 dbbd
00000230: d041 a0bd 2db7 1b3d eb5f 273e f4f3 c63d
00000240: 2dc2 56bc 6439 b43d 99f7 e2ba 8932 a1bc
00000250: 9ae5 75bd f065 833d 3412 8c3d 9728 e63b
00000260: cda7 55bd 0623 28bd 0b8e 8ebd 6bdb babd
00000270: 2a50 193e 67c9 c3bd 17d4 ba3d 8a71 d73d
00000280: 7eab 3c3d e2fb d4bb 30b0 0b3c 20c4 bb3d
00000290: c015 56bd de74 7cbd f21e 1b3c cf95 b5bd
000002a0: c9b2 953d d18b b0bd 863a 093b ea7b 203d
000002b0: b2be 0abe 7a8a 44bd 334c 813d f259 c83c
000002c0: bd96 cfbc 9257 9e3d 2684 1abe 1de7 a5bc
000002d0: f1d3 dfbb e322 98bc 42c6 143e cac4 4e3c
000002e0: 1bfe e43d 6313 ad3d 5472 28bd f746 bc3d
000002f0: 093b 02be ae3f 2dbd bd69 aebd 320d 42bd
00000300: d5ff aabd 7e62 abbc 4098 89bd e6fd 0cbd
00000310: d150 883b a53c 04bd f41e 1f3d c42f 00bc
00000320: f57d 7bbd bddd 62bd 24e2 3f3d baf8 0bbd
00000330: 370b ff3c e51b 283b 1507 5ebd 431c 3b3d
00000340: 66d5 96bd 5bba 67bd e84a 7b3d 5739 a6bd
00000350: d651 d63d 27ad f0bb c09a bd3d 278b f9b8
00000360: 6116 3fbd 9d3f ef3c 2100 0cbd 304d cabd
00000370: 475d 0e3d 3af5 db3d 86df bbbc 7589 16bd
00000380: 44e3 d33d f3e0 52bc 8062 f23c fa1d dfbb
00000390: 9e38 2cbc 3dda 8dbc 422c c13d 7d72 4bbb
000003a0: 93cb 3eba 00a7 90bb ea47 3d3d 4e8f fdbb
000003b0: a827 9fbc 84b7 08bc a767 9dbd d9ec fbbd
000003c0: 4d67 cfbd f608 393d 5fee e6bc 9307 283d
000003d0: b3a4 fb3c 9f76 acbc 2be6 5e3b e0e8 b4bd
000003e0: 567f a13d 0605 153d e2d6 423c 6f15 463d
000003f0: 1058 05bc 200e 6b3d c6b0 0bbd 5b63 46bd

bias f4 [10]
-0.091164306 -0.8072582 0.47586182 0.87871724 0.42195752 0.3033171 -0.10654156 -0.39376092
-0.56948686 -0.12686116
00000000: 5ab4 babd 79a8 4ebf 29a4 f33e 9df3 603f
00000010: d10a d83e 614c 9b3e 7632 dabd 089b c9be
00000020: e4c9 11bf e4e7 01be
