module_nn/module_1.pth (torch, 341767 bytes, 10 tensors)

weight f4 [32, 3, 5, 5]
000000 d4 69 be 3e 4f 14 9c 3d d7 57 31 3e 32 e3 a6 3d
       0.37190115 0.07621061 0.17318664 0.08148803
000010 1f 73 ed bc df 6e bf bc c7 47 33 3d 2c e5 56 3d
       -0.028985558 -0.023368297 0.043769624 0.05246465
000020 08 27 ae bd 5f fd 68 bd ee 68 9a bd 6f 43 96 3c
       -0.08503538 -0.05688226 -0.07539545 0.018342702
000030 6e 7a aa bd 21 41 f7 3c 31 c6 a0 3c a3 1b 37 be
       -0.08324133 0.030182423 0.019625755 -0.17881636
000040 c4 83 6d be 58 70 8c be 41 3c c3 bc 59 10 9c bd
       -0.23194796 -0.2742946 -0.023832442 -0.076203056
000050 ca be 32 be 8b 37 0c be a9 cf 5f bd 62 82 32 bc
       -0.17455593 -0.13693063 -0.0546414 -0.0108953435
000060 dc f9 00 be c8 a6 f2 bc 9e 50 03 be 55 7e 12 3d
       -0.12595314 -0.029620543 -0.12823722 0.03576501
000070 1a 25 69 bd a0 52 03 be a0 d2 e9 bd 73 2f 38 3c
       -0.05692015 -0.12824488 -0.11417127 0.0112417815
000080 8d e4 ed bc 65 ea c0 3d bd ad 4e 3d 61 1a 3b bb
       -0.029039646 0.09419707 0.05045866 -0.0028549659
000090 f7 4a 47 3e cc e2 b8 3a 9a a7 d9 3d fe 01 4b 3d
       0.1946219 0.0014105677 0.106276706 0.049562447
0000a0 2a 56 aa 3d ab e6 5a 3e 23 07 18 3e 41 72 d8 bb
       0.08317216 0.21377055 0.14846472 -0.006605417
0000b0 2b 73 4e 3d 46 85 5c be 42 6e b9 3d 2b 17 8c 3d
       0.0504028 -0.21535215 0.09054233 0.068403564
0000c0 90 bb 10 3e e0 4b a1 bd 48 48 8f bd 08 39 91 be
       0.1413405 -0.078758 -0.069962084 -0.28363824
0000d0 cf eb 7f be 9e ac 6c bd 41 e1 c5 bd 5f 75 58 3d
       -0.24992298 -0.057781808 -0.096621044 0.05284631
0000e0 20 ba 77 bd a9 55 22 bc 70 4b 44 3e 44 2c 54 3e
       -0.060480237 -0.009908118 0.19169402 0.20720011
0000f0 1f 3f 8a bd 28 1a 5a 3e c1 78 9e 3c 5b 2b 37 3d
       -0.06750321 0.2129904 0.01934469 0.04471908
000100 da 73 d6 3d 97 1a 2b 3e 2f 25 04 3e ab 59 c6 bd
       0.10471316 0.16709362 0.1290481 -0.096850716
000110 10 4d f3 bd c5 4e 3d 3d d5 59 a1 3c f5 fc 0b bd
       -0.11879933 0.0462177 0.019696156 -0.034176785
000120 be ca 32 3e 80 b2 a7 bc af bb fa bd 92 45 fb 3d
       0.17460153 -0.020470858 -0.12242829 0.12269129
000130 5b 82 14 3e dc 7a 39 3e d8 f1 ae 3e 0d 55 99 3d
       0.14502852 0.18113273 0.34168887 0.07486925
000140 03 6a 80 3c fa e0 f1 3d 3c 14 3b 3e 82 64 49 3e
       0.01567555 0.11810489 0.18269438 0.19667247
000150 01 84 b8 3c 97 2f 61 3d 26 ba 8b bd fb a3 0c 3e
       0.022523882 0.054977026 -0.06822614 0.13734429
000160 04 c5 94 3d 64 40 69 bc f9 e0 48 3b c0 b3 d6 bd
       0.0726414 -0.014236543 0.0030651672 -0.10483503
000170 48 93 93 bd da e3 67 be 86 f8 9c be f6 89 3d be
       -0.07205826 -0.22645512 -0.30658358 -0.18509659
000180 11 18 76 bd b6 c9 7f 3c 0f b3 b5 3d 03 1b e7 bc
       -0.060081545 0.0156120565 0.08872043 -0.028211122
000190 b4 5b 04 3d 6c c5 52 bd a4 16 8b bd 34 f3 61 bd
       0.032314017 -0.051457807 -0.06791428 -0.055163577
0001a0 8d 01 3b be c8 90 bb bd 98 51 1e be 03 27 17 be
       -0.1826231 -0.09158474 -0.15460813 -0.14760976
0001b0 b9 8c e6 bd 02 52 75 be c9 c8 5b bd 64 4a b8 3c
       -0.112573095 -0.23957065 -0.05365828 0.02249641
0001c0 e6 73 19 3e 9c b9 21 3d be cb a1 bb c2 f6 ee bc
       0.14985618 0.03948365 -0.004937618 -0.029170398
0001d0 e0 a7 62 bd bb 29 cb bd 71 c9 ed bd 73 fb 6f be
       -0.05533588 -0.09920069 -0.116106875 -0.23435764
0001e0 8b 0f 0d be 80 b5 f2 bd 26 a0 b0 3d 1c 8e ec bd
       -0.1377546 -0.11851025 0.08624296 -0.11550543
0001f0 97 77 18 be 96 34 e2 3c ae 2f 5f bc 4b 42 c2 bd
       -0.1488937 0.027612966 -0.013622208 -0.09485301
000200 ff fa 06 be 47 3f a1 bb 92 bc 1d be bf 0e 62 bd
       -0.13181685 -0.0049208733 -0.15403965 -0.055189844
000210 d6 1b ed bd bd 64 04 be e7 b7 26 3e ff b1 b5 bd
       -0.11577575 -0.12929054 0.1628109 -0.08871841
000220 21 a5 dc 3d f2 ac b9 3d 59 b3 d1 3c 64 a8 a5 3e
       0.10773683 0.0906619 0.025598215 0.32355034
000230 21 1e f1 3c e4 ca 42 3e b4 ab 28 3d 85 86 31 3e
       0.029433312 0.19022709 0.041179374 0.17336471
000240 e0 c4 af 3e 1f c9 df 3d 60 55 50 3e f2 c2 a4 3d
       0.3432989 0.10927033 0.20345068 0.08044995
000250 91 df 8a 3e de 2d 7d 3e 7b 02 0b bc bc a0 68 3b
       0.27123693 0.24724528 -0.008484478 0.0035496196
000260 5c 7b 1e 3e a5 75 1c be 5e f9 31 be b0 25 fe 3d
       0.15476745 -0.15279253 -0.17380282 0.12409532
000270 9c ef 0b 3e 79 7a 59 bd 25 45 7c be 41 97 ce 3b
       0.13665622 -0.053095315 -0.24635752 0.006304652
000280 a8 93 aa 3e 5d 84 b0 3d ab 87 e3 be e9 37 d7 be
       0.33315778 0.08618996 -0.44439444 -0.42034844
000290 69 dc 63 3e 5c 9f 32 3e cd 44 fe be c5 ea 84 be
       0.22252049 0.17443603 -0.49661866 -0.25960365
0002a0 88 4c 6e 3e 99 3f 7c 3e f0 08 38 be ea 97 2c be
       0.23271382 0.24633636 -0.1797216 -0.16854826
0002b0 ab f6 b6 bd 9c 37 45 3e c2 bd a0 bb d5 78 06 3e
       -0.08933767 0.19259495 -0.0049054334 0.13132031
0002c0 cf 90 88 bc 7b 46 e5 3d fd ba 3f bd e0 45 c0 3d
       -0.016670613 0.11195084 -0.046809185 0.093883276
0002d0 b7 40 2d bc c8 a8 3f 3e cd b6 2a bc 05 e5 85 be
       -0.010574511 0.18716729 -0.01041956 -0.2615129
0002e0 61 13 98 3d 82 05 a8 3e 84 ad c3 bb b5 42 72 be
       0.07425571 0.32816702 -0.0059716124 -0.23658259
0002f0 23 0f 4c be 0b e0 ae 3e f8 02 f5 3d cb 97 c4 be
       -0.19927649 0.34155306 0.11963457 -0.3839706
000300 91 44 7a be c0 2a 13 3e a9 16 87 3e 6f 5a 5f bd
       -0.24440219 0.14371777 0.26384476 -0.054529604
000310 08 e8 8e 3d d3 fe 2a 3e 4d f3 2c 3e a1 d9 37 bc
       0.0697785 0.1669877 0.16889687 -0.01122132
000320 0d e9 70 bb 3a f6 48 bd d0 4e 9d 3e 4d a0 ed bd
       -0.0036760003 -0.049062945 0.30724192 -0.116028406
000330 ce d7 f1 bd b0 97 e3 bd fb 5f f9 3d 75 8c 91 3e
       -0.118087396 -0.111129165 0.1217651 0.28427473
000340 50 fc 63 be 09 d7 27 3e 52 a2 85 3d 8b 6e 1b 3d
       -0.22264218 0.16390623 0.06525101 0.03794722
000350 f6 f3 29 3d f5 f5 b3 be d7 1b f0 3c cd 71 66 3d
       0.041492425 -0.35148588 0.02931015 0.056260873
000360 36 60 81 be 74 0a 6b 3c cf 9c 57 bc 34 bd 14 bc
       -0.25268716 0.014345754 -0.013159945 -0.009078313
000370 93 3d 1b be 99 c5 6c bd 89 d6 46 3e 08 cf 6d 3d
       -0.15160207 -0.05780563 0.19417776 0.05805877
000380 74 cd 86 be 4a 33 61 be c2 20 81 bc 6b 26 0a 3e
       -0.26328623 -0.21992221 -0.01576269 0.13491218
000390 a5 ff b5 3e 1d b2 38 3e 22 84 65 be e6 db aa be
       0.35546604 0.18036695 -0.22413686 -0.33370894
0003a0 e5 57 09 be e3 84 98 3e 2c fd 17 3e 5b 9f 35 be
       -0.13412435 0.29788885 0.14842671 -0.1773657
0003b0 36 be 0f be 0d 89 bf be ec 93 8c 3e fe 0a 8d 3e
       -0.14037403 -0.3740925 0.27456605 0.2754745
0003c0 98 91 96 be 4d c1 0d 3e 14 39 64 be 9d aa 4d bd
       -0.29407954 0.1384327 -0.22287399 -0.050211538
0003d0 15 08 2c 3e a0 c2 c4 be de d1 98 3c 0e 58 72 bc
       0.16799958 -0.38429737 0.01865476 -0.014791502
0003e0 be af d1 bd dc 07 68 3d 61 9a 55 be cf db f2 bd
       -0.10238598 0.05664812 -0.20859672 -0.118583314
0003f0 8c 04 f5 bc 9a 02 e1 bd 53 85 1e bd cd ed f5 bd
       -0.029909395 -0.10986824 -0.038701367 -0.120082475

bias f4 [32]
000000 84 28 1e 3e 7a 2e 26 bc 62 ba ca 3d a6 ee 5a 3e
       0.15445143 -0.010142917 0.09898831 0.213801
000010 6a 3e 2f be 18 41 ab 3c e0 4e 9f bc 5a 70 be bd
       -0.17113653 0.020905063 -0.01944679 -0.09298773
000020 4c fa 49 bd 51 2f c2 bd 1c 5d a6 be df 5c 8a be
       -0.049310967 -0.09481681 -0.32492912 -0.2702398
000030 6d b3 81 3d 89 db 04 be 04 27 32 be 35 a5 2e bd
       0.06333051 -0.12974371 -0.17397696 -0.042638022
000040 d4 82 12 be 7a e9 2e be 76 16 ab bb f7 49 12 3d
       -0.1430772 -0.17081252 -0.0052211834 0.03571507
000050 6e 5d 7d bd ca 2c 84 bd 01 27 6b be 14 f4 e0 bd
       -0.06185668 -0.06453855 -0.22964098 -0.10984054
000060 29 3b 26 3e df c3 8e be 82 6d e4 be ec 6a 3a be
       0.16233505 -0.27883813 -0.44614798 -0.1820485
000070 0e fd 84 be fb 51 10 3e 07 d5 9c be 0e 25 ba be
       -0.25974315 0.14093773 -0.30631277 -0.36356395

weight f4 [32, 32, 5, 5]
000000 ef 04 5e 3c 54 21 83 bc d1 db 03 bd b7 f1 6c 3c
       0.013550981 -0.016007103 -0.032192055 0.014461926
000010 5e f2 b6 3d 30 df bc bc e2 76 86 bd 81 62 ea bc
       0.089329466 -0.023055643 -0.06565644 -0.028611423
000020 aa 80 35 bd a5 8e 20 bd 53 71 27 3d d9 0c 7f 3d
       -0.044312157 -0.039198536 0.04087956 0.06226811
000030 42 b2 9a 3d a8 a3 ca 3d 1b ff c7 3d 56 ff 8f bd
       0.07553531 0.09894496 0.097654544 -0.07031123
000040 9b 85 c6 bd 90 5d 2c bd 14 0a 91 bd ee 7e a4 bd
       -0.09693452 -0.042081416 -0.070820004 -0.080320224
000050 2e 80 88 3d 99 f3 2e 3d 37 98 39 3c 6d 96 16 bc
       0.06665073 0.04271278 0.011327795 -0.009191138
000060 62 21 ce bd 9a e7 aa bb 76 d0 86 3c 3e 48 a1 3d
       -0.10064961 -0.0052155973 0.016456824 0.07875107
000070 f2 e1 e1 3c b2 51 e9 bc be 4d db bc ba 10 51 bd
       0.02757356 -0.028481338 -0.026770469 -0.051041342
000080 7a 35 a1 3a 34 ee b4 bd c3 1b a5 bd 28 4a 1b 3d
       0.0012299262 -0.08834496 -0.08061936 0.037912518
000090 af 91 c1 bc f7 92 d3 3d db b4 5b 3d de 44 27 3d
       -0.023629038 0.10330766 0.053639274 0.04083716
0000a0 e0 61 94 bd 5e dd 09 be 0b b0 a2 bd 36 ee 9f bd
       -0.07245231 -0.13463351 -0.07943734 -0.07809107
0000b0 31 de 9f bd b8 8d f0 3d 51 bf d3 3d 53 e2 96 3d
       -0.078060515 0.11745781 0.10339225 0.07367387
0000c0 06 ce 98 3d 72 02 87 3d 48 97 92 bd ec bb 11 3e
       0.07461171 0.06592263 -0.07157761 0.14231843
0000d0 34 25 d1 bd 8e f2 d1 bd 35 cb 2b bd 5d 22 9f 3c
       -0.10212174 -0.10251342 -0.04194184 0.019425565
0000e0 ac 1b 60 3d 9a 7c 8b bb e9 82 0c bd 83 cb af bd
       0.05471389 -0.004256797 -0.034304533 -0.08583739
0000f0 b6 08 4a 3c cc 29 83 3d c2 0e 8d bc d8 c3 34 3d
       0.012331178 0.064044565 -0.017218951 0.044132084
000100 e1 c7 7d bd 28 23 cf bc 41 0d 3e 3d dc ec 36 bc
       -0.061958198 -0.025285318 0.04639936 -0.01116487
000110 4e 8d 9c 3d 5c 18 a9 bd cf 38 a5 bd 49 bf 93 bc
       0.07644139 -0.08256599 -0.08067476 -0.018035548
000120 72 a4 71 bd ca db 9b 3d c8 f2 f2 3d b0 14 1c 3c
       -0.058994718 0.07610281 0.11862713 0.009526417
000130 d5 a9 92 3d c0 d4 4c be 57 9b 05 3e 36 39 8a bd
       0.07161299 -0.20003033 0.13047539 -0.06749193
000140 80 e2 bc 3d 27 b3 0d 3e b7 83 21 bd e7 4a ac 3c
       0.09222889 0.13837872 -0.039432254 0.02103181
000150 44 fc 1a bd b9 16 bf 3c f6 55 c1 3d 8e 78 bf bc
       -0.037838235 0.023326265 0.09440224 -0.023372915
000160 d8 a6 73 3d 73 6c 17 3c e9 6a cc bd f4 fc cc bc
       0.059485286 0.009242165 -0.09981329 -0.025022961
000170 3e 62 be bd df 0d e8 ba 4a 5c a4 bc 4e 6f 2d 3e
       -0.09296082 -0.0017704329 -0.020063538 0.1693699
000180 8f 05 db 3c 4c 10 90 bc 22 ed 3a bd 6f 39 ae bd
       0.026736049 -0.017585896 -0.045636304 -0.08507048
000190 e5 d2 d4 bc 0b 17 db 3c 49 a6 14 bc 06 61 c6 3c
       -0.025979469 0.026744386 -0.009072849 0.024216186
0001a0 56 80 f4 bc c0 35 92 3b 06 4c 9a 3d 51 80 19 3d
       -0.029846352 0.004461974 0.075340316 0.037475888
0001b0 82 f2 b8 bc 6c a2 59 bd 3e e5 6a bd d4 d4 0a bd
       -0.022576574 -0.053133413 -0.05734753 -0.033894375
0001c0 8b 73 54 bd 6a 89 8a bd 62 e9 83 bd 8c 1b 36 bd
       -0.051868003 -0.06764491 -0.064409986 -0.044459864
0001d0 4b 85 bc 3c e8 dd 95 bb 09 74 f7 3c 17 a0 94 bc
       0.023012778 -0.0045735724 0.030206697 -0.018142743
0001e0 11 81 4f bc b2 4a e3 bc c8 da 13 bd 23 7c 4c 3d
       -0.012665049 -0.027745578 -0.036097318 0.049923074
0001f0 37 fc 4a 3b 6a ae 41 3e 78 5d 5d 3d 8f cf c6 3d
       0.0030973086 0.1891419 0.054044217 0.097075574
000200 25 bf 96 bc ec 90 90 3c 1f fc 46 bb 5e 47 17 bd
       -0.018401692 0.01764723 -0.0030362678 -0.036933295
000210 95 4e 80 bd 24 6a 1b be 70 17 a8 bd 83 9f b7 3d
       -0.06264988 -0.15177208 -0.08207595 0.08965971
000220 d4 f6 cd 3c 22 80 28 3e 85 7f cc 3c 2e ad 2d bc
       0.02514211 0.16455129 0.02496315 -0.010600371
000230 b0 dd 36 3d d6 61 ac bc 72 8d b5 bc 9f 80 5b bc
       0.04464501 -0.021042746 -0.022162173 -0.013397365
000240 93 34 ae bd 1b d3 ab bd e0 98 1f be 72 a3 ef bc
       -0.085061215 -0.083898745 -0.15585661 -0.029252741
000250 be aa 2f bd 90 64 59 3d 0b 1c 22 bd f2 5f 58 bd
       -0.04288744 0.05307442 -0.039577525 -0.052825876
000260 4b c6 4e 3d 62 e9 71 bd 81 e2 47 bc 82 2b 08 3d
       0.050482076 -0.05906046 -0.012199999 0.033244617
000270 bb 41 4f 3d 3f e3 d1 3d b1 f6 64 3d f7 c1 20 bd
       0.050599795 0.10248422 0.055899326 -0.03924748
000280 17 da cb bd c0 e7 d6 bd c8 60 f8 bd 8d b6 e1 bd
       -0.09953707 -0.104934216 -0.121278346 -0.11021147
000290 71 a2 29 be bc 68 91 3d f7 a8 16 3e 41 90 8d 3e
       -0.16565873 0.071000546 0.14712892 0.2764912
0002a0 4a be 81 3e b6 f4 26 3e e6 c2 19 bc ee e8 f1 bd
       0.25340492 0.16304287 -0.009384846 -0.11812006
0002b0 f7 3e 6a bd 97 87 9d bc 74 c9 81 bd 74 55 45 3d
       -0.057188954 -0.019229693 -0.06337252 0.048177198
0002c0 ad 6a 14 3e cd d0 05 bd 99 9e 61 3d d3 7c f0 3c
       0.14493819 -0.03266983 0.05508289 0.029356396
0002d0 6c 03 47 bd c4 5c 13 3d c9 6f 9f 3c 50 22 5a bd
       -0.048587248 0.03597714 0.019462483 -0.05325538
0002e0 99 58 a7 bd aa 36 d8 bc ff 11 a7 3d d0 51 3b bd
       -0.081711955 -0.026393253 0.08157729 -0.04573232
0002f0 32 eb 74 3c 94 40 e3 3c b2 a0 bb bc 7e aa 24 bc
       0.014948653 0.027740754 -0.022903774 -0.010050414
000300 01 ff d1 bc 67 0d ac 3d 52 e8 15 3d a4 9b e6 bc
       -0.02563429 0.08400994 0.03659851 -0.028150387
000310 23 7c 8c bd 76 16 a6 bd ed 0f 15 be 79 5a d8 bd
       -0.06859615 -0.08109753 -0.14556856 -0.10564131
000320 58 e6 30 bd 93 84 b6 3d dc c1 a5 be 12 f9 75 3e
       -0.043188423 0.08912005 -0.32374465 0.24020794
000330 9e 8c 28 be 56 ac 09 bd f4 19 e0 3d ef 10 45 be
       -0.16459891 -0.033611618 0.1094245 -0.19244741
000340 e9 fb d3 3e 12 34 cc bd 3d c9 cf bb 7a 87 96 3c
       0.4140313 -0.09970869 -0.006341128 0.018375147
000350 58 8f 0e bd 9e 6b 99 3e bd 3d 9e bd e9 c2 01 bd
       -0.034804672 0.29964918 -0.077266194 -0.03168002
000360 1f 15 ca 3c d8 2d 35 be 25 91 60 3e 09 b6 16 bc
       0.024668274 -0.17693269 0.21930368 -0.009198674
000370 4d ba 00 bd 4d 0b 29 bb 1b 03 1f be 8c 0b bf 3d
       -0.03142767 -0.002579409 -0.15528528 0.09328374
000380 de e8 5c 3d 2b 2d 67 bd 48 df 96 bd b4 44 bb 3c
       0.053933017 -0.05643956 -0.07366806 0.022859909
000390 9c 45 83 bd 37 91 08 3d 09 ab e9 bc 48 8b 6b bd
       -0.06409761 0.033341613 -0.028523939 -0.057505876
0003a0 6b b8 1a 3c 44 f6 b5 bd 6b 4c 58 3c 31 1c fb 3a
       0.009443383 -0.08884862 0.013201813 0.0019158182
0003b0 c0 0d 44 bd 42 d7 4d bc 01 61 e1 bc 88 ef 2b 3d
       -0.047864676 -0.0125635285 -0.027512075 0.04197648
0003c0 bf 52 3a 3c f6 0b ab bc af 3b 05 3d b4 01 9b bc
       0.011372267 -0.020879727 0.03252762 -0.01892171
0003d0 a4 bb e9 3d 12 97 95 3d ab 79 53 3c 20 1c 71 3c
       0.11412743 0.07304205 0.012907426 0.014716178
0003e0 ef b0 4f bc 20 29 d9 3c 74 e0 46 3d 83 a0 76 bb
       -0.012676462 0.026508868 0.0485539 -0.0037632294
0003f0 e1 4f 8e bb 83 ad e1 bc 6b 68 6b 3d dd 97 05 bc
       -0.0043430184 -0.027548557 0.057472628 -0.008153883

bias f4 [32]
000000 ce b1 83 bf 9a 26 57 bf 95 7f aa be e6 00 2f bf
       -1.0288637 -0.84043276 -0.33300462 -0.68360746
000010 33 f2 2d bf f6 cd ef be 98 16 8b bf 64 8e 42 be
       -0.6794769 -0.46836823 -1.086627 -0.1899963
000020 c7 2a dd be aa e8 49 bf 5f 43 25 bf 82 fd 04 bf
       -0.431967 -0.7887064 -0.64555925 -0.5194932
000030 21 ab 46 bf 18 0d 1d bf 94 a1 3f bf 3b e9 52 bf
       -0.7760487 -0.61348104 -0.74855924 -0.8238713
000040 98 80 e2 be cb dd 1b bf 5c 47 4d bf 24 b6 8d bf
       -0.44238734 -0.60885304 -0.8018701 -1.107121
000050 fc 7c f3 be 0a 29 0f bf 07 2a d5 be 02 2a 26 bf
       -0.47556293 -0.55921996 -0.41633627 -0.6490785
000060 db 62 44 bf 53 57 8d be ec f2 07 bf be 7f 18 bf
       -0.7671334 -0.27605686 -0.53105044 -0.5956992
000070 28 6d e7 bd 45 05 18 bf 45 35 d9 be 71 b4 93 be
       -0.11300117 -0.5938304 -0.42423454 -0.28848603

weight f4 [64, 32, 5, 5]
000000 01 b4 8a bb 73 8a a4 bd f1 0a dd bb 5f b4 28 3c
       -0.004232884 -0.080342196 -0.006745689 0.01029691
000010 d2 89 09 be e3 5e 23 3e 27 f4 88 3d 9f 18 e5 3d
       -0.1343148 0.15954165 0.06687193 0.11186337
000020 dc 75 ef 3d 17 75 55 3d c6 63 69 3c 02 39 1e 3d
       0.11692402 0.05211362 0.014244979 0.038628586
000030 e6 d2 2a 3e 02 22 27 3e 84 d2 0a 3c 3d 15 09 be
       0.16682014 0.16321567 0.008473042 -0.13387008
000040 6f 71 0c be 8b 6f f0 3b fc 68 b6 bd 99 01 b6 3c
       -0.13715146 0.0073375157 -0.08906743 0.022217559
000050 5c 47 58 bd 46 48 58 bd 2a a5 80 3d cf ed e8 bd
       -0.05280243 -0.0528033 0.062815025 -0.113734834
000060 d9 55 b9 bc ce 82 fd bc 95 ef c5 3d 9f 26 0a 3d
       -0.022623943 -0.030946162 0.09664837 0.03372824
000070 70 e1 14 3e fe 7d 71 3d bb 85 85 3b 38 25 b6 3d
       0.14539123 0.058958046 0.00407478 0.08893818
000080 ed 79 0a 3d 43 09 b9 bd 69 03 1a be 47 76 42 3d
       0.033807684 -0.0903497 -0.15040363 0.04747608
000090 38 c0 5b bc 3b 47 f7 bb 34 a0 c8 bc 49 86 cc bd
       -0.013412528 -0.007546333 -0.024490453 -0.0998655
0000a0 19 5b 36 3e f3 02 c0 bd 1a 0e a8 bd 1e c0 de 3d
       0.17808188 -0.093755625 -0.08205815 0.10876487
0000b0 d7 7f 30 3e 3e 1b c7 3c f4 42 b6 3d 44 13 ac bd
       0.17236267 0.024304982 0.08899489 -0.08402112
0000c0 6f 93 2a bb 00 7d 67 3d b1 d6 27 be 51 75 0f 3d
       -0.0026027819 0.056515694 -0.16390492 0.03502399
0000d0 f2 0c 73 3d 8b 6e ae 3d a6 8e 68 bd 7c e0 17 bd
       0.059338517 0.08517178 -0.056776665 -0.03707932
0000e0 fc 03 4d 3d 08 08 d4 bd 58 78 ca 3c 69 34 ba 3d
       0.050052628 -0.10353094 0.024715587 0.09092028
0000f0 fa 04 13 3e 47 07 29 3d d7 01 ca bd 33 2e c7 bd
       0.14357367 0.041266706 -0.09863632 -0.09725609
000100 06 e9 35 bd cd 96 b3 3d 22 f1 88 bb ba f9 9b 3d
       -0.04441168 0.08768997 -0.004179136 0.07615991
000110 75 ff 96 3c 95 6f 76 bd 1e 53 cf bc 15 4d a8 3a
       0.018432358 -0.060165007 -0.025308188 0.0012840355
000120 53 3a 8f bd 02 62 49 3d fc eb cf 3d 4c 3c 2d 3e
       -0.06993546 0.049165733 0.10152432 0.16917533
000130 da 2b e5 3c 54 3b 9a bd 1c ba b5 bd c6 0e 58 bc
       0.027975012 -0.07530847 -0.08873388 -0.013187116
000140 85 54 16 3e 68 2d 5d bc f1 56 a4 3d 93 0e be 3c
       0.14680679 -0.013499595 0.08024395 0.023200309
000150 e6 75 7b bd d5 84 e6 bb 6d 61 83 3d 38 7c 0a 3d
       -0.061391734 -0.007034878 0.06415067 0.03380987
000160 20 1b 17 3d 09 6c bb 3d b3 91 ae 3d 6a f7 61 3d
       0.036891103 0.091514654 0.08523884 0.055167593
000170 24 d2 80 bd 8d 5d 54 bd 51 17 2d 3b 60 e2 b0 bb
       -0.06290081 -0.05184703 0.0026411603 -0.0053980798
000180 e4 07 89 3b 57 7c 6a bd 4b 07 ec bd 68 22 da bd
       0.004181849 -0.057247486 -0.115248285 -0.10651094
000190 dd d6 b7 3d c2 2b 85 3d 92 81 94 bd 41 fa 4e 3d
       0.08976529 0.06502487 -0.07251276 0.05053163
0001a0 4e d3 37 3d 7f 67 fe 3d 5d 93 15 bd 63 ca 58 bd
       0.04487925 0.12422084 -0.03651749 -0.052927386
0001b0 0d d0 cb bd 47 db 6d bd 0b dd 1d bc 1a c9 9d 3b
       -0.09951792 -0.058070447 -0.00963522 0.004815233
0001c0 9e 33 6e bd e0 84 fc bd e8 be 31 bc 86 4c 24 bb
       -0.058154695 -0.123300314 -0.010848738 -0.0025070026
0001d0 ea 54 3e 3e 9e b8 a0 3d fd b1 d2 3d 55 ec da 3d
       0.1858708 0.07847713 0.10287855 0.10689608
0001e0 09 35 aa 3c c9 ba df 3c 2b ce 83 3b 2e db 71 bd
       0.020777242 0.027310746 0.00402238 -0.059046917
0001f0 e0 ff ce bd c2 44 b3 3d 05 0b 79 bd 27 d8 f3 bd
       -0.10107398 0.08753349 -0.060801525 -0.11906462
000200 04 3d ee 3b 36 64 a7 bc 4f d0 bf bd ef 79 36 3d
       0.007270457 -0.020433526 -0.093659036 0.04454988
000210 5e 60 c7 3c 1a f0 29 bd 9c 4c 5f 3d d3 46 91 bd
       0.024337944 -0.041488744 0.05451642 -0.07093587
000220 fc d3 93 3d 7e 75 48 bc 6a 3c f8 bc 6c 16 df 3c
       0.07218167 -0.012235044 -0.030302245 0.027232371
000230 65 f8 d7 bd 2d e4 58 3d 6d ff 40 3d 87 e3 d4 bc
       -0.10545424 0.05295198 0.047118593 -0.0259874
000240 90 70 45 3c d4 ed ca bc 23 5a ac 3d 4f a4 34 3d
       0.012050763 -0.024771608 0.0841563 0.04410201
000250 04 d8 a4 3d 44 78 1b be 1a 43 bf 3d 6c b7 17 3d
       0.08049014 -0.15182596 0.093389705 0.03704016
000260 b9 56 dd bc 2f d9 8b 3a 04 87 a3 bd b9 4b a5 3d
       -0.027018892 0.0010669584 -0.079847366 0.080710836
000270 3b f1 63 3d 22 43 d7 3d cb a6 06 3d a2 1b b9 3c
       0.055649977 0.105108514 0.03287391 0.022596184
000280 4c 4d ce 3c ff d6 49 bd cb 8b 35 be 90 b7 9b bc
       0.025183342 -0.049277302 -0.17729108 -0.019008428
000290 92 8d c9 3c 5b 0a 43 3e 65 e0 81 3d fd 45 52 be
       0.024603639 0.19046919 0.06341628 -0.20534511
0002a0 ef 6b 30 bd 91 97 8a bd 26 e9 12 3e ab 78 16 3e
       -0.043071683 -0.0676719 0.14346752 0.14694469
0002b0 c4 cb 57 3e a1 d5 bb bc e2 ca 21 3e 2e 0c 7d 3d
       0.21073824 -0.022929015 0.1580005 0.061779194
0002c0 2e 9f f9 ba 8b e2 1e be 26 78 48 be 12 53 af bd
       -0.0019044632 -0.15516107 -0.19577083 -0.08560766
0002d0 05 4c ad bc ca 70 2e 3e 56 6f 25 3d b8 c4 1b bd
       -0.021154413 0.17035213 0.04038938 -0.038029402
0002e0 40 74 69 bd 6b 48 d6 bd b7 c5 67 3d f0 69 a0 3d
       -0.05699563 -0.104630314 0.05658504 0.07832706
0002f0 db 25 b5 3c 71 85 ae bc 78 bf 42 3d da 78 1f 3d
       0.022112777 -0.021303864 0.04754588 0.038933612
000300 08 db cf 3d ec ff 31 bd e1 64 3e bd 7b 0a ed 3d
       0.10149199 -0.043456957 -0.046482924 0.115742646
000310 e1 25 09 bd 88 82 26 3e e6 15 8a bc df 93 da bd
       -0.03348339 0.16260731 -0.016856145 -0.106727354
000320 2a 4b 75 3e 76 3d e5 3c 82 52 1a bd 78 d5 3c be
       0.23954454 0.027983408 -0.03767634 -0.18440807
000330 d1 70 71 bd 9e da 9c bb c6 fe aa bd 1b 6b 91 3d
       -0.05894548 -0.0047868034 -0.083493754 0.07100507
000340 17 f0 ed 3d 49 9d 91 3d 03 4d e2 bd 29 a5 91 bd
       0.11618059 0.07110078 -0.11049845 -0.0711158
000350 d1 4d 09 3d 36 3c 91 3d 02 d5 32 3e 8b b5 a6 bd
       0.033521477 0.070915624 0.17464069 -0.08140095
000360 16 1d ee bd b9 89 a2 bd d1 e1 06 be 7e 83 85 bb
       -0.116266415 -0.07936425 -0.1317208 -0.004074513
000370 dd f4 0c bd 2f b6 06 bd 6b af d5 bb 16 a3 23 bd
       -0.034413207 -0.032888588 -0.0065211556 -0.039950453
000380 10 a9 82 3d d8 96 b4 3c 41 66 d0 3d 41 a4 16 3e
       0.06379902 0.022044584 0.101757534 0.14711095
000390 6c 29 90 bc 4a 43 38 be 24 73 b3 bd e1 2e 00 bd
       -0.017597876 -0.17994419 -0.08762196 -0.031294707
0003a0 8d 0f c4 3d b3 d6 db 3c d1 54 6f be 15 99 40 3d
       0.095732786 0.026835775 -0.23372199 0.04702099
0003b0 10 99 47 bc cb f9 bc 3d 20 21 80 3b 17 f4 16 be
       -0.012182489 0.09227332 0.003910199 -0.1474155
0003c0 ce 7e 48 3c 75 4f f0 bd d3 42 56 3c 56 38 8b 3d
       0.012237264 -0.11733905 0.013077456 0.067978546
0003d0 e9 1c e6 bc 07 ee ee 3c eb 1d 3d 3d ae 9c 34 3c
       -0.028089957 0.029166235 0.04617111 0.0110236835
0003e0 3a 0c 53 3d 20 91 95 bc a4 25 3d 3d 35 31 e9 3d
       0.051525332 -0.018257678 0.046178475 0.113863386
0003f0 c1 d6 02 3e be b5 80 bd fc f8 a6 3c 4f eb 29 3e
       0.12777235 -0.062846646 0.020382397 0.1659367

bias f4 [64]
000000 39 06 fc be a7 e4 d7 be c1 b0 48 be cc c6 d4 be
       -0.49223498 -0.42166635 -0.19598676 -0.4155792
000010 1f f6 aa be 61 49 ff be 60 5a 04 bf b8 24 a8 be
       -0.333909 -0.4986067 -0.517004 -0.32840514
000020 b1 29 d7 be 9f 27 1a bf 1a 0b 60 bf 0f 7b 10 be
       -0.42023996 -0.60216707 -0.8751694 -0.14109443
000030 5e 07 28 bf 78 f9 95 bd ce f8 c1 be 74 78 05 bf
       -0.6563624 -0.07322973 -0.37885135 -0.5213692
000040 f7 ee ba be 14 b8 ca bd 3d b8 03 bf 8b 63 17 bf
       -0.3651044 -0.09898391 -0.51453 -0.59136266
000050 56 82 8b be 4b 3a c1 be c0 76 48 bf de ce 41 be
       -0.27247876 -0.37739787 -0.783062 -0.1892657
000060 b5 71 8b be e3 1a 27 bf 24 01 ca be 6f bb 80 bd
       -0.2723519 -0.652754 -0.39453995 -0.0628575
000070 78 d0 18 bd 95 ca ed be 36 c4 52 bf fe ad 50 bf
       -0.037308186 -0.4644362 -0.82330644 -0.8151549
000080 da 27 31 bf 47 d0 a2 be da 93 3d be d9 15 7c be
       -0.69201434 -0.31799528 -0.18513432 -0.24617709
000090 d1 ae 1e be 4a ee 86 bd b2 35 e0 be 78 4f f6 be
       -0.15496375 -0.06588419 -0.43790966 -0.48107505
0000a0 cf 95 15 bf 5f 1b c8 be 8e d1 e0 bd 52 0d cf be
       -0.58431715 -0.39083382 -0.109774694 -0.4043985
0000b0 d2 08 0f bf 3e 69 14 bf a5 71 47 bf b1 1c 16 bf
       -0.55872834 -0.57973087 -0.7790778 -0.5863753
0000c0 e9 d2 13 bf 32 a6 16 bf f9 2d 54 be ad 7b 93 be
       -0.577437 -0.58847344 -0.20720662 -0.28805295
0000d0 06 f7 ca be 77 15 b9 be 53 69 98 be eb 1d b9 be
       -0.3964159 -0.3614919 -0.29767856 -0.36155638
0000e0 32 0b bb bd d6 eb 67 be 4f 8e 05 bf 0a e1 13 bf
       -0.09132995 -0.22648558 -0.5217027 -0.5776526
0000f0 e9 48 e1 be 9b 6d a6 be 21 d5 71 3c e1 30 ae bd
       -0.4400094 -0.32505497 0.014760287 -0.08505417

weight f4 [64, 64]
000000 fc 29 9f bb 9b f9 12 3c 9e f9 8b bd d1 88 89 bd
       -0.0048573 0.008970643 -0.0683472 -0.06715549
000010 d0 f7 13 bd 35 c2 ef 3d 91 b3 92 bd 03 62 fd bb
       -0.036125004 0.11706964 -0.07163156 -0.007732631
000020 15 62 6a bd 38 4a 57 bb c0 a6 f9 3b c5 7e b9 3c
       -0.057222445 -0.0032850634 0.007618755 0.022643456
000030 84 8e 3d bd c0 66 0e bc 38 53 03 3d 03 a6 45 bd
       -0.04627849 -0.00869149 0.032061785 -0.048254024
000040 5f 48 bc bd f0 66 a1 bd 71 e6 50 bd bb 91 0f bc
       -0.09193491 -0.07880962 -0.051001016 -0.008762772
000050 27 86 b9 3d 47 3b 9c bc 0b 45 4a 3d 36 08 93 bd
       0.09058791 -0.019071234 0.04938225 -0.071793005
000060 dd b9 3e bd 96 a4 cc bc 95 d3 e7 bc 6c c4 12 3c
       -0.04656397 -0.024980824 -0.028299132 0.008957963
000070 c1 3c e2 3c 8f 5f 5f bd 4a de 58 3d 3c fc 7c bc
       0.02761686 -0.05453449 0.052946366 -0.015440997
000080 45 5a 21 bc 8b 9b 36 bd ee 37 73 bc f9 e5 5f bc
       -0.009848182 -0.04458193 -0.014844878 -0.01366567
000090 49 c6 3b 3c 9d 24 46 bb 89 97 9b bc d7 5b 1d bc
       0.011460849 -0.0030234226 -0.018993156 -0.009604416
0000a0 fd ec 79 3d 5d aa 9e bc 0e ed f1 3c fc 08 19 bd
       0.061017025 -0.019368345 0.029531982 -0.037362084
0000b0 45 74 b8 bc 30 9c f7 bc 90 8a 31 bd 74 48 f8 bb
       -0.02251638 -0.030225843 -0.043345034 -0.0075769965
0000c0 40 40 b3 3c d5 fe 10 3d 0d 64 64 3d c9 90 80 bd
       0.021881223 0.035399277 0.05575948 -0.062776156
0000d0 08 b7 db 3d 54 72 b8 3d e8 d1 35 bc d7 7a 12 bc
       0.1072827 0.09006181 -0.011097409 -0.00894042
0000e0 be 13 a7 3d 80 a4 90 bd db 8a 29 bd e5 b4 a5 3d
       0.081580624 -0.07062626 -0.04139219 0.080911435
0000f0 b4 74 9b 3d 2c 52 87 bd 23 fb 61 3d b9 e3 63 ba
       0.07590619 -0.0660747 0.055171143 -0.0008693296
000100 20 07 e3 bb bf 14 70 bd aa 0f 0e 3c e7 84 04 3c
       -0.0069283396 -0.058613535 0.008670727 0.008088327
000110 a2 ec 36 3d 22 a4 55 bc fd a1 99 bc bf 23 2e bd
       0.044659264 -0.013039621 -0.018754 -0.04251456
000120 7e 5a 0c 3d 39 4e 70 3c 53 9b af bd f3 74 09 bd
       0.034265988 0.014667087 -0.085745476 -0.033558797
000130 74 d6 8e bc 3d cd b4 3d 7f 6d c1 bb a6 16 f9 bb
       -0.017436244 0.088282086 -0.0059029455 -0.007601577
000140 45 bb 26 3d cb 2b b1 3d 25 a3 00 3d 21 80 26 3d
       0.040705938 0.08650931 0.031405587 0.040649537
000150 d0 00 a1 bc 84 5b b2 3b e5 ec 59 bc 84 19 c9 3c
       -0.019653708 0.0054430384 -0.013301109 0.0245483
000160 a2 53 e7 39 f5 58 77 3d 3d b5 13 3d d5 55 3d bd
       0.00044122065 0.06038757 0.036061514 -0.046224434
000170 e9 76 cc bc 72 ab 88 bd 4f ca 08 3d 34 2f 3d 3d
       -0.024959045 -0.066733256 0.03339606 0.046187595
000180 c8 e6 d6 ba 1b ce e8 3c 7a 2b 25 bd 6e 11 c9 3a
       -0.0016395682 0.028418591 -0.040324666 0.0015340277
000190 c4 ac a5 bc 26 6e 21 bd 2e 26 98 bd 25 39 a0 3d
       -0.020223983 -0.039411686 -0.07429157 0.078233995
0001a0 77 9f 06 bd ce c1 83 bc b2 2c fb bc 7a 13 80 3b
       -0.03286692 -0.016083624 -0.03066096 0.003908572
0001b0 6a 34 e6 bc 0b a8 8a bd 33 99 b5 38 2d 46 5e 3d
       -0.028101165 -0.06770333 8.659288e-05 0.054266144
0001c0 fb 34 20 3d 30 b9 b5 3d 1f b2 e5 bb d8 6b 1d bd
       0.039113026 0.08873212 -0.007009759 -0.038432926
0001d0 ac b9 f3 3a 7a 18 78 3c 55 ec 92 bd 77 ab 2f 3c
       0.0018594763 0.015142554 -0.07173983 0.010722033
0001e0 7a a9 06 bd 6f 5c 3d 3c d6 7a 9d 3c 04 3f 9f 3c
       -0.03287647 0.011557682 0.019223612 0.019439228
0001f0 71 c7 18 bc a8 ea 8a bc 55 0e 40 bc ee b2 24 3c
       -0.009324894 -0.016957596 -0.011722167 0.010052426
000200 c3 74 00 3e 7a 44 9f 3d c8 09 2f bd e6 82 b4 3d
       0.12544541 0.07776733 -0.042733938 0.088140294
000210 e6 fd 77 bc 25 aa 8f 3d c1 11 10 bc 14 94 ae bc
       -0.015136218 0.07014874 -0.008793295 -0.021310844
000220 6a db cd 3b 6f 0d a4 3d c9 b4 08 3e e3 4e 7f 3c
       0.0062822597 0.08010375 0.13350214 0.015582773
000230 f9 45 ec bb bc 35 d0 bd da 10 8b 3d 7b 34 8a bb
       -0.00721049 -0.10166499 0.067903236 -0.004217682
000240 01 fb 72 bd e9 15 bc bd 17 c1 2b 3c 96 3c b7 bd
       -0.059321407 -0.091838665 0.010483048 -0.08947103
000250 f7 ff 3e 3d 9e c8 05 bb d3 a9 c0 3c 60 b1 7f bd
       0.046630826 -0.0020413767 0.023518478 -0.062425017
000260 cb 55 24 3d 14 97 c2 bd 7f df be 3a 52 2f 1c 3d
       0.04012088 -0.09501472 0.0014562457 0.038131066
000270 f3 c6 88 bc 64 c2 92 3d 7e ee bb bd 3b 53 6d bd
       -0.016696429 0.07165983 -0.09176348 -0.057940703
000280 c3 03 8f bd 67 43 50 bc 02 04 a0 bd ab 3f bf 3d
       -0.06983139 -0.0127113825 -0.078132644 0.093383156
000290 11 9a 25 3d 7f 11 98 bc cf 8c bc 3d 1c 60 d0 3d
       0.040430132 -0.01856303 0.092065446 0.101745814
0002a0 21 1c 8e 3d 1b 18 81 ba 0b e4 f9 3c 20 d5 9c bd
       0.06938959 -0.0009849103 0.030504247 -0.07657838
0002b0 83 22 a7 3c 0c 70 72 3d 3e 23 04 bd af c3 85 bd
       0.020402199 0.059188887 -0.032260172 -0.06531464
0002c0 f1 3e 8e bd 9f 30 bf bd 93 aa 63 3d dc c4 78 3d
       -0.06945599 -0.093354456 0.055582594 0.060734615
0002d0 94 c3 6b 3d a0 f6 85 bc d4 a6 50 3d 52 ba 18 bd
       0.057559565 -0.016352952 0.05094035 -0.037287064
0002e0 40 77 8a bc 4a 4f 78 bd 31 a7 89 bd fb 59 51 bc
       -0.016902566 -0.06062249 -0.06721342 -0.012777801
0002f0 da 84 ff 3d f7 a9 fb bb e8 c7 a5 3c d0 83 07 3c
       0.12476511 -0.0076801735 0.020236924 0.008271173
000300 c5 90 65 bd 0c 02 6b 3d a9 63 ba 3c 15 1b 00 bd
       -0.056046266 0.057375 0.0227526 -0.031275827
000310 c4 4d b6 bc 51 f0 1e 3c dc e3 a0 bc 4c ab c9 3c
       -0.022253878 0.009700851 -0.019639902 0.024617814
000320 d8 bd 72 bd d3 21 2a bc dc be a4 3c e4 09 ec 3b
       -0.05926308 -0.010384041 0.02011054 0.0072033275
000330 45 6b d5 3b f0 48 d6 bc 77 66 26 3c 6d f0 e6 bb
       0.0065130317 -0.026157826 0.010156265 -0.007047704
000340 8f d9 24 bd 87 b4 11 bd cc 86 18 bd 6a 5c 31 bd
       -0.040246543 -0.035572555 -0.037237927 -0.043301024
000350 b1 0b 89 3c 14 36 1d bd 70 37 f2 bc 92 6d 3d 3d
       0.016729208 -0.03838165 -0.02956745 0.046247073
000360 78 a5 8d 3c b4 b7 d2 bc c7 42 40 3b dd fa 4d 3d
       0.017290816 -0.025722362 0.0029336677 0.05028807
000370 b1 17 3b 3d 99 31 dc bc 14 23 12 bd 03 b5 29 bd
       0.04567689 -0.026879119 -0.035677984 -0.04143239
000380 d3 19 07 bd 96 fc 2c bd 68 ad 9d 3d 4f e9 35 bc
       -0.032983612 -0.042233072 0.0769909 -0.011102988
000390 d3 fc f0 bc 2e 24 cf 3c 9c 40 d8 bc 47 0d 36 bc
       -0.029417431 0.025285807 -0.026397996 -0.011111564
0003a0 1c f6 19 3c dc 40 32 bd 47 ed 10 3d 9f 04 09 bd
       0.009397056 -0.043518886 0.035382535 -0.033451673
0003b0 29 17 e1 bd 2d 5f 11 3d 65 1d 76 bd 45 43 3f bd
       -0.109907456 0.035491157 -0.060086627 -0.046695013
0003c0 07 96 82 bd a0 28 cc bd b3 8f c5 bc a5 66 23 3d
       -0.06376272 -0.09968686 -0.024116373 0.03989281
0003d0 15 ba 85 3d bf c4 45 bb b8 2d 50 3d 23 b1 f7 bc
       0.06529633 -0.0030177084 0.05082485 -0.030235833
0003e0 2f ee 08 3d 70 4c 07 3d ec 80 64 bd a6 3e 99 3c
       0.033430275 0.03303188 -0.055787012 0.01870663
0003f0 3b 52 75 ba 9f fd 92 bc d6 60 97 3c af d3 93 bc
       -0.00093582616 -0.017943202 0.018478792 -0.018045275

bias f4 [64]
000000 3d c9 4b 3e 33 88 0b bd 9d cc 28 bd 1d 94 80 3e
       0.19900985 -0.034065437 -0.04121076 0.25113
000010 e6 33 2f bd 80 e0 1a be 20 15 62 3d 96 a3 bd 3e
       -0.042774104 -0.15124702 0.055195928 0.3703887
000020 1a 15 44 3e 96 8b 0c 3e dd 28 53 3e 8c 08 6e 3e
       0.19148675 0.13725123 0.20621057 0.23245448
000030 b4 ee ad bc a4 b4 9d bd e0 bb 10 3e 4f 3f 14 be
       -0.021231987 -0.0770047 0.14134169 -0.14477275
000040 45 1a c8 bd 2d a9 ac 3d c0 a3 6c bc 8e 9d af bd
       -0.097706355 0.08430705 -0.014443338 -0.08574973
000050 08 e2 12 be d5 0f 77 3e c3 ce 97 be 07 85 91 3d
       -0.14344037 0.24127133 -0.29649934 0.07105451
000060 91 cb 18 3e 79 c5 d0 bd 62 84 47 3d 34 10 a1 3c
       0.14921404 -0.10193915 0.048710234 0.019661047
000070 13 24 82 be b2 84 65 3d 8c be 29 3e 2f 3d 8a 3d
       -0.25418147 0.05603475 0.16576594 0.06749951
000080 3c 66 ed bd e4 7f 94 3d e0 79 aa bd cd a8 3c 3e
       -0.11591765 0.07250956 -0.08324027 0.18423767
000090 6c ef 51 3c bc 56 de bc b6 3c 92 bd 9b ae 4d 3e
       0.01281343 -0.027140968 -0.07140486 0.20086138
0000a0 7a ce 48 bd a1 fb bf be 4a c3 c8 bc 4f fc 36 be
       -0.049025036 -0.37496665 -0.024507184 -0.17869686
0000b0 9a de c3 bc f1 d0 7e bd b9 f4 85 3e 0e 1a 61 be
       -0.023909856 -0.06221098 0.2616327 -0.21982595
0000c0 59 b5 98 bc 43 ea 4b be bd cc 78 3d d5 34 5a 3c
       -0.01864116 -0.19913583 0.06074213 0.01331826
0000d0 36 c2 e3 3d 7f fd ef 3d b8 d2 2b be d0 39 21 be
       0.11121027 0.117182724 -0.16779602 -0.1574471
0000e0 a0 04 39 be af 02 e7 3d 44 8d ae bc 52 3a 13 3e
       -0.1806817 0.11279809 -0.021307595 0.14377716
0000f0 f1 9b 41 bd 73 9f 14 3d 46 98 10 3e 24 69 5b 3d
       -0.047267858 0.036284875 0.14120588 0.053567067

weight f4 [10, 64]
000000 c5 d8 9d 3c 45 70 03 3e 95 eb cf bd 0f bd ff bd
       0.019268403 0.12835796 -0.101523556 -0.12487232
000010 22 91 af 3d 57 bc 59 3d b8 e5 cd 3c f8 f6 bd bd
       0.08572604 0.05315813 0.025133952 -0.09275621
000020 47 5f ad 3d d1 ac 26 3d 3b bc 12 3e bb 50 3b 3d
       0.08465438 0.040692154 0.14329617 0.045731287
000030 c7 88 b8 bd 1e cf 68 3d b7 4e 0a 39 8d 93 f3 3c
       -0.09010463 0.056838147 0.00013190029 0.029733444
000040 1e 28 c1 bd 83 fc 3e bc 2a 76 93 bd 65 bc fe 3c
       -0.0943148 -0.011656883 -0.072002724 0.031095693
000050 29 33 b1 bc d4 a1 a7 bb bd 2d 2b bd 3a ec 34 3d
       -0.02163084 -0.005115727 -0.041791666 0.044170596
000060 df 1a b5 bd 73 db 0e be 46 91 56 3d 4f 90 09 bd
       -0.08843016 -0.139509 0.052384637 -0.03358489
000070 fb 85 05 3d 9d 8f d0 bc 88 c9 b4 bd ff c9 d3 bc
       0.032598477 -0.025459105 -0.088275015 -0.025853155
000080 59 43 da 3c 2f 72 9e bd cd 3c cc 3d 8c 13 f5 bb
       0.026643442 -0.077366225 0.09972534 -0.007479137
000090 b9 79 1c bd f5 7b 00 bc 16 ba ec 3c 9b 53 c7 bd
       -0.03820202 -0.007842054 0.028897326 -0.09732743
0000a0 1f b7 9b 3d 80 d0 ae 3d ad 33 cf 3c 94 a6 4b bd
       0.07603287 0.08535862 0.025293196 -0.04971941
0000b0 45 e6 40 bd ab cb ec 3c 95 3a 45 bd 60 b5 89 3c
       -0.047094602 0.02890571 -0.04815157 0.01681012
0000c0 d6 72 a7 bc 76 af 9a 3d e4 1d 4b bd 91 19 44 bd
       -0.0204405 0.07552998 -0.049589053 -0.047875945
0000d0 aa ac d1 bd 61 e9 17 bd fd be 21 3d 2c 98 15 3e
       -0.10238011 -0.0370878 0.03948878 0.1460883
0000e0 1a 55 00 3c ee 4e 12 bc b3 d1 4b 3d c5 5f 84 3d
       0.00783279 -0.008929951 0.04976053 0.06463579
0000f0 4d 20 fe 3c 94 19 b3 bc 69 a4 86 bd b7 c5 d5 3d
       0.031021262 -0.021862783 -0.065743275 0.10438102
000100 6d 1a e1 bc 6f 7e 18 bd 17 df 06 3e 61 03 9b bd
       -0.027478421 -0.03722995 0.1317104 -0.07569004
000110 eb 93 d1 bc ec b1 ef bc 79 b2 15 be 3f 1e 0e be
       -0.025583228 -0.029259644 -0.14618863 -0.13878725
000120 4d 79 21 bd 1f 91 28 3c 35 c0 bd 3d 2c 97 c3 bd
       -0.039422322 0.010288506 0.09265176 -0.09550318
000130 05 bc 6e bd c9 4a 85 bd 21 11 b7 3d 33 55 c5 3d
       -0.05828478 -0.06508405 0.08938814 0.09635391
000140 18 59 9f 3d ad 8b 2a 3c 9d 6d 2f 3d 52 f8 1d 3e
       0.07780665 0.010409278 0.042829145 0.15426758
000150 59 f6 f4 bd 24 31 57 3c 9e 0e 00 3d 5e bb 82 3d
       -0.119610496 0.013134275 0.03126394 0.06383394
000160 78 6c c7 bd 26 37 6f 3b 8f 1d c6 bb 08 f8 23 bd
       -0.09737486 0.0036501377 -0.006046004 -0.040031463
000170 6b e1 23 bd b4 a1 79 bd 62 b8 a5 3d 87 32 5c 3e
       -0.040009897 -0.060945228 0.08091809 0.2150365
000180 7c c6 36 3c 88 d4 09 3d f2 82 af bd 7f 09 06 3e
       0.011155721 0.03364995 -0.08569898 0.1308956
000190 ad 2e ab 3d 00 88 f9 3c a4 fb e1 bd 3f ae 13 be
       0.08358512 0.030460358 -0.11034325 -0.14421938
0001a0 5e 89 07 3e fc 3e 69 bc a8 70 06 be 05 d8 fb bd
       0.13235995 -0.014236208 -0.13128912 -0.12297062
0001b0 92 fc 9c bd 11 3b d3 bc ca 30 ff 3d ac f3 ae 3d
       -0.076653615 -0.025785001 0.12460478 0.085425705
0001c0 63 04 19 3d 8c 2a 45 3e 4f 26 3a be 14 92 7a bd
       0.0373577 0.19254512 -0.18178676 -0.061174467
0001d0 a9 2b 80 3b b7 55 8b 3d 05 dc 1c 3e 5a f8 8c 3d
       0.0039114547 0.06803458 0.15318306 0.06883307
0001e0 50 46 7b 3d 85 51 98 3b 3c 66 c9 bd 27 db 26 bd
       0.061346352 0.0046483898 -0.09833953 -0.040736344
0001f0 20 35 73 be 89 f8 c0 bd cf d1 85 bd dd e2 2c 3e
       -0.23750734 -0.09422404 -0.065341584 0.16883416
000200 b1 15 27 bd 50 e5 48 3a fd ef b5 bd 46 69 ff bc
       -0.04079217 0.0007663565 -0.08883665 -0.031178128
000210 1f 0f 63 3d 71 81 9d 3b 4b b2 8d 3d 6d ad 37 3d
       0.055434342 0.0048066904 0.06918772 0.044843126
000220 54 b6 42 3b c3 b1 7b bd 79 db 08 bd 4a b5 83 bd
       0.0029710727 -0.061448824 -0.03341243 -0.064310625
000230 a9 51 dc bc 17 11 ea 3d f5 49 7e 3d 53 ab 5d bb
       -0.026894407 0.11429041 0.06208225 -0.003382404
000240 df bb 8c bd c4 37 8a 3d 97 c3 e5 bc e2 53 14 be
       -0.06871771 0.06748918 -0.028047366 -0.14485124
000250 65 cd 57 3d 16 5b 5b 3d 0f ca b6 3c 46 4c 15 bd
       0.052686114 0.053553663 0.022313146 -0.036449693
000260 75 53 89 bd 02 53 82 bd ca 62 ea bd 9c 42 a8 bc
       -0.06705371 -0.06363489 -0.11444624 -0.020539574
000270 83 40 01 3e 13 9c a8 bd f8 31 89 bc 9e 49 2b bc
       0.12622266 -0.08232894 -0.01674746 -0.010454563
000280 f5 74 9c 3d 4e ca 50 bd af 14 b2 3d e1 18 98 3c
       0.07639495 -0.050974183 0.08695351 0.01856655
000290 39 48 e7 bd 59 9a 7e bd 43 1f 1d 3d 45 84 06 bd
       -0.11293072 -0.062158916 0.03835989 -0.032840986
0002a0 a1 7e b5 3d 95 22 1c 3d 06 c2 a1 3d 2d 34 f6 3b
       0.08862043 0.038118917 0.07898335 0.007513544
0002b0 59 45 8a bd f8 3c 1f bc 4b 07 cf 3c 04 b6 fb 3b
       -0.06751508 -0.009719126 0.025272032 0.00768161
0002c0 83 bd e0 bd 21 d1 e9 bc b9 90 ed bc 44 f9 df 3b
       -0.109736465 -0.028542103 -0.028999673 0.0068351347
0002d0 bd cf 62 bc 92 c8 ba bd f3 55 e6 3d 3e bf 9c bc
       -0.013843474 -0.09120287 0.11246862 -0.01913416
0002e0 df 56 74 3d 9a a9 61 bc 49 51 4b 3d 6a 05 07 3e
       0.05965316 -0.013773346 0.049638066 0.13185659
0002f0 c8 3f 42 3d 20 d5 92 3d ef cc 50 bd cf 90 d5 bd
       0.047424108 0.071695566 -0.05097669 -0.10428011
000300 14 03 a0 bd d5 27 f1 bc c4 46 44 bb ce ba 3b bb
       -0.07813087 -0.029437939 -0.0029949406 -0.002864528
000310 ee a2 46 3b 7a bc 25 bd 72 13 fe 3c 11 d8 19 bd
       0.0030309516 -0.04046295 0.031015132 -0.037559573
000320 48 c8 75 bd 51 d6 56 bd 26 db 9d 3c b1 78 21 bd
       -0.060005456 -0.05245048 0.019269537 -0.03942174
000330 5b f7 0e 3d 5e 11 aa bc e0 30 52 bc f7 e2 ce 3c
       0.034903865 -0.020760234 -0.0128290355 0.02525471
000340 23 0d 20 bd ff 9d 60 bd 44 39 97 3d d6 70 8b bd
       -0.03907503 -0.054838177 0.073839694 -0.06808631
000350 09 b1 83 3d 6d 0e d4 bd 28 05 8b 3d d2 82 ce 3b
       0.06430251 -0.10354314 0.06788093 0.006302216
000360 2d 74 48 bd 0f e9 45 3d 07 bf 59 bd 71 15 70 bd
       -0.04893892 0.048317965 -0.053160693 -0.058614198
000370 e4 7b 02 3d 77 e1 98 3d b3 47 a5 3c 83 ae ec bc
       0.031856433 0.07464879 0.02017579 -0.028891807
000380 11 eb a7 3d 20 5f 17 bd ff 87 83 3d 14 01 68 bc
       0.08199132 -0.036955953 0.064224236 -0.014160413
000390 a7 db 59 bc ad 69 ea bc b5 f8 42 3d 5e 59 30 bc
       -0.013296998 -0.028614843 0.047600467 -0.010763494
0003a0 9f 18 d8 bc d4 32 0d 3c 06 38 95 bc 18 c6 15 3d
       -0.026378928 0.008618075 -0.01821519 0.03656587
0003b0 ba 8d ac 3c 9c 08 44 3c 85 b7 74 bd ba 14 b3 bd
       0.021063674 0.011964943 -0.05974533 -0.08744188
0003c0 57 5b 0a bd e1 34 99 3c 2e 1a 8e bd f3 80 94 3c
       -0.033778515 0.018701972 -0.06938587 0.018127894
0003d0 68 80 ab bc 47 07 1f bd ca 55 c2 bc f0 c6 6f bd
       -0.020935252 -0.0388253 -0.023722548 -0.05853933
0003e0 8a 5a b7 3d 9f 5e f1 3c a1 87 83 bc 7b 52 98 3c
       0.08952816 0.029464064 -0.016055884 0.018594017
0003f0 fb aa 27 bc f3 49 7b 3d 71 f2 84 3c 5d ce bf 3c
       -0.010233636 0.06134982 0.016228886 0.023413831

bias f4 [10]
000000 a8 e8 5d bc 47 b1 42 bf 28 58 da 3e 8a 73 4f 3f
       -0.013544239 -0.76051754 0.42645383 0.81035674
000010 03 48 d5 3e 0e 84 7e 3e 07 ff 04 be fc 2a 9c be
       0.41656503 0.24855062 -0.1298791 -0.30501544
000020 0a 73 0a bf d9 66 2b be
       -0.54081786 -0.16738452
