module_nn/module_3.pth (torch, 341767 bytes, 10 tensors)

weight f4 [32, 3, 5, 5]
00000000: 0d02 d33e 9f58 663d 9a8e 493e 6eef 7d3c
00000010: 0507 c2bc 63af 0dbd d9bb ad3d fab1 ff3c
00000020: d611 30be afd5 7ebd a769 e1bd 603a f33d
00000030: 4c2d f4bd 2631 eb3c a035 7d3d 2eaf 01be
00000040: e508 97be 97cf a3be b744 07bc f0c7 26bd
00000050: d0b3 93bd b860 4dbe 228b 12be c23e e8bb
00000060: 0df8 31be 088e 25bd b1bd 46be 1a99 423d
00000070: 5355 f0bd acef d1bd 7041 b7be c3da 8cbd
00000080: 210c 99bd 8243 ccbb 8b84 aa3b ef50 69be
00000090: e79d aa3e 3f68 843d 7866 223e 915b d23d
000000a0: 8a9f 073e 0bd0 a73e 305b 913e 9438 033e
000000b0: c026 413e 4edd 70be c450 b93d 8fb9 083e
000000c0: b04c 8f3e 83ec c83c 0246 bc3d ceba 81be
000000d0: 2803 2ebe 504b b6bd 3749 9dbc df80 39bc
000000e0: f03f c0bd 6ce2 25bc 6b5d f13d 0f38 443e
000000f0: f6a9 f2bd 75f6 b53e 6811 7b3d 1227 b33d
00000100: ed46 0e3e 287d a73e ad77 543e 60cf aabd
00000110: d322 22be 79ac 33bc 909d ab3d a00d 12be
00000120: f318 7f3d 1690 00be c522 8fbe fbd5 9b3d
00000130: b648 2a3d f12c d13d 7e85 c03e 5bc8 a43d
00000140: 44cf e53d a18a 093e c89d 5e3e 664f bf3e
00000150: b58a f83c af16 0b3e d452 dabd 714c fb3d
00000160: c0df 213e 6afd 61be 30d4 48bd a266 1bbe
00000170: f366 3abe 2d12 7fbe 7cd0 04bf a079 82be
00000180: 9ddf 033d fed5 8dbc aaf6 533e 30b8 19bd
00000190: 7a0a 003e 8149 7aba bf1d 65bd 2c32 96bd
000001a0: a80b 4fbe 99cd 153c 789a 2bbe e3b3 5cbe
000001b0: c724 c0bd e9e9 b0be b2b7 a63d 35da 913c
000001c0: 6f33 303e 5aed 3a3e 4fc0 15be 8d6a edbc
000001d0: 00fd 96bb 9825 b1bd c471 84bd 96d5 c0be
000001e0: 7eb9 47be 79cd 03bd e18d 573d 9f9e 1ebd
000001f0: 7fde 40be 66c6 2b3d 99f6 783d 1fbe 48be
00000200: 63e5 92be 7b1a 543e ba75 27be ee73 8abd
00000210: 92f4 a3be 1ff5 88be 7274 813e 3a2b 20be
00000220: a483 a5ba 2e2e babd 1cfc 30bd 1c83 963e
00000230: 026c af3d aa7e be3e 2bfa 913d 3d47 2c3e
00000240: de57 d93e 2dfa 7e3d 4dbf aa3e 5fcf 1fbc
00000250: c137 363e 7946 a23e 4590 fbbc 301b 56bd
00000260: d42c f03d ef29 d1bd 522f 57be f2b4 15be
00000270: b5f9 633e 9dcd f73b 10c4 b2be 345f 84bd
00000280: 705f 553e 945d a53e 4d6e 0dbf 8321 00bf
00000290: 745f 863e f777 733e 1908 f2be 7c19 a2be
000002a0: 13dc ca3e 9de2 823e 3fcf e5bd 8e4e 43be
000002b0: 6461 98bd ca43 783e 83e3 1e3d bb7b 3f3e
000002c0: cde2 4bbd ca42 d63d a201 313e c4e3 7d3e
000002d0: 281b 54be 3239 3b3e 90a6 e1bc 95f6 8dbe
000002e0: a90e 6a3d 19bd 913e cedc 353e 41bd babe
000002f0: 6867 56be 58f7 9d3e 9b89 373e a9ef eabe
00000300: 8f16 98be 02f2 a33e 620d c43d e99a fa3d
00000310: 190b 1b3e 6577 543e 3df6 453e a6a8 5bbd
00000320: ca33 a03d faa7 61be b5c1 8e3e efd2 cdbd
00000330: 8c0d 09be 6916 80be d1f2 b03d 38e7 be3e
00000340: 0d81 9abe f64a ba3d 9216 783d 4190 433e
00000350: d40a f73c c7d4 febe 5d14 6bbd 5a29 473d
00000360: 0d25 c6be d941 89bd ec3a dbbd 0387 5cbe
00000370: c9ec 00be c876 d1bd fb8c 863e afb7 3fbd
00000380: 4551 99be 3a48 abbe ff50 27bd 1071 223e
00000390: 4144 d83e 5c8a 993d 28da a8be 30f5 5cbe
000003a0: f7b9 c7bd 1e7c 123f e1a9 173d 9212 75be
000003b0: bf8c 16be 9863 d5be 9295 0b3f 1bf5 8d3e
000003c0: 9a88 8abe 37db 803e 1adf 7fbe 467c 69bd
000003d0: a00c 173e bec8 97be ba8c 063d 97ab cfbc
000003e0: cf76 bdbd 1493 b33d 07e7 97be 9084 b8bd
000003f0: a233 433d d5fe 2dbe 8d05 273d 760c 5ebe
0.41212502 0.05623686 0.19683304 0.015498979 -0.023684988 -0.03459109 0.08483095 0.031212796
-0.17194304 -0.062215503 -0.1100648 0.118763685 -0.11922702 0.02870996 0.06181872 -0.12664482
-0.29498973 -0.31994316 -0.008256129 -0.04071802 -0.07212031 -0.20056427 -0.14310887 -0.0070875594
-0.1737978 -0.040418655 -0.19408299 0.04750929 -0.11735024 -0.10250792 -0.35792112 -0.06877663
-0.074730165 -0.0062336335 0.0052037886 -0.2278478 0.33323595 0.06465196 0.15859401 0.10271371
0.13244453 0.32775912 0.28389883 0.12814552 0.18862438 -0.23521921 0.09048608 0.13352035
0.27988195 0.02452684 0.091930404 -0.25337833 -0.16993392 -0.089010835 -0.01919995 -0.011322229
-0.09387195 -0.010124784 0.11785396 0.1916201 -0.11848824 0.35539594 0.061295897 0.087476864
0.13894244 0.32712674 0.20748778 -0.08340335 -0.15833597 -0.010966414 0.08379662 -0.1426301
0.062279653 -0.12554964 -0.27956215 0.07609173 0.04157325 0.1021365 0.37601846 0.08046027
0.112211734 0.13431789 0.21739876 0.37365264 0.030339578 0.13582872 -0.106603295 0.122704394
0.1580801 -0.22069326 -0.049030483 -0.1517587 -0.18203335 -0.24909277 -0.5188062 -0.25483418
0.032195676 -0.017313953 0.20699564 -0.03752917 0.12503996 -0.0009547696 -0.05593657 -0.07333788
-0.2021929 0.009143257 -0.16758144 -0.21552996 -0.09382015 -0.3455346 0.08140506 0.017804245
0.1720712 0.18254605 -0.14624141 -0.028981471 -0.0046077967 -0.086497486 -0.064670116 -0.37662953
-0.19504353 -0.032178376 0.05262554 -0.03872549 -0.18834876 0.041937254 0.06078205 -0.19603775
-0.28690633 0.20713226 -0.16353503 -0.06760393 -0.3202253 -0.26749513 0.25284153 -0.1564149
-0.0012627733 -0.09090839 -0.04320918 0.29396904 0.08565523 0.37206012 0.07127794 0.1682405
0.4244985 0.062250305 0.33349076 -0.009754031 0.17794706 0.3169439 -0.030708442 -0.05227202
0.117273 -0.10213076 -0.21014145 -0.14619806 0.22263224 0.007562353 -0.3491521 -0.06463471
0.20837188 0.32297957 -0.5524643 -0.50051135 0.262447 0.23776232 -0.47271803 -0.31660068
0.39621028 0.25563517 -0.1122117 -0.19072935 -0.07440451 0.2424461 0.03879119 0.18699543
-0.04977684 0.10461958 0.17285779 0.24793917 -0.20713484 0.18283537 -0.027545244 -0.2772719
0.057142887 0.28464583 0.17760012 -0.36472514 -0.20937884 0.3085277 0.17923586 -0.4588597
-0.2970471 0.32020575 0.09572865 0.12236578 0.15140952 0.2074867 0.19332214 -0.053627633
0.07822378 -0.22036734 0.27882162 -0.10049998 -0.13384074 -0.25017098 0.086400636 0.3728578
-0.30176583 0.09096329 0.0605684 0.19097997 0.03015653 -0.4977171 -0.057392467 0.04862342
-0.38700143 -0.067020126 -0.10704598 -0.21535878 -0.12590326 -0.10227734 0.26279435 -0.046806034
-0.29944816 -0.33453542 -0.04084873 0.15863442 0.42239574 0.07497093 -0.3297894 -0.21577907
-0.09752267 0.5722064 0.037027244 -0.23932865 -0.14702128 -0.41677547 0.545251 0.27726063
-0.27057344 0.25167248 -0.2498745 -0.057003282 0.1475091 -0.29645342 0.03284905 -0.025350375
-0.092511766 0.08768287 -0.29668447 -0.09009659 0.047656663 -0.16991742 0.040776778 -0.21684441

bias f4 [32]
00000000: c8e9 8f3d afb4 97bd 19c0 49bd 4c8f c53d
00000010: dbf8 bcbd 6f11 053e 1cbb a83d 6a75 1abe
00000020: f73c b5bd d31a 13be b743 53be 6aec 5bbe
00000030: 16f7 313e a5ec 7fbc 752e 12be 1164 aebd
00000040: 73ab c7bd 7da5 7cbe 81db c7bb 0638 48bd
00000050: 9947 893c 1aad 09be ccb8 7cbe ff44 81bd
00000060: 3960 7e3e 8d02 6ebe 3b17 0bbf a842 7abd
00000070: 8e23 71be c306 ed3d 24fe abbe 2eb7 d5be
0.07027012 -0.074075095 -0.049255464 0.09646472 -0.09227153 0.12994932 0.08238813 -0.15083852
-0.08849519 -0.14365701 -0.206313 -0.21476904 0.17379412 -0.015620385 -0.14275534 -0.0851518
-0.09749498 -0.24672504 -0.006099165 -0.048881553 0.016757773 -0.1344494 -0.2467987 -0.06311988
0.24841394 -0.2324316 -0.5433232 -0.061098725 -0.2354872 0.11573555 -0.3359233 -0.41741318

weight f4 [32, 32, 5, 5]
00000000: 11e2 01bc b015 9b3c 3096 c7bd 2097 60bd
00000010: 913f ad3d b0cb bd3c 23c2 bcbd 46e0 e4bb
00000020: e48d d0bc 2ee4 cfbc 3b74 763d f83d e2bc
00000030: 9224 e53c 1392 833d c72c 183e 05b4 94bd
00000040: a53e 3ebe 26f3 31bd abb8 38bc 77a0 28bd
00000050: 3d27 493e 92ac 9a3d b8fd 003d ea01 9abd
00000060: 2dbc b2bd 5b31 00bd bf9c 0abd 4277 ff3d
00000070: 5f8b 86bb 4a4c 95bd 1161 8a3d 3067 993c
00000080: a64e d53d 5407 0abd cb75 dbbd 5eb8 b83d
00000090: 8b41 82bd 3ebf f33d 2c9b 8b3d 30f9 37bd
000000a0: 0ca7 90bd 21e5 05be 2b4f 06bd 390e c33b
000000b0: 5334 02be b86e 2d3e 3ae6 663d 8ca3 203d
000000c0: f1f4 6e3d 0577 d03b 70b3 763c 7765 9a3d
000000d0: 6edf 90bc a214 c7bd 8fd7 8b3d 03da bb3d
000000e0: 27e2 83bd 94c9 03be d36e f6bd 89bb 9ebd
000000f0: a46d 0abe b64f ee3d 9eb0 d936 6847 903d
00000100: 84de dbbc 8197 dfbc e842 3b3d 8856 1cbe
00000110: 3b1e 983c 8cbc 163d 9e76 45be 0c3f 22bd
00000120: ad98 b63d 3acc 8cbd 04b5 263e 5c24 a83d
00000130: a6ff 7e3b 7f59 95be 198c c53d 7340 3cbe
00000140: 7308 963d dec9 823d bfa0 01be 45f1 d63d
00000150: 0d90 86bd a682 c73d 0a67 913d b51f 1cbd
00000160: ae6d fb3c fe83 3d3e f654 fabd 4612 9fbc
00000170: b34d e7bd 4e73 823d a195 3a3d 4714 363e
00000180: 5ee4 6b3d ee85 92bc 76a0 72bd bd63 a3bb
00000190: 27af 8bbd 8c2a 523e f5f3 edbd 86b7 2a3d
000001a0: 31eb 2ebe 06c9 b9bd 95b4 4d3e 8c0a acbc
000001b0: b030 633c adbb 19be 6659 98bd 084d 4a3d
000001c0: 08f3 80bd b1bb 353d 68b4 14bc c59f bebc
000001d0: 14ee 133d a68c 8abb 417a 51bc e30d 93bd
000001e0: 2dbd 383c 03ef 4b3d 0c8d bcbc 14e6 9e3d
000001f0: 80a0 6a3d 0bd9 1b3e 595c d13d 77c4 253e
00000200: e667 76ba fe85 c93c a340 a43c e1bb dbbd
00000210: 0d4b 35be 920b 4dbe df03 b1bc 20b0 ebbc
00000220: d1fc d2bd fcfd 163e 85a3 c13d e8db bc3d
00000230: 446c c53d 93f1 873d 9eef 14be 0cca 33bd
00000240: 628e d53d 9210 8cbd 58da 8abe 6c56 1dbd
00000250: 6b7c b23d de33 793c 98f1 b0bd 7582 40bc
00000260: f1ff 24bd 8fe7 d0bd 2f37 6cbd 3c3f 8e3d
00000270: a936 513d 97c9 4b3d 9d64 f23d fc2f 0a3d
00000280: f5e6 47be c393 08be 4fd0 50be 455a 44be
00000290: 2aca 93be 8ee3 913c 63ed 363e 6c75 aa3e
000002a0: 861a 933e 3d5c 603e cbdf d73d 8d6f 0c3b
000002b0: 0f5f 15bd 895a 05ba 7fe2 0a3d 92ef 0c3d
000002c0: dd52 7f3e 7fd1 86bd c8a4 5a3d 4b62 43bd
000002d0: cdb6 78bd 1f3e 8cbc ba89 e23c 5828 adbd
000002e0: bf8a 04be eb5c 4cbd 80c6 f83c 1fe1 1abc
000002f0: 7811 4b3c 027c 3e3b 6da5 133d c9ca dfbc
00000300: a8b0 4a3d e9ef 093e 81f4 db3d 774f 9b3d
00000310: 7877 aabd db6b 73bd f30f 2ebe 5c67 a7bd
00000320: 183b bb3d 4243 76bd a6bc 15bf 7aea e73e
00000330: cd0e 2fbd 65c2 babd cc9e a73d 2241 d2be
00000340: 0d4d 093f a402 7abd d0d1 4abe bd9c 91bc
00000350: e288 513c 65d6 9a3e 0e1c 43bd e63a d0bc
00000360: f099 b1bd 744a 28be c17c 9c3e 9dc8 4bbd
00000370: 26b0 4fbd b107 6bbd 5052 3cbe f372 003e
00000380: 25c2 bfbd 06cd 12bd b54d 89bd 0bd4 233d
00000390: e9a6 97bd e434 66bd 781d 6f3d fe6b 69bb
000003a0: 2aae 313d 49d9 4fbd 7d32 123d 19f1 753d
000003b0: db85 95bc b6f6 2a3d 643c 9cbd 3ab7 c8bd
000003c0: 8784 503d 0220 0b3d 5572 aa3d 1142 b4bd
000003d0: ae31 273d 7051 e83d b0dc d53d 1fdf a83d
000003e0: d138 9e37 b16c 303d 4feb 8b3d 8b81 043e
000003f0: 6fc0 0abe 70fd 85bd 885c 4f3b 7cb8 653b
-0.007927434 0.01893124 -0.09745443 -0.054831624 0.0845939 0.023168415 -0.09216716 -0.0069847433
-0.025458284 -0.02537736 0.06016944 -0.02761744 0.02797154 0.06424346 0.14860831 -0.072608985
-0.18578584 -0.043444775 -0.011274497 -0.041168656 0.19643874 0.075524464 0.031491965 -0.07519896
-0.08727298 -0.03129707 -0.03384089 0.124739185 -0.00410597 -0.072899416 0.06756795 0.018725961
0.104153916 -0.033698395 -0.107158266 0.0901954 -0.063601576 0.11901711 0.06816706 -0.044915378
-0.07063112 -0.13075687 -0.032790344 0.005952623 -0.12715273 0.16936767 0.056371905 0.03921847
0.058339063 0.0063618445 0.01505743 0.07538884 -0.017684665 -0.09720732 0.06828224 0.09172442
-0.064396195 -0.12869865 -0.12032857 -0.07750613 -0.13518387 0.116362974 6.487665e-06 0.0704487
-0.026839502 -0.027293922 0.045718104 -0.15267384 0.018569103 0.036800906 -0.1928353 -0.039610907
0.08915839 -0.068748906 0.1627999 0.0821006 0.0038909703 -0.29169843 0.09645862 -0.1838396
0.0732583 0.06386159 -0.12658976 0.10495237 -0.06570444 0.09741716 0.07099731 -0.038116176
0.030691948 0.18507382 -0.12223236 -0.019417893 -0.11294117 0.06369649 0.045552853 0.17781173
0.057590835 -0.017886128 -0.05923506 -0.004986255 -0.06820517 0.20524043 -0.11618797 0.041678928
-0.17081906 -0.09071545 0.20088418 -0.021001123 0.0138665885 -0.15012999 -0.074389264 0.04938987
-0.062963545 0.04436845 -0.009076215 -0.023269543 0.03611572 -0.0042281924 -0.012785495 -0.07180383
0.011275572 0.049788486 -0.023016475 0.07758728 0.05728197 0.15219514 0.10222692 0.16188227
-0.00093996373 0.024600025 0.020050352 -0.107291944 -0.17704411 -0.20023945 -0.021608291 -0.028770506
-0.10302127 0.14745325 0.09455017 0.09221631 0.09639791 0.066378735 -0.14544532 -0.04389386
0.10427548 -0.06839098 -0.27119708 -0.038412496 0.08715137 0.01521012 -0.0863983 -0.011749853
-0.040283147 -0.10200416 -0.057669815 0.06945655 0.05107752 0.049752798 0.11835597 0.033737168
-0.19521697 -0.13337617 -0.20391963 -0.1917506 -0.28865176 0.017808702 0.17863993 0.3329271
0.28731173 0.21910186 0.10540732 0.0021428794 -0.036467608 -0.0005087038 0.03390741 0.03440816
0.24933954 -0.06582927 0.053379804 -0.04770116 -0.060721207 -0.017119465 0.027653564 -0.084549606
-0.12943552 -0.0498933 0.03036809 -0.009453087 0.012394302 0.0029065614 0.036046434 -0.027318375
0.04948488 0.13470425 0.10739995 0.07583516 -0.08323568 -0.05942903 -0.16998272 -0.08174011
0.091421306 -0.060122736 -0.5849098 0.4529608 -0.042738724 -0.09119109 0.08184585 -0.41065317
0.53633195 -0.061037675 -0.198066 -0.017774934 0.012788983 0.30241695 -0.047634177 -0.02541871
-0.086719394 -0.16434652 0.3056393 -0.049751867 -0.050705098 -0.057380382 -0.18390775 0.1254385
-0.09363202 -0.035840057 -0.067042746 0.03999714 -0.074048825 -0.056202784 0.058377713 -0.0035617347
0.043378986 -0.05074433 0.03569268 0.06004438 -0.018252304 0.041739188 -0.07628706 -0.09800573
0.050907638 0.033966072 0.08322588 -0.08801664 0.040818863 0.11343658 0.104424834 0.08245682
1.8861525e-05 0.043072406 0.06831991 0.12940042 -0.1354997 -0.0654248 0.0031640846 0.0035052588

bias f4 [32]
00000000: 38c1 95bf 0491 74bf 9140 d2be 43e4 57bf
00000010: 91ec 3bbf 70e1 0ebf ea69 98bf 89fc dcbe
00000020: 0f5f 13bf f4b3 8bbf 731e 42bf 9916 2fbf
00000030: 4559 57bf 5ced 45bf 0ad9 58bf e96c 6cbf
00000040: 245f 21bf c99b 76bf d1a5 76bf c3cf 97bf
00000050: 677d 28bf 7a77 2ebf ca5f 2dbf c450 62bf
00000060: 577b 56bf 8adf b7be d810 2fbf 4e48 4ebf
00000070: 4407 babe d46f 2fbf c76e 09bf 6af8 dbbe
-1.1699591 -0.95533776 -0.41064885 -0.84332675 -0.73407847 -0.5581274 -1.1907322 -0.4316142
-0.5756692 -1.0914292 -0.7582771 -0.68393856 -0.8412059 -0.77315307 -0.84706175 -0.92353684
-0.630358 -0.9633146 -0.96346766 -1.1860279 -0.6581635 -0.68151057 -0.6772429 -0.8840449
-0.8378195 -0.35912734 -0.68385077 -0.8057908 -0.36333668 -0.6853001 -0.5368466 -0.42962962

weight f4 [64, 32, 5, 5]
00000000: a9a1 41be 99f7 cfbd 5d81 16bc af2b c2bd
00000010: 7c79 58be ed1f eb3d ebbb 003e 85c2 113e
00000020: 8932 a93d 9065 c43d 700e 53bd 9907 ef3c
00000030: 919c ad3d 9b43 f83d 7d58 433d 4d34 3abe
00000040: 5d1b 11be 891e 47bd cedb 05be f577 be3c
00000050: 8823 763b a198 373e 7203 ed3c 5967 16be
00000060: 962b dfbc b64d 49be ca1d e3bb 246f d03d
00000070: 576a 0a3e 6f9b e5bc 38fb 753d f3e4 55bd
00000080: fd7c 393d 584a 14be 0084 47be cef8 543c
00000090: 9c0b e43c fa08 b83d 5759 a9bd 5983 40bd
000000a0: 4ff5 f13d 8303 95bd 5e5a d8bd e841 de3d
000000b0: c579 f63d a768 da3d 9dea 863c 94e7 9abd
000000c0: 48bc 803d 56d6 c63d 516a a0be c0ae 043d
000000d0: 7cb5 803b fd11 043e c71a b53c c255 ed3c
000000e0: b1c3 c4bc 637f ebbd 2390 7bbc 3993 0d3e
000000f0: f350 92bd df73 7ebd bf72 28bd 2e8c 30be
00000100: ea2e 3cbd a93d 883d 6265 763d a2eb c83d
00000110: d12c 293d 0235 94bc 3ab7 86bd 57eb d33d
00000120: 0fd2 493d b3bc 9c3b 570b 233d 8a9e fa3d
00000130: cb50 563e 6805 2dbe b10d 01be 9ec7 d4bc
00000140: 7c72 b33d e936 d6bb 7609 833d 0c64 0bbc
00000150: ecc8 bfbd 3269 f4bd 6869 9b3c c287 9bba
00000160: b3e3 423d f540 4cbb c2bb 9e3d 129d c3bc
00000170: bc25 8abe 2efc 743c 54e5 943c 2d91 5bbd
00000180: eac2 68bd ad01 a5bd b5a8 b8bd da4e 9ebc
00000190: 23f2 b2bc 92cd d73d f37c 55bd 59bd 0d3e
000001a0: 1764 d83c cc4b ca3d 56ab 653d 8030 6bbd
000001b0: 7ca2 e33a 727c 99bd 8205 3a3d b7ef 2b3d
000001c0: 9987 50bd a22c 7abd 42c2 99bb 0b7f 7e3d
000001d0: 9f20 543d 3ee7 20bc c40d 013d e2eb c03d
000001e0: 621c 663d 5762 c7bc 8c1a 85bd 9cc6 763c
000001f0: f093 0bbe 51cb 373e d8fe edbc 27af 19be
00000200: 5c0b 463d c533 7aba 9748 7abd c901 603d
00000210: f8ef 093e aa3c e6bc f9a4 6cbd bfc3 15be
00000220: 99b4 593d 9b51 4dbd f777 8b3d a2ea 293c
00000230: 5f5f adbd 97e0 b73d c984 15bd ca84 b7bd
00000240: 55b9 5dbc 1337 213e a489 b23d bc91 cc3c
00000250: 37e1 ab3d cee3 16be 92b2 b53d 733d 9abd
00000260: becf b7bd 0eff e6bc 781a 1cbe d7a3 863c
00000270: 55e7 b83d 15c3 39bd a094 3b3c f083 a43d
00000280: ae07 e039 5764 ef3c bc11 9fbe 093c f3bd
00000290: ef1e 003e fd2b 7d3e 64ed 043d 1ac2 3bbe
000002a0: d08b e8bb e86a 1ebe 9534 a73d 6a5c 833e
000002b0: 547e 063e 94fe 1ebe d1a3 433e ba62 f53d
000002c0: 0da4 063e 2a77 9bbd 634e 2abe fac0 22bd
000002d0: 3176 26bd 5d7e d43d cb7b 1c3b 80d6 78bd
000002e0: dae7 39bc 035e 1abe ff0e 153d d38b 263c
000002f0: b68d cebb eadc 7ebc 0bf7 ff3c 9685 673d
00000300: 00f1 eb3d a269 4ebd 313b 3d3d 2ce3 2b3e
00000310: 6db1 0fbc a6da d33b 614e 30be df74 bdbd
00000320: 3dc0 7c3e 53bd 0b3e c81e 1cbd b3d7 39be
00000330: 665a 30be d60a b1bd 422b 0ebe 49a8 d03d
00000340: 55b7 9e3d 35fc 083e e753 15be e87d 9ebd
00000350: 9750 8b3d 53e5 e03c f54f 673e 802d 19be
00000360: 1efe 40bb 2008 93bd 11ec f2bd f2d7 6d3c
00000370: 63e9 bb3d 2fd8 d7bd 2be7 d7bd ebf3 7cbd
00000380: 1494 cb3d 22f4 983d 052f 633d 0970 9c3e
00000390: 6e00 213e 0bcb 71be 2011 28bd 1b1a ffbd
000003a0: 7a0d 333e e4da 3e3e b5ba c7be 0bd0 0cbd
000003b0: 6ec3 afbd d8d7 3d3a 0ca0 913c 334c 3dbe
000003c0: 6ca1 863c 1240 54bd aff0 f13c 2f61 ac3d
000003d0: 0a9c 8cbd 647e eb3c a5fa d23d a58e 0d3e
000003e0: 1b8a c13d f2e3 92bd 95b4 a2bd 933f f23d
000003f0: 631d e23d 6eb5 65bd fb2b ca3c b049 173e
-0.18909325 -0.101546474 -0.009186116 -0.09480988 -0.21140093 0.11480699 0.12571685 0.1423436
0.08261592 0.09589684 -0.05152744 0.029178428 0.08477128 0.1212227 0.04769181 -0.18184014
-0.14170595 -0.048613105 -0.1307213 0.02325056 0.00375578 0.17929317 0.028932307 -0.14687862
-0.027242463 -0.1965855 -0.0069310414 0.101774484 0.13517128 -0.028028218 0.060054034 -0.052220296
0.045285214 -0.14481485 -0.19483948 0.012998773 0.027837567 0.08986087 -0.08268993 -0.047000263
0.11814367 -0.072760604 -0.10564111 0.10852414 0.120349444 0.10664492 0.016469294 -0.07563701
0.06285912 0.0970885 -0.31331113 0.032393217 0.0039278846 0.12897487 0.022107495 0.028971557
-0.024019094 -0.114989065 -0.015354189 0.13825692 -0.07144346 -0.062122222 -0.041125055 -0.17240974
-0.04594318 0.06652386 0.06015528 0.098105684 0.041302506 -0.018091682 -0.065779164 0.10347622
0.049272593 0.004783237 0.039805736 0.1223727 0.20929258 -0.16896594 -0.12602879 -0.025974091
0.087620705 -0.0065373075 0.06398289 -0.00850774 -0.09364495 -0.11934127 0.01897116 -0.001186602
0.047580432 -0.0031166647 0.07750656 -0.023878608 -0.26981914 0.014952702 0.018175758 -0.053605247
-0.05682651 -0.0805696 -0.09016553 -0.019324709 -0.021843975 0.10537256 -0.052121114 0.13841762
0.026414914 0.09877738 0.0560716 -0.0574193 0.001736715 -0.07494439 0.04541541 0.041976657
-0.050910566 -0.06107772 -0.004692347 0.062132876 0.051788922 -0.009820757 0.03150727 0.09419991
0.05617941 -0.024338884 -0.06499204 0.015062001 -0.13630652 0.17948653 -0.029052183 -0.15008222
0.048350677 -0.00095444574 -0.061104383 0.054689202 0.13470447 -0.028105099 -0.057774518 -0.14625452
0.053150747 -0.050126653 0.06809991 0.010370882 -0.08465456 0.08978384 -0.036503587 -0.089608744
-0.013532956 0.15743665 0.08717659 0.024971835 0.08392566 -0.14735338 0.0887195 -0.07531252
-0.089751706 -0.028197791 -0.15244472 0.016435547 0.09028498 -0.04535206 0.011449009 0.080329776
0.0004273033 0.02922265 -0.31068218 -0.11876685 0.125118 0.24723811 0.032452956 -0.18335763
-0.007096745 -0.15470469 0.08164326 0.25656444 0.13134128 -0.15526801 0.1910546 0.11981721
0.13148518 -0.07591088 -0.16631465 -0.039734818 -0.04064006 0.103756644 0.0023877497 -0.06075144
-0.011346782 -0.15074925 0.036391255 0.010165173 -0.0063035144 -0.0155556 0.031245729 0.05652388
0.115205765 -0.050393708 0.046199027 0.16785878 -0.008770329 0.006465274 -0.17217399 -0.09250807
0.24682708 0.1364644 -0.038115293 -0.18148689 -0.17221984 -0.08644645 -0.13883689 0.10188348
0.077498116 0.1337746 -0.14582787 -0.077388585 0.06802481 0.0274531 0.22589095 -0.14958763
-0.002944834 -0.07179284 -0.11861432 0.014516817 0.09175374 -0.105392806 -0.10542139 -0.061756056
0.09940353 0.0746844 0.055464763 0.30554226 0.1572282 -0.23612611 -0.041031957 -0.12456151
0.1748561 0.18638188 -0.39009634 -0.034378093 -0.08582197 0.0007241941 0.017776512 -0.18486099
0.016434394 -0.051818915 0.029533712 0.08416974 -0.068656996 0.028746791 0.10301713 0.13823946
0.0945017 -0.07172383 -0.079445995 0.11828532 0.11040761 -0.056081228 0.024679175 0.14774203

bias f4 [64]
00000000: 85d0 35bf b00b 0fbf 299e 69be e5bf 48bf
00000010: 320a f0be a5ba 4cbf 5893 78bf 1255 2abf
00000020: 5656 0ebf 344d 5fbf bbd9 aebf f728 9cbe
00000030: 9839 84bf 8589 d7bd 087e 4abf 3eb0 5abf
00000040: 4c40 12bf 9b2d 86be b763 3fbf c29b 5ebf
00000050: c601 18bf 7dc1 53bf 4717 99bf 2a41 50be
00000060: 97ee eabe dabe 5bbf 7ef7 d5be 5814 86be
00000070: 4e07 e0bd f462 49bf 2dbf 86bf 0ab0 8cbf
00000080: e3bc 8bbf ed69 1abf f29b 93be 7143 efbe
00000090: fbf9 8cbe a488 86bd 936d 54bf 84fc 50bf
000000a0: ebd3 73bf b944 03bf 796f 7fbe 937c 2bbf
000000b0: bb05 7cbf 7dce 80bf 8c9a 8cbf aa41 61bf
000000c0: 981d 82bf 1ad4 82bf eb96 e4be 0c83 e3be
000000d0: b476 45bf 2754 f9be 21ab fcbe 2cb9 06bf
000000e0: 8702 6abe beb7 b0be 84b2 53bf 4292 5fbf
000000f0: 8b74 54bf 7e4e dabe e313 003d f9f5 87be
-0.710213 -0.5587721 -0.2281424 -0.7841781 -0.46882778 -0.79972297 -0.9709983 -0.66536057
-0.5560049 -0.8722718 -1.3660196 -0.30500004 -1.0330076 -0.10524277 -0.7909856 -0.85425174
-0.5712936 -0.2620667 -0.7476153 -0.8695642 -0.59377706 -0.82717115 -1.1960229 -0.20337358
-0.45885155 -0.8583809 -0.41790384 -0.26187396 -0.10938893 -0.78666615 -1.0527092 -1.0991223
-1.0917019 -0.6031788 -0.28829914 -0.4673114 -0.2753447 -0.06569031 -0.82979697 -0.8163531
-0.95245236 -0.5127674 -0.24944867 -0.6698696 -0.98446244 -1.0063015 -1.0984664 -0.8799082
-1.0165281 -1.0220978 -0.4464639 -0.44435918 -0.7713425 -0.48697016 -0.4934931 -0.526263
-0.22852527 -0.34515184 -0.8269427 -0.87332547 -0.8299033 -0.4263801 0.031268965 -0.2655485

weight f4 [64, 64]
00000000: 6224 cabd 2470 d1bc 1e6c 5c3d cb06 2bbd
00000010: c388 90bc 71a5 1f3b 8eb0 80bd c63b 8ebd
00000020: fcd2 d23d efc7 ab3d a725 983d 0bdb a0bd
00000030: b861 883d d6eb 323d d8ab 613d 84ef 2dbd
00000040: 1254 c03c 2895 063d 4381 63bd e5bb 84bd
00000050: cc11 a13b eccb bcbc c2c7 68bd 7ebd 90bc
00000060: 2a4b 5d3d a212 adbd 569f 073c d8a6 2fbd
00000070: ccc5 073d b4b1 873d 7202 15bc d1d9 03bd
00000080: 0463 0a3d a8cd b1bc a944 9dbc 8616 d43c
00000090: 8730 203d 57f3 303d 5036 713a 075d a939
000000a0: 19c1 8b3c d39d 3b3d 750a 31bd 0777 a43c
000000b0: e049 64bd 8f7c acbd aaab 83bd 88eb a738
000000c0: 8464 0b3c a7bf 84bc f8a5 c3bb d7da 82bd
000000d0: 901e 86ba 6bb0 803d 7205 c0bd 9c1f 723d
000000e0: 5df4 b2ba 115a 8dbb a79d f03c 46ef 813c
000000f0: fce1 8dbc c8d9 a1bd f961 d43d fcc3 713d
00000100: 9769 d43c 414a 793d e257 45bd 4665 d9bc
00000110: 9f8b 5a3d a99a 53bd 97bd 5f3d 5781 4cbc
00000120: e55d c4bc 46e6 26bd 79db 2cbd 0694 4abc
00000130: 9ace 50bc 22e4 6d3c b644 2e3c 8c3c a1bc
00000140: 2fa7 c23d 8096 463b 56f4 403d 65b2 d43d
00000150: 3885 163b b921 0f3d c2e8 edbc d82f 273a
00000160: 1259 963a 29e5 ab3d f782 9dbc 71cd 90bd
00000170: a098 bdbc ef7c 6f3c 5ce1 04bd 006c 003b
00000180: afd5 b9bc 3cb4 e53c accc 3fbd ea99 2bbd
00000190: f39d 4fbd 0bcc e9ba 0f07 93ba a96f a93c
000001a0: d954 9cbd cc04 653c b30f b1bc 814d 8e3c
000001b0: 708c 333d 40f8 88bb 1893 823c 6c66 31bc
000001c0: 8c08 6f3d 9200 383c 4bb1 21bd d45c b53c
000001d0: d168 31bd f20d 45bd d573 e6bc ceff 343c
000001e0: dc67 6ebc 329a eb3c 39f7 b83c f5d1 92bc
000001f0: f896 86bd 6baa 853d 3826 d4bc ae5d 99bd
00000200: 2b07 223d 0ae3 4cbd 4b34 ad3d f17a c33d
00000210: bb90 55bc 3ad1 143d 2dde fcbc d619 893b
00000220: a2a1 3b3c db42 ba3b 7727 893c 1bd8 27bd
00000230: 45eb 453d c888 4abc 9ff0 193a 2d7d 443d
00000240: 3bf9 5d3c d5ed a0bd 766a 733d db7c 4cbe
00000250: 944a 2bbc c54d 23bc ff56 8a3d 2016 1fbc
00000260: 3269 023d 549c bfbd 620e 373d 87dc be3d
00000270: bcbd 373c 5212 d7bc 7c20 043d b9f0 44bd
00000280: f243 833c 7fe0 a63c 4f75 0dbc 66bf 9a3d
00000290: d52d 043d eea2 bfbb 03ac 5dbc f762 9f3d
000002a0: 3395 a8bb d815 58bd ae31 053d d76e 643d
000002b0: c54f 353b 5089 ae3c 92ad 25bd 33aa 443d
000002c0: 848b b4bd c92e 93bd c861 f73c 77f7 663d
000002d0: 23c8 1f3c ba23 ce3c 363f 4a3a 25d2 1d3d
000002e0: f527 0a3d b1e7 fa3b 2a2a 06bd b31d 3cbc
000002f0: 58e4 873d e357 f3ba fc8d 03bc b550 b43d
00000300: 7f27 cebb 38e7 60bd 976e 3a3d 44fd 673d
00000310: 020c 37bd 62a4 17bb 33db 70bc a9a9 de3c
00000320: 7514 72bd da74 efbc 41f3 40bd 7f78 8e3c
00000330: ad63 93bd 5dff 103d 1a73 5cbd 3862 ad3c
00000340: 6f32 d2bc f229 8d3c 6f0a 8a3d a5b9 bebd
00000350: ba57 4bbc fd8b 15bd 5a7b e1bc 6f64 a23d
00000360: 45e4 10bd e551 f3bc be2d 303c 7e74 c53d
00000370: 11f8 083d 3c7f b4bd cd86 033d d6b9 53bc
00000380: 9ddc 81bb 8b89 fcbc ceb9 b23d 0e15 1cbd
00000390: 54ec f8bc cbb7 93bc d9c1 61bc a8b5 ddbc
000003a0: 864e 61bc b559 68bc 4ab2 b03d 7c85 fb3c
000003b0: 91b7 acbd 9f10 493c 5a46 8abd d945 d5bc
000003c0: c7aa debd c9d4 b5bd 9316 153d cbdf 11bc
000003d0: 3fab db3c 8035 f13c b5c4 0a3d c3e6 813b
000003e0: 9238 823b 1046 463d 37db 69bd 08d3 443c
000003f0: 094c 863d 12a1 25bd 1c73 033c 478c dd3b
-0.09870221 -0.025566168 0.053814046 -0.041754525 -0.017643338 0.0024360085 -0.06283675 -0.06944995
0.10294148 0.08387744 0.074290566 -0.07854279 0.06659263 0.043681942 0.055095524 -0.042464748
0.023477588 0.03285709 -0.055543195 -0.064811505 0.0049154516 -0.023046456 -0.05683113 -0.017668482
0.05402676 -0.084508196 0.008277735 -0.042883724 0.03314762 0.06625691 -0.009094821 -0.032190148
0.033785835 -0.02170451 -0.019197779 0.025889646 0.03910878 0.043200817 0.00092015136 0.00032303503
0.01705985 0.04580481 -0.043222863 0.020076288 -0.055734515 -0.08422195 -0.06429227 8.007052e-05
0.0085078515 -0.016204668 -0.0059707128 -0.06389397 -0.0010232497 0.06283649 -0.093760386 0.059112176
-0.0013653148 -0.0043137153 0.02937205 0.015861165 -0.017319672 -0.079028666 0.10370249 0.059024796
0.025929255 0.06086183 -0.048179515 -0.026537549 0.05335581 -0.051661167 0.054624166 -0.012482009
-0.023970554 -0.04074695 -0.042201493 -0.012364393 -0.01274457 0.014519723 0.010636499 -0.019682191
0.09504544 0.0030302107 0.047108017 0.103855886 0.0022967588 0.03494427 -0.029041652 0.00063776737
0.0011470637 0.08393318 -0.019227488 -0.07070435 -0.023144066 0.014617189 -0.032441482 0.0019595623
-0.0226849 0.028040044 -0.04682605 -0.04189483 -0.05068774 -0.0017837299 -0.0011217314 0.020683127
-0.07633371 0.013978194 -0.021613931 0.017370941 0.043835104 -0.0041799843 0.01593928 -0.010827642
0.05835776 0.011230605 -0.03947572 0.02213899 -0.04331285 -0.048109002 -0.028131405 0.011047317
-0.014551129 0.02876005 0.022578822 -0.017922381 -0.06571764 0.06526645 -0.02589713 -0.07488571
0.039557617 -0.05002121 0.0845724 0.095449336 -0.013034995 0.036332346 -0.03086766 0.004183988
0.0114521105 0.0056842393 0.016742451 -0.04097758 0.048320074 -0.012361713 0.0005872342 0.04797094
0.013548191 -0.07857863 0.0594277 -0.19969504 -0.0104547925 -0.009967272 0.067548744 -0.009709865
0.031838603 -0.09355989 0.04469145 0.09319406 0.01121467 -0.026253853 0.032257542 -0.048081134
0.01602361 0.02037072 -0.008633926 0.075560376 0.03227027 -0.00584828 -0.01352978 0.07782548
-0.005144739 -0.052755207 0.03251808 0.055769768 0.0027665955 0.02130571 -0.040448733 0.048013877
-0.08815673 -0.07186658 0.030197993 0.056388345 0.009752306 0.02516352 0.00077151076 0.038530488
0.033729512 0.0076570143 -0.032755055 -0.01148169 0.0663535 -0.0018565621 -0.008029457 0.08804456
-0.0062913294 -0.054908007 0.045515623 0.056638017 -0.044689186 -0.0023138751 -0.014700699 0.02718051
-0.05910154 -0.029230524 -0.047106985 0.017391441 -0.07196746 0.035399783 -0.053820707 0.021164998
-0.025658814 0.017231915 0.06740271 -0.09312753 -0.012411052 -0.036510456 -0.027524639 0.079293124
-0.035373945 -0.029702136 0.010753093 0.0964136 0.0334397 -0.088133305 0.032110978 -0.012922725
-0.0039630667 -0.030827304 0.08726846 -0.038106017 -0.030386128 -0.018031975 -0.013779127 -0.02706416
-0.013751632 -0.014181544 0.08627756 0.030703299 -0.0843345 0.012272029 -0.067517 -0.026034283
-0.10872417 -0.08878476 0.03639848 -0.008903454 0.026815055 0.029444456 0.033879 0.0039642765
0.003974029 0.04840666 -0.057093825 0.012013204 0.06557471 -0.04043681 0.00802305 0.006761107

bias f4 [64]
00000000: 8f09 643e 8315 e9bc 8d27 e1bd 6603 733e
00000010: 8c6c 0cbe 6af9 3bbe 3823 f03d ce9a c83e
00000020: b6b1 f53d bcba 0f3e aa01 0b3e 638e 163e
00000030: 31cf c8bc a9cc 34bd ce90 373d 576f 4ebd
00000040: 6961 f0bc dd53 a63d 1fb5 7abd 6012 5ebd
00000050: 8f05 adbc cafd 693e e6e3 8fbe 997b 56bd
00000060: 4673 293e 31f5 8e3b 45f6 1e3a f013 773d
00000070: 0a23 7fbe 2ed4 e33d 5220 873d 46cf 303c
00000080: 2d05 6dbd 79c8 233c c9c4 3dbd f263 d03d
00000090: a9ed 283c 874c 5e3d 6f92 c5bd 8e06 0e3e
000000a0: 2170 6cbd becd b0be 0b8e 293d 956c 86be
000000b0: 39a4 ca3d 4599 833d 40f7 4d3e b6c9 50be
000000c0: 4134 e5bc bc9a 58be 4db8 143e f956 0bbd
000000d0: 0cc3 c53d bc06 e03d 195e d4bd 1f64 16be
000000e0: 4c3a 88be 785f fd3b 0571 f4bc 3d20 8d3d
000000f0: 7ec7 013e e825 063e 986f b43d 5b1b ef3d
0.22269271 -0.02845264 -0.10993872 0.23731765 -0.13713282 -0.18356863 0.117254674 0.39180607
0.11996786 0.14036077 0.13574854 0.14702754 -0.024512859 -0.04414049 0.04481583 -0.05039915
-0.029343324 0.081214644 -0.061207887 -0.054216743 -0.021120815 0.22850719 -0.2810356 -0.052363966
0.1654788 0.004362725 0.00060639187 0.06032175 -0.2491571 0.111244544 0.065979615 0.010791605
-0.057866264 0.009996527 -0.046330247 0.10175313 0.010310569 0.0542722 -0.096470706 0.13869688
-0.057724122 -0.3453197 0.04139523 -0.26254717 0.09894604 0.06425718 0.2011385 -0.20389447
-0.027979018 -0.21152776 0.1452343 -0.03401849 0.09656343 0.109387845 -0.1036951 -0.1468663
-0.26606977 0.007732328 -0.029839048 0.068909146 0.12673756 0.13100398 0.08810347 0.116751395

weight f4 [10, 64]
00000000: 19b9 f43b 5e4c d83c a9fa a8bd d008 cdbd
00000010: c264 5a3d c145 913c 47b1 c23d 51e4 673d
00000020: 7527 953d 847f 77bc 7e24 393d a578 66bc
00000030: bea7 8e3c bab4 a5bc d737 c33d 80bf 08be
00000040: fec2 c6bc d78b c9bd 2a4f e8bc c543 8cbc
00000050: b476 bebd 81a8 31bc a23e f6bd 75fe 523d
00000060: 6bd4 98bd 485b a4bc 2f48 eebb abc4 b73c
00000070: 0d67 31bd bbc8 b4bd 278c 2c3c e5ff d43d
00000080: efa0 80bd 3cf6 42be 04a6 3b3e 7f88 813c
00000090: 68bf 8cbd 2f38 8dbc 298f 03be caae 683d
000000a0: 7afc fc3c 9cb4 083d cd66 31bd 0350 883d
000000b0: 6db0 1b3d 3aa4 953d fa10 993d 8751 1a3c
000000c0: f64c 5ebd 3c3d 843d 64ed a1bd e6d3 7abd
000000d0: 0d66 c5bd 117f a5bd 693e a0bd 3374 08bc
000000e0: d118 2fbd 2a3b a83d 1662 79bc d950 b83d
000000f0: d2dc 88bd f0cd 573d 9529 dc3d b6b5 8c3d
00000100: 237d 043e aad4 7bbd ec67 acbb 47b7 1fbe
00000110: 60f9 a43c 14a5 343e 82ec abbd f59d b5bd
00000120: a24e bbbd bb36 0d3e 5aa2 273d bcba 35bc
00000130: 0d2e ebbd 870b 863d 1d03 42be a940 85bd
00000140: 9807 983c 423a 92bd 2c6d bc3a dc6e 82bd
00000150: 99f1 1c3d 0a57 32bd 10b0 a93c 0bb7 a23d
00000160: 5514 9dbd 13e5 c2bc 37b4 e8bd bbe6 073c
00000170: e0a6 2abd ce2c 10bd 4078 dbbd d04e 09bd
00000180: bd2c a33d 98ce d03b 5baf 90bd c4e9 abbd
00000190: 53a7 8939 61c3 a83c 5900 033d 09ef 38be
000001a0: 3e40 fe3d 1705 8b3e 0410 36bc 6fec e2bd
000001b0: edc2 c2bd 4ec0 2c3d d1e8 97bc f1b6 0a3e
000001c0: 6d09 98bd 3584 f83d df92 14bd 26f3 0d3d
000001d0: 8340 bebd 77f2 02be 3c5a 823d 257c 5e3e
000001e0: 8149 3ebc b63b 72bd 1fd4 093e 5b05 5c3d
000001f0: 5568 debb ceb8 733d 0e82 c0bc 9688 993d
00000200: 09c1 bebd aa4d 7b3d 38ac 7d3c 73b9 a9bc
00000210: a5e8 753b 2ce6 b8bd 69f7 8c3c 360a f8bc
00000220: be13 2f3d 21aa 87bd 4a10 a63d f138 663d
00000230: 5edb 67bc a9b5 61bd 2e05 c43d 0a20 c53d
00000240: 4857 b93c 572f 463c ada0 053d 6098 343d
00000250: 72fe c3bd 74d4 c63d 759f 283d 879f 553d
00000260: 7ac3 87bd cd52 27bd 4d71 713d d788 95bd
00000270: 4d58 473c 1a68 0dbc 5051 503d 67e1 f73d
00000280: 91a8 0f3d 609a 44bd 3dd3 983c bba8 c33d
00000290: bbab f03c 0c7b 0d3d 9dfa 6abd 9360 1fbd
000002a0: 2d97 a03d 5d92 cabd 3ce1 43bd 3f03 1abd
000002b0: 9447 0dbd bb90 b93b d24b cc3c 89a6 11bd
000002c0: 3dd5 f33c 5526 d53d e0c7 e5bd 2735 04be
000002d0: 76c9 c13c a56a 813d 4a71 183d 36a1 74bc
000002e0: cec2 143d 79b7 733d 8833 48bd 1f38 71bc
000002f0: 43ad 10be 0833 bcbd 285a 0abd 9332 853d
00000300: bf6e 98bd ed74 e33c b099 8a3c c3ee 103d
00000310: eab2 ca3a df9e 8bbd 171a 0cbd 9fda 5cbd
00000320: 95ff 40bc 6df9 8abd 923b e73c 6cc8 233c
00000330: 94fb 8fbc 67d8 8f3d 4e3f e93c 942c 1b3e
00000340: b792 84bd 2025 743d bf67 7d3c a57c 3ebd
00000350: 19ce 1d3d f1c1 c03c 54c4 bf3d 2195 49bd
00000360: 2a87 6cbc 47a0 46bd e44b 44bd cc4a 94bd
00000370: b3ee 983d c054 1b3d c752 52bc a689 993b
00000380: 58e6 973d 4eca c63d f388 edba 02f1 9c3c
00000390: 5e8d b73c e2ff 91bc 25ed be3d d326 8cbd
000003a0: 1e7c e53c 67dd 98bd c187 613d 5b0e e4bc
000003b0: 12a2 89bd 6569 e1bd 4bdf febc cd1a d5bd
000003c0: 1709 18bc 5b63 543d a5b9 93bc 4b89 f43c
000003d0: dc13 8f3d af73 353d 4e16 053e 66db bbbd
000003e0: 7d63 693d e49b a1bb c092 28bc 63ac f8bc
000003f0: 7343 213c 19cd 4cbd 986e 11be daa2 ecbc
0.0074683544 0.026403602 -0.08250935 -0.100114465 0.053318746 0.017733457 0.09506469 0.056614224
0.072829165 -0.015106086 0.045200817 -0.01406685 0.01741397 -0.020227779 0.09532135 -0.13354301
-0.024262901 -0.098411255 -0.02835806 -0.017122159 -0.092999846 -0.010843397 -0.12023665 0.0515122
-0.074623905 -0.020063058 -0.0072717885 0.022432646 -0.043311168 -0.08827349 0.010531462 0.104003705
-0.06280696 -0.19039243 0.18325049 0.015812157 -0.06872445 -0.017238704 -0.1284758 0.056807317
0.030882109 0.033375368 -0.04331093 0.06655886 0.03801005 0.07306714 0.07473941 0.009418852
-0.054272614 0.06456992 -0.07906607 -0.06123724 -0.09638605 -0.080808766 -0.07824404 -0.008328485
-0.042748276 0.0821441 -0.015221139 0.089997955 -0.06682743 0.05268663 0.10750119 0.06870596
0.12938361 -0.06148211 -0.005261412 -0.15597259 0.020138443 0.17641097 -0.0839472 -0.088680185
-0.091458574 0.1379041 0.040926315 -0.011091884 -0.11483393 0.065451674 -0.189465 -0.065064736
0.018558308 -0.07140018 0.0014375797 -0.06368801 0.038316343 -0.04354004 0.020713836 0.07945069
-0.07669894 -0.023790872 -0.11362498 0.0082947565 -0.04166305 -0.03519898 -0.10716295 -0.033522427
0.079675175 0.006372284 -0.070646964 -0.08394197 0.00026255343 0.020600976 0.031982753 -0.18059935
0.12414597 0.2715232 -0.011112217 -0.110802524 -0.095098354 0.042175584 -0.018543633 0.13546349
-0.07423673 0.121345915 -0.03627288 0.034655713 -0.092896484 -0.12787805 0.06364867 0.21727045
-0.011614204 -0.059138976 0.13459824 0.053716045 -0.0067873397 0.059502415 -0.023499515 0.07496755
-0.09314162 0.061353363 0.015482955 -0.020718312 0.00375227 -0.09028277 0.017207818 -0.030278306
0.042743437 -0.066242464 0.08108576 0.056206647 -0.014151422 -0.055104885 0.095713004 0.096252516
0.022624627 0.012096248 0.032623935 0.04409063 -0.09570016 0.09708491 0.041167695 0.05215409
-0.06629081 -0.04085045 0.058945943 -0.07301491 0.012167049 -0.008630777 0.050858796 0.12103539
0.035072867 -0.047998786 0.018655414 0.09553667 0.029378762 0.034541175 -0.05736791 -0.03891046
0.078413345 -0.09891198 -0.047822222 -0.037600752 -0.03449209 0.005663005 0.024938498 -0.03555921
0.029764766 0.10407702 -0.11219764 -0.12910901 0.023655634 0.06319169 0.037217416 -0.014931014
0.036318593 0.059501145 -0.04887727 -0.014722853 -0.14128594 -0.09189421 -0.033777386 0.06503787
-0.07442998 0.027765715 0.016918987 0.03538395 0.0015464697 -0.06817412 -0.03420457 -0.05391943
-0.0117796855 -0.067858554 0.028226648 0.009996515 -0.017576016 0.07023697 0.028472569 0.15153724
-0.06473296 0.059605718 0.0154666295 -0.04650559 0.03852663 0.023529978 0.093636185 -0.049214486
-0.0144365225 -0.048492696 -0.047923937 -0.07240829 0.07467403 0.03792262 -0.0128371185 0.0046855984
0.074169815 0.09706555 -0.0018122479 0.01915789 0.022406276 -0.01782221 0.093225755 -0.06843343
0.028013285 -0.07464104 0.055061106 -0.027838876 -0.067203656 -0.110064305 -0.031112334 -0.104055025
-0.009279511 0.051852565 -0.018032858 0.029850623 0.0698621 0.044299778 0.1299679 -0.09172706
0.056979645 -0.0049319137 -0.010288894 -0.030355638 0.009842741 -0.050000284 -0.14202344 -0.028886247

bias f4 [10]
00000000: 9e10 18be 74cc 64bf f7c8 cc3e f003 593f
00000010: f6d3 db3e e650 bf3e 4368 a2bc af45 a0be
00000020: 1bb3 17bf c925 c9bd
-0.14850089 -0.8937447 0.39997074 0.84771633 0.4293515 0.37366408 -0.019825106 -0.31303164
-0.5925767 -0.0982166
